01_mlp/2_mlp.pth (torch, 2519 bytes, 5 tensors)

fc1.weight f4 [10, 1]
000000 d0 6c a8 bf bb b3 33 bf 2a 4d 57 3e ce c7 9a 3f
       -1.3158207 -0.7019612 0.2102553 1.2092226
000010 49 f7 e1 3e 15 ea 61 3f 87 2d c5 3e 35 71 76 3f
       0.44133976 0.88247806 0.38511297 0.9626649
000020 dd 46 ad 3f e0 cd 5a 3f
       1.3537251 0.8547039

fc1.bias f4 [10]
000000 2f 42 9d 3d f1 fb 89 3f 34 11 34 3f 3e dd 1b 3e
       0.07678639 1.0780011 0.7033875 0.15221116
000010 c5 87 88 3e 45 55 8b 3f 1d cf 4e 3e 33 2c 44 be
       0.26666084 1.0885397 0.20196195 -0.19157486
000020 64 3f 79 be fb 1a a9 bf
       -0.24340588 -1.3211359

fc2.weight f4 [11, 10]
000000 db 01 10 bf 1a 00 32 3f 2e ee 08 bf 0a 9e 11 3f
       -0.5625283 0.69531405 -0.53488433 0.56881773
000010 58 70 21 be 26 85 5e bf b6 ce 56 bf da 6b e0 3d
       -0.15765512 -0.8692192 -0.83909166 0.10958071
000020 a8 3c c1 3e 30 bd 40 bf d7 93 82 3e ab 6b 3d 3d
       0.3774159 -0.7528868 0.25503418 0.04624526
000030 16 69 e5 3e 0a de 2f 3d a1 8b 6d be d0 0b c1 3e
       0.44806737 0.042936362 -0.23197795 0.37704325
000040 75 ff 96 3d 10 d1 02 be 00 16 1b bc 03 fc 7d 3e
       0.07372943 -0.12775064 -0.009465694 0.24803166
000050 56 f0 e1 be 22 ca 21 3f 82 5e 06 bf 10 d1 3e 3f
       -0.44128674 0.63199055 -0.5248796 0.74537754
000060 5d 80 44 bf c0 69 78 bf b5 d1 47 bf f4 05 e7 3e
       -0.76758367 -0.9703636 -0.7805436 0.4512173
000070 47 c6 f8 3e 44 9b 88 bf 58 eb 59 be 30 c8 f4 3d
       0.48588774 -1.0672383 -0.21281183 0.11952245
000080 66 cb 04 bf 4f a8 83 3d b6 63 b3 be c2 8b f7 be
       -0.5187286 0.06428587 -0.3503701 -0.48348814
000090 d0 12 d0 be 0f d6 2b 3e 01 5d 9c 3e a5 66 65 be
       -0.40639353 0.16780876 0.30539706 -0.22402437
0000a0 ff d1 fa 3e b7 18 49 3e ab b2 71 bf b1 cc f7 be
       0.4898834 0.19638334 -0.9441325 -0.48398355
0000b0 9b b7 30 3e fa be 0f bf f5 f5 36 bd fc 08 d9 be
       0.1725754 -0.5615078 -0.044668157 -0.42389667
0000c0 01 5f 02 bf e0 d5 05 3e 77 ab 17 3f fd 54 66 3e
       -0.50926214 0.13069868 0.5924601 0.22493358
0000d0 20 54 29 bf 4b 5e fa be 9e af 16 be df fd 69 bf
       -0.6614399 -0.48900065 -0.1471543 -0.91403
0000e0 42 5f 5b be cd 83 ba be 6b 0f 9b be 0c 26 51 bd
       -0.21423057 -0.3642868 -0.302852 -0.051061675
0000f0 c7 75 2d 3f 6a c4 23 bf 09 d3 2b 3f 15 7a 44 bf
       0.6775784 -0.6397158 0.6711889 -0.7674878
000100 e8 64 23 3f 5e 2c 83 3f 07 79 7c 3f 57 48 4a be
       0.63825846 1.0247915 0.98622173 -0.19754158
000110 2f d5 e6 be bd e0 59 3f a1 8b 01 3f 0c 62 76 3f
       -0.4508452 0.8510855 0.5060368 0.9624336
000120 33 31 8e bd 16 c8 f2 be 0c db 88 be 65 14 e3 be
       -0.06942978 -0.47418278 -0.2672962 -0.44351497
000130 bd f4 f1 bd 64 98 fd be ee 36 29 bf 00 da ef be
       -0.11814258 -0.49530327 -0.6609944 -0.46846008
000140 58 fa d2 bd 11 52 2c 3e 60 fe 8d 3e 54 3c b1 3c
       -0.103016555 0.16828181 0.27733135 0.021635212
000150 ff ce ac 3e d5 41 21 3f e8 e5 07 3e 4d 8a 67 3d
       0.33751675 0.62991077 0.13271296 0.05652838
000160 a2 5f 5c 3d 3a a0 37 bd 6d 2b d4 3e 8f 8b 36 bf
       0.05380214 -0.04483054 0.4143938 -0.713067
000170 55 e0 19 3f 08 0a 03 bf 64 3a 22 3f 92 ab 35 3f
       0.6010793 -0.5118718 0.6337035 0.7096492
000180 d6 c1 51 3f 70 b8 bf bd 22 13 1c bf 5a 24 01 3f
       0.81936395 -0.093613505 -0.60966694 0.50446093
000190 68 23 cb be a3 1d 56 3e 0f 85 be be 3a 17 4e 3f
       -0.3967545 0.20909743 -0.3721089 0.8050419
0001a0 80 2f 0b 3f b0 43 06 3e 57 bf 09 be f9 86 2e 3f
       0.54369354 0.13111758 -0.13451897 0.681747
0001b0 e5 8f 43 3f 82 99 dd be
       0.7639144 -0.4328118

fc2.bias f4 [11]
000000 69 63 30 3e 8f 7a dd bd a9 6f 7f 3d 96 87 a6 3c
       0.17225422 -0.10814392 0.062362347 0.020328324
000010 14 47 ef be ac b1 dc be 5d cd 5b be 88 2e de 3e
       -0.46733916 -0.43104303 -0.21465059 0.43394876
000020 be 7a d3 3d ae c9 81 be 97 92 cf 3d
       0.103261456 -0.25349182 0.10135382

fc3.weight f4 [1, 11]
000000 d2 e1 40 3f dc 56 f6 bb dc b0 3d 3f 17 a1 24 3f
       0.75344574 -0.0075176787 0.7409799 0.64308304
000010 7e dc fe be 70 ef 1e bf 8d bd 4c bf 62 c5 a6 be
       -0.49777597 -0.620841 -0.7997673 -0.32572466
000020 c7 44 a1 be 26 90 7a bf 74 a0 85 bd
       -0.31497785 -0.97876203 -0.06524745
