06_gnn/1_gnn.pth (torch, 57915 bytes, 14 tensors)

pre_net.weight f4 [10, 9]
-0.056955785 0.4983577 0.6943415 -0.28548726 0.49077153 -0.3431104 -0.6946063 0.32596484
0.05331705 0.17390028 0.20088328 0.37924013 -0.52012885 -0.42257366 0.24287082 -0.14432119
0.23230295 -0.4547265 0.8940047 0.35808784 -0.4523129 -0.47664952 0.17306624 0.17141043
0.24116127 -0.046925552 -0.26824716 0.19495417 0.7860733 0.10115659 0.10676779 -0.27485034
-0.81693953 0.21701683 0.111512646 -0.66739273 -0.04663261 -0.39334098 -0.2887762 -0.21164744
0.74273413 -0.23644464 0.362944 0.69965434 -0.13605534 0.10936663 0.057526622 -0.013495864
0.6344686 0.5402089 0.14394182 0.13179088 -1.0244974 -0.7299218 0.12052709 -0.5836279
-0.22820693 0.128987 -0.088817626 -0.92708695 0.07707479 -0.075662956 -0.4477378 -0.13642845
-0.4530281 0.5288284 0.41587055 -0.19367515 -0.20672256 -0.8489091 -0.19730163 -0.02155902
-0.34816712 0.12939773 -0.9363485 0.3643516 0.17538488 -0.20754108 -0.43919092 -0.07368686
-0.15955617 -0.2674899 -0.46310273 -0.30183065 -0.116715424 0.29295358 -0.49410534 0.42836142
0.27028254 0.823352
00000000: 784a 69bd be28 ff3e 5dc0 313f 632b 92be
00000010: 6846 fb3e 2bac afbe b8d1 31bf dde4 a63e
00000020: fb62 5a3d ea12 323e 59b4 4d3e c32b c23e
00000030: 2a27 05bf 935b d8be 21b3 783e efc8 13be
00000040: d3e0 6d3e e9d1 e8be 7edd 643f 4a57 b73e
00000050: 8e95 e7be 680b f4be 4738 313e 3786 2f3e
00000060: fbf2 763e 0235 40bd b157 89be 11a2 473e
00000070: 1a3c 493f 302b cf3d 12a9 da3d 2fb9 8cbe
00000080: f322 51bf a939 5e3e be60 e43d 40da 2abf
00000090: d601 3fbd fd63 c9be 79da 93be 1bba 58be
000000a0: d323 3e3f 8b1e 72be ccd3 b93e 8c1c 333f
000000b0: 1752 0bbe 9dfb df3d 09a1 6b3d c21d 5dbc
000000c0: 896c 223f 214b 0a3f 7c65 133e 30f4 063e
000000d0: bb22 83bf 28dc 3abf e8d6 f63d a368 15bf
000000e0: 14af 69be 2b15 043e 04e6 b5bd 9255 6dbf
000000f0: 63d9 9d3d 2ef5 9abd e43d e5be e6b3 0bbe
00000100: 4df3 e7be 4c61 073f fcec d43e c752 46be
00000110: 14af 53be 1b52 59bf 7009 4abe 8b9c b0bc
00000120: f642 b2be d780 043e 89b4 6fbf 4b8c ba3e
00000130: 1898 333e a685 54be a2dd e0be 23e9 96bd
00000140: b162 23be 70f4 88be cd1b edbe 8c89 9abe
00000150: 7f08 efbd 03fe 953e 60fb fcbe 3052 db3e
00000160: 7962 8a3e 32c7 523f

pre_net.bias f4 [10]
-0.06920471 -0.30368504 -0.042248253 -0.1577022 0.25211415 -0.027652176 0.026445718 0.037497662
-0.3395525 -0.31820086
00000000: 33bb 8dbd 9b7c 9bbe 810c 2dbd af7c 21be
00000010: 1b15 813e d186 e2bc b1a4 d83c 2697 193d
00000020: d3d9 adbe 39eb a2be

msg_net.0.weight f4 [96, 20]
-0.021378346 -0.18037386 -0.1944583 0.22238663 -0.22670545 -0.15999149 0.050373074 -0.25660345
0.031347737 -0.20316228 0.11862369 0.011416521 -0.17628613 -0.07751341 -0.087185465 -0.23770332
0.017619502 -0.1390713 0.0069993907 0.23446539 -0.117065 -0.06257536 0.030960467 0.121045
0.21456581 0.24528396 -0.13832104 -0.24928072 0.14243263 0.24102364 0.19549866 0.007436869
-0.19563183 0.08728651 -0.039147373 0.25382942 -0.28087753 0.016052641 -0.14201069 -0.18745397
-0.091644235 -0.09493002 -0.116952196 -0.16749133 -0.024953788 -0.20542309 -0.47735888 0.037399665
-0.005723335 0.12570366 0.14848587 -0.15620436 0.14956392 -0.11903183 -0.01694754 -0.077697635
-0.03289239 0.20290262 0.14464794 0.104241945 -0.14643717 -0.15351446 -0.15122966 0.18104555
0.048583996 0.008002666 -0.11102631 -0.29033232 0.19095896 -0.044008665 -0.14549805 -0.017535362
0.2701371 -0.095032394 0.121862434 -0.12597714 -0.1489123 -0.025627114 0.1886109 -0.26415512
0.1556897 0.21572635 0.16212077 -0.12290394 -0.28909597 0.24604936 -0.00991627 0.11062518
-0.053108566 -0.05048337 -0.11752627 0.06332748 -0.043706484 -0.0011334768 0.13497452 -0.05711179
-0.08006223 -0.16168457 -0.18906105 0.04091434 0.043967023 -0.16654043 -0.13307303 0.10889192
0.14497975 -0.07181423 -0.24197009 0.14573222 -0.14250578 0.0803355 0.10151424 0.072563305
-0.0017534357 -0.08600252 -0.13498035 0.0569715 -0.19930525 -0.03409331 0.17214072 -0.23394169
-0.21457182 -0.066719055 -0.10072896 -0.14660284 0.15705043 0.011185099 0.17078899 0.2042294
0.041703437 0.089678474 0.19315869 0.06999733 0.076326445 -0.2724717 0.11920427 0.058618065
-0.010587621 0.22617587 -0.22445121 -0.26221287 -0.15905252 0.10531279 0.049056426 -0.022370245
0.27738795 -0.11491033 0.046752445 0.0069721756 -0.01642152 0.00506738 -0.085502274 -0.14030991
-0.095402054 -0.10715616 -0.16675928 0.3324289 0.2358623 0.31825247 0.13661708 0.08270038
0.2493723 -0.07937054 -0.20444141 0.12968877 0.10336486 -0.29113576 0.049104985 0.42571467
-0.018881517 0.061439183 -0.123786226 -0.020692538 0.25078192 -0.0574972 0.18650581 0.13899677
0.16799842 0.042019192 0.080617614 0.05683208 0.2753016 0.09571362 -0.020883901 -0.063488364
0.04063462 -0.083658755 -0.35285264 -0.11835633 -0.025095023 -0.31447524 -0.12531257 -0.25768572
0.079960726 -0.2571536 0.04312314 -0.12088358 -0.10018721 0.16229647 -0.04965484 0.13739493
-0.16120946 0.030195218 0.44441158 -0.07897522 0.14472161 0.14279084 0.20695043 -0.17435306
-0.050056417 0.07863907 0.25422052 -0.22949754 -0.18823418 -0.13801797 0.20601873 -0.067489885
0.0969918 0.2448032 -0.11410049 0.1165446 -0.07765319 -0.025832625 0.21527189 0.37409714
-0.12532842 -0.13209508 -0.19537228 -0.05597714 0.2801875 -0.0163808 -0.30612028 -0.17077978
0.16596054 -0.117068335 0.0923596 -0.00944696 0.016321626 -0.006207202 0.21524851 -0.079028934
0.14524955 -0.21484704 -0.2100842 0.08808456 0.22747563 -0.020209236 -0.011054557 -0.10887436
0.16466527 -0.38568068 -0.14101148 -0.10530449 -0.0758721 0.24770515 -0.036165785 -0.050432216
00000000: a421 afbc edb3 38be 1420 47be 52b9 633e
00000010: 7925 68be cfd4 23be ff53 4e3d 8761 83be
00000020: 7c66 003d c609 50be faf0 f23d 5c0c 3b3c
00000030: 5a84 34be 5abf 9ebd 4b8e b2bd 8068 73be
00000040: c656 903c b568 0ebe 255b e53b b217 703e
00000050: c6bf efbd 8327 80bd cea0 fd3c 71e6 f73d
00000060: 24b7 5b3e b82b 7b3e 08a4 0dbe 7243 7fbe
00000070: dcd9 113e e7ce 763e cd30 483e fbb0 f33b
00000080: b653 48be 45c3 b23d ff58 20bd eef5 813e
00000090: 2ecf 8fbe d480 833c 406b 11be eff3 3fbe
000000a0: f9af bbbd ac6a c2bd a284 efbd d982 2bbe
000000b0: e36b ccbc 6e5a 52be 6268 f4be 6430 193d
000000c0: d08a bbbb 76b8 003e ae0c 183e 09f4 1fbe
000000d0: 4927 193e f6c6 f3bd 91d5 8abc f01f 9fbd
000000e0: 2cba 06bd b4c5 4f3e 971e 143e cd7c d53d
000000f0: a0f3 15be e532 1dbe f3db 1abe 0164 393e
00000100: 0300 473d 9d1d 033c c361 e3bd 70a6 94be
00000110: bf8a 433e 6e42 34bd 71fd 14be 52a6 8fbc
00000120: 694f 8a3e 58a0 c2bd 0393 f93d 2700 01be
00000130: 777c 18be f4ef d1bc 3723 413e 573f 87be
00000140: 1f6d 1f3e 5ee7 5c3e fd02 263e 10b5 fbbd
00000150: 6304 94be 5df4 7b3e da77 22bc 748f e23d
00000160: 5e88 59bd a6c7 4ebd 9db1 f0bd d6b1 813d
00000170: 9205 33bd 2c91 94ba c336 0a3e 0dee 69bd
00000180: abf7 a3bd a490 25be 3899 41be cc95 273d
00000190: c416 343d 9389 2abe 4c44 08be ba02 df3d
000001a0: 9275 143e 5713 93bd 02c7 77be d43a 153e
000001b0: 09ed 11be f086 a43d b3e6 cf3d 129c 943d
000001c0: 8ad3 e5ba 1722 b0bd 4a38 0abe f35a 693d
000001d0: ad16 4cbe 6da5 0bbd a845 303e 698e 6fbe
000001e0: b7b8 5bbe 00a4 88bd fc4a cebd 0e1f 16be
000001f0: d4d1 203e b541 373c 4fe3 2e3e 8321 513e
00000200: 39d1 2a3d 59a9 b73d 64cb 453e c35a 8f3d
00000210: 0a51 9c3d 6981 8bbe 5e21 f43d 7f19 703d
00000220: b377 2dbc a69a 673e 8ad6 65be c440 86be
00000230: aade 22be 3bae d73d 64ef 483d ce41 b7bc
00000240: cb05 8e3e 1b56 ebbd 7e7f 3f3d d976 e43b
00000250: 6c86 86bc 440c a63b d11b afbd 67ad 0fbe
00000260: 2762 c3bd b074 dbbd f2c2 2abe 1f34 aa3e
00000270: e385 713e fdf1 a23e 59e5 0b3e d15e a93d
00000280: 745b 7f3e 068d a2bd 1759 51be 22cd 043e
00000290: f5b0 d33d bf0f 95be 4f22 493d 46f7 d93e
000002a0: 69ad 9abc a7a7 7b3d a283 fdbd 6683 a9bc
000002b0: 7d66 803e 2f82 6bbd 61fb 3e3e 2b55 0e3e
000002c0: c707 2c3e 511c 2c3d d91a a53d c1c8 683d
000002d0: 55f4 8c3e 8105 c43d b714 abbc 3006 82bd
000002e0: 7d70 263d 4855 abbd 1aa9 b4be ce64 f2bd
000002f0: 1494 cdbc e602 a1be f051 00be 62ef 83be
00000300: 73c2 a33d a3a9 83be e4a1 303d cf91 f7bd
00000310: f42e cdbd 0c31 263e e062 4bbd 42b1 0c3e
00000320: 1814 25be f65b f73c ea89 e33e c3bd a1bd
00000330: e731 143e c337 123e d0ea 533e 9c89 32be
00000340: f507 4dbd 850d a13d 3129 823e 6701 6bbe
00000350: 76c0 40be 9554 0dbe 93f6 523e 2338 8abd
00000360: a3a3 c63d b1ad 7a3e 85ad e9bd efae ee3d
00000370: a308 9fbd f19e d3bc 3c70 5c3e a989 bf3e
00000380: 1856 00be ef43 07be ac0f 48be 4948 65bd
00000390: bc74 8f3e 0731 86bc ccbb 9cbe e5e0 2ebe
000003a0: 8ff1 293e 86c1 efbd 0827 bd3d 6cc7 1abc
000003b0: eeb4 853c c965 cbbb 1b6a 5c3e ecd9 a1bd
000003c0: 4cbc 143e dd00 5cbe 5020 57be ae65 b43d
000003d0: 5fef 683e d78d a5bc 2c1e 35bc 85f9 debd
000003e0: 039e 283e f077 c5be 5065 10be e1a9 d7bd
000003f0: d562 9bbd 6ba6 7d3e 9322 14bd 0392 4ebd

msg_net.0.bias f4 [96]
0.1097258 0.04156549 0.043467585 0.111322634 0.11175762 -0.040221628 -0.1319872 0.14105327
0.06819725 -0.04777309 0.08834502 0.075323105 -0.23987389 0.016618695 -0.11047922 -0.032958027
-0.04210159 -0.120354384 -0.18820627 0.10420819 -0.025033914 -0.029111069 -0.07446569 -0.12390976
0.045852307 -0.15330799 -0.031049952 0.14794391 0.20189643 -0.13849851 0.17624816 0.16898547
-0.12880433 0.005018591 0.15681228 0.0839093 0.2019037 0.14130567 0.16599934 -0.17657821
0.18734553 0.059543923 -0.024425987 0.10129538 0.0323715 -0.09030544 -0.1777353 0.07238487
0.028151268 -0.06098434 -0.0069028647 -0.016164677 -0.277558 -0.11397933 0.18507391 0.04763203
-0.09616227 -0.083906494 0.07826175 -0.069843926 0.17520526 0.09031907 -0.073036686 -0.08462956
-0.0018513375 0.13457866 -0.07476706 0.14025983 0.18248656 0.044077702 -0.060148083 -0.06167527
-0.11647109 0.2644587 -0.0023979202 -0.085046835 0.04942405 -0.18221751 -0.08511469 -0.012157958
-0.17294149 -0.18480948 0.09973824 -0.104184076 0.094005935 0.1877114 0.1878845 0.1467229
-0.071182 0.13019247 0.21817699 -0.01631951 0.21392575 -0.17362563 0.19073887 -0.06081227
00000000: ecb7 e03d 9340 2a3d 110b 323d 1ffd e33d
00000010: 2ee1 e43d 6fbf 24bd a727 07be 4570 103e
00000020: 00ab 8b3d b7ad 43bd 3cee b43d 0043 9a3d
00000030: 80a1 75be ee23 883c ee42 e2bd fffe 06bd
00000040: b872 2cbd 5c7c f6bd 25b9 40be 1b6b d53d
00000050: ec13 cdbc 567a eebc 7881 98bd 66c4 fdbd
00000060: a1cf 3b3d c5fc 1cbe 785c febc 9c7e 173e
00000070: f0bd 4e3e 8ed2 0dbe 667a 343e 870a 2d3e
00000080: 48e5 03be fe72 a43b 6693 203e a4d8 ab3d
00000090: d8bf 4e3e 6fb2 103e bbfb 293e ebd0 34be
000000a0: 82d7 3f3e 54e4 733d 0219 c8bc f473 cf3d
000000b0: fa97 043d 0ff2 b8bd 3e00 36be 853e 943d
000000c0: 7d9d e63c b7ca 79bd 6d31 e2bb c96b 84bc
000000d0: 151c 8ebe ff6d e9bd 0484 3d3e ce19 433d
000000e0: b9f0 c4bd 2bd7 abbd b247 a03d 550a 8fbd
000000f0: 0269 333e 34f9 b83d 4294 95bd 4352 adbd
00000100: 94a8 f2ba fdce 093e 791f 99bd 46a0 0f3e
00000110: c2dd 3a3e d28a 343d d65d 76bd 359f 7cbd
00000120: 6588 eebd 2167 873e 6d26 1dbb 092d aebd
00000130: df70 4a3d 3a97 3abe 9c50 aebd 2c32 47bc
00000140: 9317 31be b23e 3dbe 9043 cc3d 765e d5bd
00000150: 2f86 c03d 6b37 403e cb64 403e 873e 163e
00000160: dec7 91bd 2d51 053e ca69 5f3e 7eb0 85bc
00000170: 5a0f 5b3e ebca 31be 0d51 433e 4916 79bd

msg_net.2.weight f4 [96, 96]
0.032405704 0.027761389 0.10233119 -0.06271397 0.06787051 -0.25123873 -0.062446017 -0.033752445
-0.23840396 0.040753067 0.055347513 -0.01785411 0.02637764 -0.08404277 0.09055255 -0.1293361
-0.021588154 0.17770107 -0.08487379 0.0056785597 -0.012444274 0.01862011 -0.017038707 -0.07257086
-0.21629871 -0.10624056 -0.089078076 -0.012494426 0.122353524 -0.0492983 -0.00050924957 0.018015943
0.09329129 0.0017426739 0.02097414 0.038078498 0.11651439 -0.023605062 0.11646039 -0.089055724
-0.06215209 0.11049884 -0.08231655 0.052515797 0.019247528 -0.19152126 -0.008499766 0.05991418
-0.0036045143 -0.19681716 -0.106278755 -0.08799389 0.015330533 -0.017307768 -0.03345868 -0.04743586
-0.271255 -0.19470967 -0.07147367 0.2229547 0.032070126 -0.026512444 0.19922915 -0.11706901
-0.041644495 0.02852296 0.0018138965 -0.084896356 0.08229589 0.18966788 -0.035206452 -0.037921164
-0.016730215 0.027115652 -0.090022594 -0.017612303 -0.13985325 -0.20494395 -0.053683765 -0.28657907
-0.1603108 0.2278341 -0.028509017 -0.028589197 0.046129566 -0.13408439 -0.12480399 0.047858395
0.07559364 -0.18078652 0.11890427 0.058283344 0.013018294 -0.1490137 -0.13806716 -0.2465139
0.050045997 -0.11469543 0.061038986 -0.0430591 -0.0924193 0.008345383 0.122338474 0.08650771
0.014596875 0.13425192 0.12976876 -0.12566653 -0.20585483 0.07877065 0.06601655 -0.38173527
0.045782458 -0.09066668 -0.19683701 -0.05459086 0.09221815 0.09807365 -0.17454773 0.048848066
0.0071098427 0.08672519 0.055411816 -0.02367818 -0.23583847 0.031533383 0.037794974 0.06441025
-0.09721564 -0.34613633 -0.018343931 0.06474895 -0.11141803 -0.029097093 0.085197166 -0.006689647
0.05538478 -0.039065655 0.34757018 0.005378471 0.07408727 -0.14620654 0.1528812 0.064752996
0.052505318 -0.26316983 -0.003213119 -0.04970246 -0.10012787 0.12953968 -0.014262427 -0.02266366
-0.10285947 -0.04091469 -0.08393869 -0.020048944 0.013717907 0.0024956376 0.058133684 -0.17715548
0.0019516982 0.022772044 0.18439604 0.038160656 0.0052002044 0.13273123 -0.11969263 -0.046378642
0.044383075 0.050848193 -0.25553295 0.1318908 -0.08799102 -0.37259647 -0.34054655 -0.05725881
-0.21449164 -0.33430222 -0.13213362 -0.004577714 0.0329427 -0.064807124 -0.06995424 0.12471606
-0.027578793 -0.06666862 -0.17142697 0.1281554 -0.019271884 -0.106527925 0.02797585 -0.117527016
-0.033610076 0.06250987 0.12243389 -0.12650357 -0.07189167 -0.07481475 0.027979886 0.12126
-0.076219305 -0.012192036 -0.06557203 0.0065730917 -0.076254375 0.07533713 0.075814076 -4.549796e-05
0.0060654026 0.07048163 0.052033573 0.076977946 -0.03537318 -0.022433985 0.09188396 0.15057148
-0.08839107 0.023528008 -0.022558622 -0.03195623 0.07334586 -0.042656146 0.067054056 -0.104256526
-0.17668547 0.062491186 -0.097210705 0.018058209 -0.09096021 0.012031858 0.10811613 -0.09431594
0.061172023 -0.091770485 0.23617119 -0.0026577902 0.011151715 -0.047601894 -0.03238619 0.095818155
0.099961415 0.0552099 -0.1079506 -0.13617349 -0.044828463 0.25564986 -0.05850623 0.0332087
-0.07859813 -0.042001277 0.0151332095 -0.10382937 -0.045399822 0.007840444 -0.0877096 -0.04508882
00000000: d8bb 043d da6b e33c 0493 d13d 2f70 80bd
00000010: b2ff 8a3d 5da2 80be 65c7 7fbd 0140 0abd
00000020: 2b20 74be b0ec 263d 13b4 623d c842 92bc
00000030: ec15 d83c 9e1e acbd 9e73 b93d af70 04be
00000040: a4d9 b0bc 45f7 353e 4fd2 adbd 3613 ba3b
00000050: 11e3 4bbc 3389 983c c294 8bbc 08a0 94bd
00000060: 697d 5dbe a794 d9bd 916e b6bd 6cb5 4cbc
00000070: 7c94 fa3d 04ed 49bd 297f 05ba 2c96 933c
00000080: 810f bf3d 6f6a e43a f6d1 ab3c 33f8 1b3d
00000090: 199f ee3d 675f c1bc c982 ee3d d962 b6bd
000000a0: 3193 7ebd 374d e23d 9495 a8bd ce1a 573d
000000b0: feac 9d3c 261e 44be 9a42 0bbc 9268 753d
000000c0: b739 6cbb 708a 49be ada8 d9bd 2436 b4bd
000000d0: ea2c 7b3c 05c9 8dbc f80b 09bd 1b4c 42bd
000000e0: efe1 8abe f961 47be ca60 92bd 3d4e 643e
000000f0: f75b 033d a030 d9bc ba02 4c3e e1c1 efbd
00000100: 6b93 2abd fca8 e93c 44c0 ed3a 24de adbd
00000110: bf8a a83d 4c38 423e a434 10bd 3953 1bbd
00000120: ce0d 89bc a521 de3c c45d b8bd ad47 90bc
00000130: b135 0fbe d4dc 51be 82e3 5bbd 7eba 92be
00000140: 8428 24be 584d 693e be8b e9bc e433 eabc
00000150: 5bf2 3c3d 6b4d 09be 3c99 ffbd 2a07 443d
00000160: d7d0 9a3d 1a20 39be 1584 f33d 84ba 6e3d
00000170: af4a 553c 0c97 18be 7a61 0dbe 246e 7cbe
00000180: 08fd 4c3d 70e5 eabd 0404 7a3d bd5e 30bd
00000190: 5446 bdbd 13bb 083c 988c fa3d f42a b13d
000001a0: bb27 6f3c 5679 093e 1ae2 043e baae 00be
000001b0: 9ccb 52be 8252 a13d af33 873d ce72 c3be
000001c0: 6386 3b3d 74af b9bd a48f 49be aa9a 5fbd
000001d0: dfdc bc3d d6da c83d a4bc 32be e914 483d
000001e0: aff9 e83b fa9c b13d 80f7 623d bef8 c1bc
000001f0: a47f 71be 2629 013d e7ce 1a3d 85e9 833d
00000200: fe18 c7bd c838 b1be 0346 96bc 199b 843d
00000210: 232f e4bd 075d eebc da7b ae3d d434 dbbb
00000220: 27db 623d 4f03 20bd b8f4 b13e e33d b03b
00000230: 11bb 973d 2bb7 15be e48c 1c3e 389d 843d
00000240: d10f 573d 32be 86be 3193 52bb cf94 4bbd
00000250: d70f cdbd 0da6 043e f4ac 69bc 24a9 b9bc
00000260: fca7 d2bd 2996 27bd 0ce8 abbd af3d a4bc
00000270: 12c1 603c da8d 233b 961d 6e3d 3f68 35be
00000280: 20d0 ff3a 708c ba3c 51d2 3c3e 594e 1c3d
00000290: 7a66 aa3b b2ea 073e 6921 f5bd 88f7 3dbd
000002a0: 07cb 353d 3246 503d 37d5 82be 620e 073e
000002b0: a334 b4bd f7c4 bebe 1e5c aebe 3788 6abd
000002c0: b2a3 5bbe a929 abbe 094e 07be a600 96bb
000002d0: edee 063d 99b9 84bd 2b44 8fbd 226b ff3d
000002e0: ecec e1bc 8f89 88bd 8d8a 2fbe 2b3b 033e
000002f0: 12e0 9dbc 502b dabd 9c2d e53c 01b2 f0bd
00000300: b8aa 09bd 2d05 803d 9fbe fa3d 278a 01be
00000310: f13b 93bd 7a38 99bd 1336 e53c 2a57 f83d
00000320: de18 9cbd 1bc1 47bc a14a 86bd 1763 d73b
00000330: 412b 9cbd 5a4a 9a3d 6944 9b3d 10d5 3eb8
00000340: 49c0 c63b ac58 903d 2821 553d 9da6 9d3d
00000350: 78e3 10bd 7ac7 b7bc a82d bc3d 692f 1a3e
00000360: 6106 b5bd cfbd c03c dccc b8bc 89e4 02bd
00000370: 5b36 963d 36b8 2ebd a353 893d 7284 d5bd
00000380: 09ed 34be c2f6 7f3d 6816 c7bd cfee 933c
00000390: 5949 babd 4521 453c fd6b dd3d b728 c1bd
000003a0: 848f 7a3d 2af2 bbbd dcd6 713e 522e 2ebb
000003b0: afb5 363c 34fa 42bd 62a7 04bd 4f3c c43d
000003c0: 92b8 cc3d c723 623d 3415 ddbd 1071 0bbe
000003d0: 0d9e 37bd 8ae4 823e 3ba4 6fbd d905 083d
000003e0: 0ef8 a0bd 8809 2cbd 48f1 773c 7ea4 d4bd
000003f0: 2af5 39bd 3575 003c 17a1 b3bd 0eaf 38bd

msg_net.2.bias f4 [96]
-0.04372936 -0.03200805 0.057995282 -0.067815684 0.11491416 0.04045471 -0.06776738 0.06689153
0.023717828 -0.0702687 -0.016009336 0.06343156 0.07039576 0.0298467 0.03332478 -0.074089065
0.054393686 0.028410526 0.07101355 -0.07409604 0.054257553 0.055593535 0.031209588 -0.051711235
0.026191195 0.10527414 0.10468235 0.0005808751 0.041747842 -0.0831371 0.04975174 -0.09265868
0.081808716 -0.053700507 0.02330402 0.011178246 0.020904858 -0.034492806 -0.07619346 0.087224245
0.07712311 -0.10594084 0.06964374 -0.121286236 -0.039074413 0.081590906 0.0473515 -0.06219172
0.10244625 -0.08618332 -0.005917707 -0.10861062 -0.006585525 0.062280383 -0.10342728 0.03233236
0.068756595 0.09102827 -0.052857116 -0.041266076 -0.052671652 -0.055696398 0.08105947 -0.04383732
0.0715057 -0.06366998 0.06789083 -0.05890997 0.03614759 0.046166927 0.08835475 -0.0075348048
0.051986676 0.11579613 0.011814813 -0.08279306 -0.09223868 -0.0872126 -0.017595448 -0.113348536
0.09325242 -0.06447153 -0.07504602 -0.03142639 0.06572906 0.051156517 -0.042940114 -0.02514469
0.015051111 -0.05801154 -0.022386534 0.038505934 0.085833535 -0.05112704 -0.019258829 0.025047522
00000000: 8f1d 33bd df1a 03bd 768c 6d3d f3e2 8abd
00000010: 1d58 eb3d d7b3 253d a0c9 8abd 6dfe 883d
00000020: e44b c23c 09e9 8fbd 0326 83bc 68e8 813d
00000030: a72b 903d 1181 f43c 917f 083d 02bc 97bd
00000040: eacb 5e3d 31bd e83c 8d6f 913d aabf 97bd
00000050: 2b3d 5e3d 0cb6 633d 40ab ff3c 29cf 53bd
00000060: eb8e d63c f899 d73d b363 d63d de45 183a
00000070: c9ff 2a3d c943 aabd 7bc8 4b3d d6c3 bdbd
00000080: 548b a73d 10f5 5bbd 12e8 be3c f624 373c
00000090: aa40 ab3c 5448 0dbd 510b 9cbd a0a2 b23d
000000a0: b9f2 9d3d 83f7 d8bd 61a1 8e3d eb64 f8bd
000000b0: 7e0c 20bd 2219 a73d a5f3 413d bfbc 7ebd
000000c0: 57cf d13d e180 b0bd 53e9 c1bb 3f6f debd
000000d0: 63cb d7bb b719 7f3d afd1 d3bd f06e 043d
000000e0: 42d0 8c3d 086d ba3d b480 58bd 9e06 29bd
000000f0: 3bbe 57bd e821 64bd 8202 a63d c38e 33bd
00000100: 9571 923d 6865 82bd 590a 8b3d 954b 71bd
00000110: 7f0f 143d 8819 3d3d 56f3 b43d 86e6 f6bb
00000120: fbef 543d 8526 ed3d eb92 413c 688f a9bd
00000130: a2e7 bcbd 859c b2bd 5424 90bc 4723 e8bd
00000140: 20fb be3d a609 84bd bab1 99bd f5b8 00bd
00000150: f59c 863d 7f89 513d f9e1 2fbd 3dfc cdbc
00000160: ef98 763c 829d 6dbd f763 b7bc 66b8 1d3d
00000170: 7ec9 af3d 966a 51bd b1c4 9dbc 7630 cd3c

msg_net.4.weight f4 [11, 96]
0.048759386 0.09135667 -0.09648057 -0.08434198 -0.021932697 -0.061176244 -0.045044348 0.094355695
0.07955333 0.028354451 0.07261026 0.09912309 0.059375826 0.04325638 0.01705187 -0.04103293
-0.022559846 0.16314633 0.100814246 0.015909865 -0.09933285 0.034076534 0.13746609 0.01685557
-0.060592785 0.027215768 0.114442095 0.054190066 0.052663513 -0.051760767 0.27012095 -0.013256029
-0.08007792 0.0644971 0.110018 -0.08702022 0.0560851 -0.06866621 -0.2783025 -0.08548687
-0.113154545 0.013420696 -0.027355216 -0.40867642 -0.109607056 0.08560153 0.067504786 0.082043186
-0.2262052 0.082752846 -0.059831258 0.27764925 -0.14157222 -0.016250832 -0.11933528 0.10127779
0.124051176 -0.00921792 0.05285671 0.07049243 -0.03726839 0.0807304 0.078435235 0.020348422
0.06577527 -0.084893845 0.08480298 -0.015227477 0.06907178 -0.07566491 0.03529226 0.064767666
0.13905309 0.127515 -0.020697542 0.11445903 0.10481074 0.21142311 0.16296424 -0.036229312
-0.0887622 0.042751368 0.060356583 0.0634568 0.08217402 -0.0114833135 0.20178376 -0.04480927
0.06997961 0.04373833 -0.06761232 0.083624154 -0.040209133 -0.1479135 -0.040454313 -0.10318788
-0.2636059 -0.053484138 -0.079523906 -0.081516 -0.05261164 -0.079393394 0.06783004 -0.06478701
-0.044946034 -0.02595505 -0.12104367 -0.11176175 -0.07399486 0.15880148 0.010673616 -0.110925585
-0.004282037 -0.054722518 -0.045196287 0.025703026 -0.11239949 -0.13607691 -0.0847659 -0.23214345
0.18690695 0.12063767 0.12515905 0.0441175 -0.047623117 0.0077393744 0.1916199 -0.12581378
0.046071142 -0.10873415 0.067653134 0.0042701485 0.033664383 -0.0648526 -0.12919754 -0.055170875
0.096904255 -0.18061152 -0.06816953 -0.05607028 -0.16978493 0.07685868 -0.123001866 0.10790816
0.11279132 -0.068104126 -0.073624626 -0.1883982 0.0013222992 -0.276238 -0.035898615 0.0011912967
-0.0019708679 -0.064810164 0.07879576 0.33080527 0.09811735 0.0934009 -0.08456342 -0.12924317
0.09163451 0.047022983 -0.06268408 -0.008688025 0.029997202 -0.11063651 0.109058954 0.06922034
-0.018694766 -0.025919959 -0.105282634 0.13283469 0.0040403446 0.23774813 0.119269766 0.08741383
0.045307834 -0.04629689 -0.04142227 0.15829687 -0.12196105 -0.07652438 -0.020856682 -0.020579197
0.058148883 0.0062847366 -0.03348273 -0.0040264693 -0.026672222 -0.13750401 0.1095622 -0.07792066
-0.004365137 0.110246696 -0.0041606785 0.027173806 0.033955168 0.077582836 -0.111211576 -0.030887108
0.0058624954 -0.11200594 0.26951486 -0.12839869 -0.15125896 0.0011035338 -0.024556948 -0.016709587
-0.06026967 0.09589013 -0.0623492 -0.14268652 0.0948246 -0.055546846 0.12905891 -0.16718209
0.054284938 0.047462102 -0.08698225 0.088644646 -0.030525943 0.17007461 -0.098420195 -0.043424964
-0.10957411 -0.05749736 -0.12579238 -0.033131562 -0.09160112 -0.029280499 -0.06932241 0.006789422
-0.03096504 0.1404451 -0.080370545 -0.08512636 -0.25751638 0.030865604 0.10591299 -0.023307282
0.16761866 0.110462286 0.01994808 -0.06537744 -0.23582715 0.17485417 -0.020432452 0.08031956
0.07008934 -0.10812236 -0.06502578 0.12060196 0.040316243 -0.08763407 -0.08617593 -0.11420272
00000000: ecb7 473d 3519 bb3d 9b97 c5bd 7dbb acbd
00000010: 33ac b3bc f193 7abd 6c80 38bd 8f3d c13d
00000020: dbec a23d 9847 e83c b0b4 943d 0c01 cb3d
00000030: 1134 733d 9a2d 313d 5db0 8b3c 2512 28bd
00000040: 6dcf b8bc d50f 273e b377 ce3d 6855 823c
00000050: 056f cbbd d693 0b3d e9c3 0c3e b114 8a3c
00000060: 2430 78bd 9af3 de3c 9e60 ea3d 67f6 5d3d
00000070: b2b5 573d 1903 54bd 4b4d 8a3e d12f 59bc
00000080: e4ff a3bd 0e17 843d 1e51 e13d a837 b2bd
00000090: 7db9 653d dfa0 8cbd aa7d 8ebe bd13 afbd
000000a0: 92bd e7bd 7be2 5b3c 0c18 e0bc 093e d1be
000000b0: aa79 e0bd db4f af3d f33f 8a3d 4206 a83d
000000c0: 56a2 67be 537a a93d 9f11 75bd 0b28 8e3e
000000d0: 4ff8 10be 7720 85bc 0e66 f4bd bb6a cf3d
000000e0: 8b0e fe3d c206 17bc 4780 583d 565e 903d
000000f0: bda6 18bd fb55 a53d a7a2 a03d bcb1 a63c
00000100: 2fb5 863d d3dc adbd 2fad ad3d ab7c 79bc
00000110: 8175 8d3d 34f6 9abd 9e8e 103d e9a4 843d
00000120: ef63 0e3e 4b93 023e e48d a9bc 7f69 ea3d
00000130: 03a7 d63d 4d7f 583e 19e0 263e 3065 14bd
00000140: f5c8 b5bd 0f1c 2f3d 7738 773d a4f5 813d
00000150: da4a a83d 8224 3cbc 67a0 4e3e ed89 37bd
00000160: 7851 8f3d f726 333d 5478 8abd 2443 ab3d
00000170: 55b2 24bd a376 17be 6cb3 25bd 2b54 d3bd
00000180: 5af7 86be 2f12 5bbd 6edd a2bd dcf1 a6bd
00000190: 4e7f 57bd 0199 a2bd 7aea 8a3d 0daf 84bd
000001a0: 5519 38bd af9f d4bc bee5 f7bd 58e3 e4bd
000001b0: 9e8a 97bd db9c 223e 64e0 2e3c f42c e3bd
000001c0: 5450 8cbb b824 60bd be1f 39bd 278f d23c
000001d0: b431 e6bd bf57 0bbe bf99 adbd 03b7 6dbe
000001e0: 8964 3f3e e210 f73d b229 003e 8db4 343d
000001f0: 7510 43bd 949a fd3b 0238 443e 54d5 00be
00000200: 18b5 3c3d 03b0 debd ba8d 8a3d 9aec 8b3b
00000210: aae3 093d 71d1 84bd 5c4c 04be dbfa 61bd
00000220: bd75 c63d 3af2 38be 779c 8bbd f3a9 65bd
00000230: 1adc 2dbe 1568 9d3d 67e8 fbbd f4fe dc3d
00000240: 23ff e63d 2d7a 8bbd 82c8 96bd 75eb 40be
00000250: 0051 ad3a 116f 8dbe 6d0a 13bd 4925 9c3a
00000260: ad29 01bb 31bb 84bd ac5f a13d 4f5f a93e
00000270: c0f1 c83d f948 bf3d 962f adbd 5258 04be
00000280: e0aa bb3d 2c9b 403d 8360 80bd 3858 0ebc
00000290: b1bc f53c 6595 e2bd 4d5a df3d 65c3 8d3d
000002a0: c425 99bc 1856 d4bc 6c9e d7bd d105 083e
000002b0: de64 843b 3f74 733e b543 f43d 0606 b33d
000002c0: b594 393d cfa1 3dbd 66aa 29bd 9318 223e
000002d0: b7c6 f9bd d0b8 9cbd a2db aabc b495 a8bc
000002e0: 862d 6e3d 31f0 cd3b 3025 09bd 79f0 83bb
000002f0: b47f dabc dacd 0cbe 2662 e03d de94 9fbd
00000300: 6c09 8fbb 05c9 e13d 4d56 88bb 9a9b de3c
00000310: 9314 0b3d c0e3 9e3d e5c2 e3bd f606 fdbc
00000320: 2d1a c03b 5f63 e5bd dafd 893e f27a 03be
00000330: a1e3 1abe 73a4 903a a72b c9bc 8be2 88bc
00000340: 54dd 76bd 0b62 c43d e061 7fbd 6a1c 12be
00000350: 6633 c23d 1785 63bd 0528 043e c831 2bbe
00000360: e259 5e3d 9f67 423d c023 b2bd 538b b53d
00000370: 8b11 fabc 0a28 2e3e 8790 c9bd 60de 31bd
00000380: 6468 e0bd 5a82 6bbd b8cf 00be f6b4 07bd
00000390: 5e99 bbbd a8dd efbc e8f8 8dbd cd79 de3b
000003a0: 65aa fdbc d7d0 0f3e 5099 a4bd bb56 aebd
000003b0: 30d9 83be ddd9 fc3c e9e8 d83d eaee bebc
000003c0: 3aa4 2b3e 0d3a e23d 286a a33c 9be4 85bd
000003d0: ac7c 71be f90c 333e f561 a7bc 957e a43d
000003e0: 008b 8f3d 426f ddbd 3c2c 85bd 29fe f63d
000003f0: a522 253d 7e79 b3bd 027d b0bd 1ee3 e9bd

msg_net.4.bias f4 [11]
-0.006352091 -0.03602082 0.0361379 0.007918876 -0.016580492 -0.027248805 -0.05260395 -0.063386545
-0.06213614 0.0030822116 -0.011139637
00000000: 3425 d0bb 918a 13bd 5605 143d 2cbe 013c
00000010: d0d3 87bc e338 dfbc 3d77 57bd ced0 81bd
00000020: 7782 7ebd eefe 493b 0683 36bc

gru_1.weight_ih f4 [30, 20]
0.17141691 -0.21167871 0.63796026 -0.065548286 -0.25903735 -0.28994402 0.1818636 0.6566091
-1.1158482 0.26810694 -0.21814127 0.15373558 0.011211278 -0.07755541 -0.48883757 0.31206128
0.44306433 0.051007938 0.4218102 -0.31240308 0.1531152 0.19724442 -0.08854046 0.17127523
0.07932792 -0.19545613 -0.07898846 0.021493936 0.025478804 0.09214463 -0.14691608 -0.23298253
0.30266026 0.10905988 -0.11186824 -0.09393075 0.02514144 0.25569353 -0.40681708 -0.10558096
0.100129895 0.00480245 0.0059795575 -0.13110657 0.6891021 0.8907744 -0.026503928 0.30187115
-0.17576157 0.099351965 0.063891366 0.010019547 0.30720443 0.07261563 -0.45372245 -0.2181826
0.5957294 0.24129078 0.33890504 0.12494526 0.4010543 0.12903267 -0.2880242 0.1659877
0.29714411 -0.39856303 0.37500998 0.47315443 -0.8130755 0.08448938 0.064291954 0.14676495
-0.2002252 0.2524714 -0.028517755 -0.5715137 0.12577467 0.26021984 0.1438977 0.2740035
-0.20444594 0.33842093 -0.19940509 -0.121126555 0.5218356 -0.020782182 -0.21182773 -0.3124539
-0.24863559 -0.18682002 -0.046888158 0.31412593 0.09940838 -0.11358023 -0.01525994 0.21826993
0.4302475 -0.3867382 0.23602003 -0.09906074 0.24522652 -0.027533837 -0.027306313 -0.40037778
-0.073243976 -0.1914435 0.07359726 0.60572577 0.24962665 -0.2545419 -3.3315766e-05 -0.26654267
-0.08956717 -0.50067234 0.0926684 0.011424464 -0.1901817 0.18640679 -0.33517638 0.0034739198
0.21391708 -0.56585515 0.44889894 0.6810696 0.15231213 0.119890735 0.78729004 0.28045577
0.31035432 -0.21503967 -0.20073496 0.23720454 0.02712491 0.052597295 -0.1437873 -0.42223108
0.082675986 -0.4075416 0.14393665 0.30401343 -0.35086992 0.22423331 0.4545078 0.07636246
0.6178199 -0.20722204 -0.017106617 0.6471484 0.15716204 0.041450877 0.27405417 0.16203183
-0.26163298 -0.10347549 -0.18643971 0.18984537 0.47922492 0.13088582 0.0157482 0.13310613
-0.10295773 0.39105436 -0.20782158 -0.1824373 -0.14693508 -0.17340107 0.17944905 0.42498422
-0.048640545 -0.31957284 -0.4177818 0.1046124 0.30156037 -0.2872577 0.09038303 0.24900804
0.051748008 0.43971115 -0.018831884 -0.008025246 0.036118317 0.23007566 0.23029846 0.09397254
0.45861253 -0.39565438 -0.20908104 -0.057416633 0.8416981 -0.44585025 -0.099280514 0.045776255
-0.33037063 0.114456125 0.2619183 -0.3657754 -0.2434917 0.16594078 0.24309972 -0.28680336
-0.3133965 0.1889532 -0.14849769 -0.17892012 -0.33858362 -0.27373204 -0.13459978 -0.07594575
-0.17332426 -0.39839128 0.49314305 0.12263312 -0.46849227 -0.32854342 -0.024751354 0.0043346747
0.13526319 -0.16756687 -0.15097 -0.47465187 -0.32708147 0.26073214 -0.5733672 -0.1426729
0.1097502 0.5925956 -0.061644673 -0.33664015 -0.3269274 0.012237736 0.34740388 0.40929157
-0.119624466 -0.17865232 -0.16495149 -0.43340656 -0.36731488 0.38459325 -0.20443378 -0.27059388
0.12464363 -0.30012023 -0.08293411 0.19669603 0.23099595 0.00010947809 -0.041610185 0.022761388
-0.43405607 -0.33475584 0.27098092 0.09803637 0.062452007 0.03133716 -0.3100896 -0.30072916
00000000: ea87 2f3e 4ec2 58be 5d51 233f 2e3e 86bd
00000010: 8ba0 84be 8b73 94be 743a 3a3e 8917 283f
00000020: 1dd4 8ebf 5045 893e 6d60 5fbe dc6c 1d3e
00000030: 82af 373c 5fd5 9ebd eb48 fabe 7fc6 9f3e
00000040: 54d9 e23e b3ed 503d 82f7 d73e 4cf3 9fbe
00000050: 3bca 1c3e 71fa 493e b354 b5bd c662 2f3e
00000060: ad76 a23d a725 48be b4c4 a1bd 0d14 b03c
00000070: edb8 d03c 53b6 bc3d 2b71 16be f992 6ebe
00000080: 49f6 9a3e c95a df3d 2d1b e5bd c45e c0bd
00000090: 6cf5 cd3c 43ea 823e 544a d0be d53a d8bd
000000a0: e710 cd3d df5d 9d3b 2af0 c33b cd40 06be
000000b0: ff68 303f cb09 643f c41e d9bc db8e 9a3e
000000c0: d7fa 33be 0b79 cb3d 7ad9 823d 0729 243c
000000d0: e649 9d3e 81b7 943d 4f4e e8be 426b 5fbe
000000e0: b981 183f ee14 773e f684 ad3e 4de3 ff3d
000000f0: fd56 cd3e 2421 043e e877 93be aef8 293e
00000100: 4623 983e 7410 ccbe 4f01 c03e 4c41 f23e
00000110: b725 50bf c508 ad3d 80ab 833d 8d49 163e
00000120: d607 4dbe ee43 813e 119e e9bc b94e 12bf
00000130: 13cb 003e 893b 853e eb59 133e 304a 8c3e
00000140: 475a 51be 8245 ad3e d930 4cbe 3311 f8bd
00000150: 0597 053f 653f aabc 5ee9 58be f5f9 9fbe
00000160: 549a 7ebe bf4d 3fbe cc0d 40bd 1dd5 a03e
00000170: 9f96 cb3d c09c e8bd d404 7abc 2782 5f3e
00000180: 6649 dc3e 8d02 c6be 3caf 713e 5be0 cabd
00000190: a91c 7b3e a48e e1bc 7db1 dfbc 51fe ccbe
000001a0: f000 96bd c409 44be 29ba 963d d810 1b3f
000001b0: 219e 7f3e 5153 82be 88bc 0bb8 4878 88be
000001c0: fe6e b7bd 102c 00bf eec8 bd3d ad2d 3b3c
000001d0: febe 42be 6ce1 3e3e 3d9c abbe b4aa 633b
000001e0: 140d 5b3e e2db 10bf 15d6 e53e 945a 2e3f
000001f0: b6f7 1b3e 4689 f53d d78b 493f e697 8f3e
00000200: c3e6 9e3e 5c33 5cbe 778d 4dbe bfe5 723e
00000210: 0f35 de3c 4370 573d fa3c 13be ac2e d8be
00000220: 0752 a93d 4ba9 d0be 2164 133e a6a7 9b3e
00000230: 39a5 b3be 6b9d 653e 3fb5 e83e ec63 9c3d
00000240: 7229 1e3f 0432 54be 2d23 8cbc 84ab 253f
00000250: 16ef 203e 65c8 293d d450 8c3e aceb 253e
00000260: c2f4 85be f5ea d3bd 0dea 3ebe d366 423e
00000270: f85c f53e ef06 063e 5e02 813c f94c 083e
00000280: 81db d2bd 4738 c83e 2ecf 54be d8d0 3abe
00000290: 2676 16be 0d90 31be 7ec1 373e 8897 d93e
000002a0: 4f3b 47bd 0d9f a3be 7fe7 d5be 073f d63d
000002b0: 1f66 9a3e 7113 93be bd1a b93d f7fb 7e3e
000002c0: b8f5 533d d221 e13e 5345 9abc 527c 03bc
000002d0: cdf0 133d f498 6b3e 5cd3 6b3e ad74 c03d
000002e0: 43cf ea3e 3693 cabe 5719 56be b42d 6bbd
000002f0: 8779 573f 7c46 e4be 9553 cbbd e27f 3b3d
00000300: 5726 a9be f967 ea3d 281a 863e ea46 bbbe
00000310: e355 79be 61ec 293e 22ef 783e e4d7 92be
00000320: 8275 a0be f37c 413e c70f 18be d636 37be
00000330: d55a adbe 9b26 8cbe 86d4 09be 7289 9bbd
00000340: ea7b 31be f1f9 cbbe 3f7d fc3e 1327 fb3d
00000350: 38de efbe d836 a8be 5ac3 cabc e309 8e3b
00000360: 6f82 0a3e a696 2bbe e197 1abe 9205 f3be
00000370: 3977 a7be af7e 853e 31c8 12bf d818 12be
00000380: b6c4 e03d 58b4 173f 207f 7cbd 195c acbe
00000390: 0763 a7be c980 483c ecde b13e aa8e d13e
000003a0: acfd f4bd a2f0 36be 0be9 28be 77e7 ddbe
000003b0: b210 bcbe 68e9 c43e 1757 51be 488b 8abe
000003c0: 2945 ff3d 5ca9 99be 5cd9 a9bd af6a 493e
000003d0: 348a 6c3e 9a97 e538 716f 2abd 1776 ba3c
000003e0: 993c debe 1e65 abbe 03be 8a3e 4bc7 c83d
000003f0: adcd 7f3d 655b 003d 10c4 9ebe 2cf9 99be

gru_1.weight_hh f4 [30, 10]
-0.23395167 -0.15398914 -0.080618314 0.13224606 -0.2236392 0.24865176 0.17645176 0.16981241
-0.34407917 0.082115635 0.12690654 -0.07553286 -0.11848402 -0.09368323 0.14065722 -0.043225087
-0.23779598 -0.29917538 0.051953144 -0.08490868 -0.12889391 -0.44237995 0.29837695 -0.18420254
0.180373 -0.16593137 0.078639984 0.12625866 0.15581311 0.09718031 -0.22408004 -0.041341107
-0.15414257 0.3599217 -0.37043077 -0.2517606 -0.47246754 0.113299064 -0.10479741 0.3362092
-0.35283554 0.008675198 0.016523581 -0.27258238 -0.117085606 0.25984895 -0.5148177 0.18826121
0.36680454 -0.067843914 -0.3342581 0.09125598 -0.0020224734 -0.27831966 -0.25289077 0.049145706
-0.22677988 0.4540435 -0.07000646 0.03267442 -0.11540983 0.40042067 -0.11955182 0.082734786
-0.1697368 0.21159579 -0.39037475 0.26828554 -0.15819208 -0.109526336 0.2431013 -0.20433728
-0.47288883 -0.3412703 0.20873594 -0.51642764 0.43987113 -0.5101207 -0.120012775 0.16182598
0.046489723 0.16872686 -0.1884306 -0.115977 0.09427541 -0.33790743 -0.6810763 -0.17517814
-0.075012095 -0.2439977 -0.2005219 -0.018821975 -0.047512393 0.2790532 0.079109654 -0.3997157
0.014165867 0.24904294 -0.24901438 -0.29186383 0.21410176 -0.022339556 -0.104448974 0.04669531
0.13874564 0.30232066 -0.16987796 -0.23152749 0.07526083 -0.2088978 0.24359551 -0.22045471
-0.503876 -0.18615022 0.12992904 0.21466616 -0.16287374 0.3144144 -0.54682463 0.14879763
0.23156677 0.44844115 0.16366635 -0.41335696 0.12727067 0.25509396 0.013081591 -0.019245677
0.12645657 0.052288897 -0.39450082 -0.3780197 0.19679391 -0.17728823 -0.33867678 -0.101686634
0.48952255 -0.3936424 0.5322375 -0.23746283 -0.009662398 0.12096601 0.1329058 -0.25553367
0.10753093 0.37895674 0.16672957 -0.33052322 -0.13427263 -0.010171402 -0.018285392 0.19884655
-0.18231593 -0.14497109 0.22975637 -0.058035854 0.21016495 -0.16335848 -0.2165672 0.15332176
0.32223 0.099639915 -0.13587348 0.05950637 0.41308737 0.1604357 0.19256392 0.17184263
-0.08555359 0.14400357 -0.04008667 -0.15298134 -0.06853812 -0.17994197 0.39537978 -0.033303708
0.030915903 0.15105283 0.048472956 -0.15485102 0.1431332 -0.1581602 0.31264624 0.49475855
-0.32509896 -0.1690169 -0.18296784 -0.45899963 0.39132997 0.05781312 -0.007007024 0.067018375
0.25770554 0.08516932 0.03923136 -0.11315169 0.050902307 0.0124010565 -0.12917194 -0.08376534
0.22975323 -0.45020005 -0.2584807 -0.1756094 0.37626365 -0.3463097 -0.010843656 -0.0893265
-0.03435929 0.35003126 0.22683847 0.12702566 -0.33742744 -0.16449337 -0.20496047 0.24214922
0.06606287 -0.1397108 0.23897448 -0.033762023 -0.6147505 0.008762387 0.122658744 0.114647985
-0.1502742 0.089937925 -0.46922997 -0.013294799 0.036240444 -0.1659437 -0.07914062 -0.1745582
0.15490681 0.53933066 -0.02554295 -0.3324505 0.09357064 -0.19008121 -0.40808898 0.3271752
-0.22180285 -0.11833264 0.27006102 -0.016654449 0.09169762 0.24848312 0.4146704 0.0602894
0.3074494 -0.3004772 0.08307965 0.15361726 0.5272669 -0.005090841 0.18237506 -0.047114633
00000000: 0791 6fbe 54af 1dbe 371b a5bd 836b 073e
00000010: ad01 65be 919e 7e3e c5af 343e 4ee3 2d3e
00000020: 252b b0be 3e2c a83d caf3 013e f9b0 9abd
00000030: c0a7 f2bd fedc bfbd 7208 103e ca0c 31bd
00000040: ca80 73be 842d 99be d2cc 543d 9ae4 adbd
00000050: c4fc 03be a07f e2be ddc4 983e 979f 3cbe
00000060: b3b3 383e eae9 29be 000e a13d f349 013e
00000070: 798d 1f3e 7806 c73d 3d75 65be 4b55 29bd
00000080: 8dd7 1dbe a847 b83e 1aa9 bdbe c4e6 80be
00000090: 44e7 f1be 5709 e83d 06a0 d6bd 9d23 ac3e
000000a0: dca6 b4be 6b22 0e3c 765c 873c eb8f 8bbe
000000b0: 94ca efbd ec0a 853e 18cb 03bf 8cc7 403e
000000c0: cecd bb3e c0f1 8abd e123 abbe 6ae4 ba3d
000000d0: 798b 04bb ea7f 8ebe e67a 81be 024d 493d
000000e0: fc38 68be 6478 e83e 8c5f 8fbd 9dd5 053d
000000f0: fd5b ecbd f003 cd3e 96d7 f4bd db70 a93d
00000100: 7ccf 2dbe 91ac 583e 33df c7be b95c 893e
00000110: 1bfd 21be 584f e0bd 8cef 783e cb3d 51be
00000120: 7c1e f2be fbba aebe e0be 553e 9a34 04bf
00000130: ca36 e13e 4597 02bf 42c9 f5bd b6b5 253e
00000140: 026c 3e3d bcc6 2c3e f4f3 40be 5985 edbd
00000150: 7713 c13d 3402 adbe 045b 2ebf e661 33be
00000160: f19f 99bd 88da 79be 9d55 4dbe 8b30 9abc
00000170: 5b9c 42bd 10e0 8e3e 3e04 a23d 89a7 ccbe
00000180: f417 683c 1d05 7f3e a0fd 7ebe 2d6f 95be
00000190: 7e3d 5b3e 7201 b7bc 58e9 d5bd 9543 3f3d
000001a0: 5613 0e3e c6c9 9a3e 7df4 2dbe 8b15 6dbe
000001b0: 5a22 9a3d 4ee9 55be 1a71 793e e1be 61be
000001c0: 04fe 00bf 2a9e 3ebe 1e0c 053e 72d1 5b3e
000001d0: 60c8 26be edfa a03e b3fc 0bbf 685e 183e
000001e0: d71f 6d3e 149a e53e 2798 273e 86a3 d3be
000001f0: 3e53 023e ad9b 823e 2b54 563c 1ca9 9dbc
00000200: d57d 013e e22c 563d 03fc c9be cc8b c1be
00000210: 5884 493e 0c8b 35be 0b67 adbe 1541 d0bd
00000220: b3a2 fa3e 7f8b c9be b840 083f 7529 73be
00000230: 094f 1ebc 07bd f73d 7518 083e 4fd5 82be
00000240: 2d39 dc3d 9e06 c23e 28bb 2a3e 573a a9be
00000250: c47e 09be f4a5 26bc 3fcb 95bc 6e9e 4b3e
00000260: 07b1 3abe 4d73 14be 4145 6b3e 01b7 6dbd
00000270: 7b35 573e 7247 27be cbc3 5dbe 6100 1d3e
00000280: 55fb a43e 0310 cc3d 6b22 0bbe f4bc 733d
00000290: 3080 d33e 4249 243e 7a2f 453e 84f7 2f3e
000002a0: b836 afbd ac75 133e ec31 24bd 24a7 1cbe
000002b0: b75d 8cbd b542 38be 386f ca3e 7869 08bd
000002c0: 5943 fd3c 98ad 1a3e 948b 463d 4491 1ebe
000002d0: 8291 123e bff4 21be 2b13 a03e fe50 fd3e
000002e0: 5f73 a6be c412 2dbe ec5b 3bbe 0002 ebbe
000002f0: 675c c83e 73cd 6c3d 2d9b e5bb ee40 893d
00000300: fbf1 833e 416d ae3d 10b1 203d 13bc e7bd
00000310: f07e 503d cd2d 4b3c a645 04be 2a8d abbd
00000320: 6e44 6b3e 9f80 e6be 9557 84be f3d2 33be
00000330: a1a5 c03e 814f b1be 97a9 31bc d0f0 b6bd
00000340: 54bc 0cbd 4c37 b33e 5848 683e 0413 023e
00000350: 4ac3 acbe f370 28be 28e1 51be f7f5 773e
00000360: f84b 873d 5910 0fbe bab5 743e 0c4a 0abd
00000370: 4a60 1dbf 1d90 0f3c 8234 fb3d 90cc ea3d
00000380: 7be1 19be 6031 b83d e93e f0be 6ed2 59bc
00000390: dc70 143d 25ed 29be 7a14 a2bd 63bf 32be
000003a0: e49f 1e3e 9311 0a3f 733f d1bc f436 aabe
000003b0: f7a1 bf3d a6a4 42be 0af1 d0be 8283 a73e
000003c0: 4920 63be 6258 f2bd 7045 8a3e e96e 88bc
000003d0: f6cb bb3d 5c72 7e3e ae4f d43e 05f2 763d
000003e0: 026a 9d3e 26d8 99be aa25 aa3d d84d 1d3e
000003f0: f7fa 063f 12d1 a6bb 87c0 3a3e 46fb 40bd

gru_1.bias_ih f4 [30]
-0.026103055 0.09878584 0.28809026 0.050800007 -0.20145668 -0.27079937 -0.11594506 0.0038930667
-0.019953016 -0.15509129 -0.45056364 -0.1608277 -0.029514998 -0.28304467 -0.071636066 0.026969709
-0.52974755 -0.34682277 -0.28163955 -0.4921393 -0.2933097 -0.22723427 0.006233149 0.026588108
0.1686011 -0.010938353 0.005939813 0.012841572 0.15086417 -0.18731493
00000000: 13d6 d5bc 3b50 ca3d 9180 933e ab13 503d
00000010: a94a 4ebe 37a6 8abe 9b74 edbd d222 7f3b
00000020: 8274 a3bc 40d0 1ebe 47b0 e6be 04b0 24be
00000030: 70c9 f1bc 3beb 90be eeb5 92bd 94ef dc3c
00000040: 899d 07bf c192 b1be 0f33 90be aff9 fbbe
00000050: b02c 96be 1ab0 68be 723f cc3b 4ecf d93c
00000060: c4a5 2c3e c736 33bc c3a2 c23b 7565 523c
00000070: 237c 1a3e 7ccf 3fbe

gru_1.bias_hh f4 [30]
-0.030204184 -0.043808125 0.15777071 0.1144464 0.19363166 -0.17525558 0.05362412 0.023077779
0.22593282 -0.15802732 -0.22712635 -0.06841876 -0.32918197 -0.15632144 0.11546389 -0.3312395
-0.40558016 -0.0059477994 0.012994325 -0.38926515 0.12736969 0.23138194 0.055979345 0.3796591
-0.33374566 -0.3197579 0.0306565 -0.2284898 -0.37934044 0.2408627
00000000: c46e f7bc 2670 33bd a58e 213e e062 ea3d
00000010: 6147 463e 3376 33be f7a4 5b3d 9c0d bd3c
00000020: ef5a 673e ead1 21be cf93 68be 231f 8cbd
00000030: 8a8a a8be ba12 20be 5578 ec3d 3998 a9be
00000040: 34a8 cfbe c2e5 c2bb 26e6 543c c34d c7be
00000050: 336d 023e 63ef 6c3e 994a 653d ad62 c23e
00000060: b6e0 aabe 4fb7 a3be 5723 fb3c 3bf9 69be
00000070: e938 c2be b6a4 763e

out_net.weight f4 [9, 10]
0.47765037 1.0209049 0.9439188 1.4254739 1.2384105 -0.57995886 -0.43750736 1.4852738
1.042903 0.64655244 1.3101314 0.7761741 0.6427941 -1.4930551 -1.372522 1.3403437
-1.1544096 -0.026793096 0.8913743 1.1246368 -0.8413563 1.5859659 0.8518461 -0.415605
-1.0734965 -1.2378776 1.2024512 -1.1594632 -0.08664445 -0.7226768 -0.84625655 -0.68177444
-1.1155387 -0.2746324 -0.47448203 1.2614949 1.0927176 1.1059178 0.9734411 -0.78372866
-1.0030999 -1.4741337 1.1544839 1.3688971 -1.2473499 -0.07349351 -1.0318009 -0.8746613
0.43885273 1.131769 -0.6808553 -1.0106554 1.0597746 -1.2139581 1.5878564 -0.21904543
-1.0311713 -0.67839044 0.8513814 -1.0753889 0.0053883805 1.0325284 -0.8031027 1.107271
0.9145951 1.468238 -0.8765358 -1.0464754 -1.4952005 0.27062392 1.319272 -1.3308785
-0.89782673 0.3373761 0.951325 -1.2146437 1.1164219 -1.089437 -0.06799323 0.71203226
-0.9415376 -0.39493984 -1.3508776 -1.0969256 0.03968349 -1.5593752 -1.2987939 0.90926045
-0.9218166 0.96623105
00000000: 978e f43e 03ad 823f aaa4 713f ee75 b63f
00000010: 3c84 9e3f 2f78 14bf f700 e0be 741d be3f
00000020: d87d 853f 7684 253f 63b2 a73f 59b3 463f
00000030: 278e 243f 6e1c bfbf cdae afbf 6290 ab3f
00000040: b2c3 93bf 327d dbbc 1b31 643f 19f4 8f3f
00000050: 2063 57bf ee00 cb3f 9612 5a3f 2eca d4be
00000060: 5568 89bf c672 9ebf ece9 993f 4a69 94bf
00000070: a572 b1bd 5901 39bf 45a4 58bf c588 2ebf
00000080: f9c9 8ebf 9e9c 8cbe 4fef f2be aa78 a13f
00000090: 2cde 8b3f b78e 8d3f 7033 793f 71a2 48bf
000000a0: 9465 80bf 6ab0 bcbf 21c6 933f 0538 af3f
000000b0: 29a9 9fbf c483 96bd 0d12 84bf cee9 5fbf
000000c0: 4eb1 e03e cedd 903f 884c 2ebf 285d 81bf
000000d0: b2a6 873f fb62 9bbf e13e cb3f 724d 60be
000000e0: 6cfd 83bf ffaa 2dbf 22f4 593f 58a6 89bf
000000f0: 0391 b03b e429 843f 2398 4dbf 0ebb 8d3f
00000100: e822 6a3f 39ef bb3f a664 60bf e8f2 85bf
00000110: bb62 bfbf 388f 8a3e e8dd a83f 3a5a aabf
00000120: f9d7 65bf 8fbc ac3e 098a 733f 7279 9bbf
00000130: eae6 8e3f ac72 8bbf 0940 8bbd bf47 363f
00000140: 9c08 71bf 8e35 cabe 8fe9 acbf 0f68 8cbf
00000150: 288b 223d 9b99 c7bf e13e a6bf 4bc5 683f
00000160: 2cfc 6bbf eb5a 773f

out_net.bias f4 [9]
0.04914834 -0.004181964 -0.09078377 0.2889847 -0.60392535 -0.3162969 0.20640138 0.38417244
-0.02573647
00000000: c54f 493d db08 89bb d7ec b9bd cdf5 933e
00000010: da9a 1abf abf1 a1be e25a 533e 40b2 c43e
00000020: 4ad5 d2bc
