03_reg/mlp_dropout.pth (torch, 43735 bytes, 5 tensors)

model.0.weight f4 [100, 1]
00000000: 4f66 4cbd 48b2 babf bfcc 223e b78b 2c40
00000010: cbd6 2ac0 cb77 13be 6e7b 7e3d b01e 1640
00000020: f8f6 1140 6eff 613e 919d cdbf 98ec 2d40
00000030: f959 02c0 dbd8 0fc0 e322 01c0 8c5a c73f
00000040: 00e8 1e40 6ec1 de3f 9ff7 3bbe c381 27be
00000050: a760 1340 12bf 0540 4e35 28c0 64e7 f83f
00000060: 7165 e5bf 8ad2 9e3f 4b8a db3f 0ff6 37bf
00000070: 213f d6be 8f93 1dc0 4301 3a40 75fa 0040
00000080: acd0 29bd c31a 2e40 e6ca f43d 6650 63bf
00000090: fab7 00c0 3028 8cbe 341d 4540 fbfe 043f
000000a0: 5573 13c0 fa2d 3240 7438 e83f 3e52 5ec0
000000b0: 2d05 19c0 9ef0 0cc0 d91a 3f40 0c52 33c0
000000c0: 8678 c53f 613b 24c0 82b2 a93f 10a1 2740
000000d0: 8932 01c0 3b29 4e40 4ee7 1740 b802 0840
000000e0: 580d 2140 29a2 bc3e 9311 183d 14c1 debe
000000f0: 6f5c 153e 9049 a7bf 0654 993f 3450 f03f
00000100: 0847 03be ceae 13c0 2f6d 0bc0 33ca e73f
00000110: 326e 7340 cb74 ba3f 155d 4b40 65b5 7abe
00000120: 8b3c 1440 cde0 1240 caa3 c7bf 53f0 b73f
00000130: d9f4 4e3e 2eb9 07c0 61bc dabe ecbf 0940
00000140: ee20 07c0 a33d 0e40 8877 93be 4225 0940
00000150: 5733 2fc0 6ead 36be 64de 3740 f7b5 3e40
00000160: ea84 833c e266 61c0 8cfa 12c0 56cd 73be
00000170: 0109 1140 b0d1 eb3e 7ff1 1840 6e0b 453f
00000180: a597 22c0 3037 e23f 403e 4240 733c c13f
-0.049902257 -1.4585657 0.15898417 2.6960275 -2.66936 -0.14401166 0.06212943 2.345623
2.2806988 0.22070095 -1.606371 2.7175655 -2.0367415 -2.2476108 -2.0177543 1.5574508
2.4829102 1.740278 -0.18356179 -0.16358094 2.3027742 2.089787 -2.6282535 1.9445615
-1.7921582 1.2408001 1.7151579 -0.7185983 -0.4184504 -2.4621313 2.906327 2.0152867
-0.04145877 2.7203834 0.11952762 -0.88794553 -2.011229 -0.2737441 3.0799074 0.5195157
-2.3039143 2.7840562 1.8142228 -3.4737697 -2.390941 -2.202186 2.9860137 -2.8018827
1.5427406 -2.5661242 1.3257601 2.6192055 -2.0187094 3.2212665 2.3734927 2.125166
2.5164394 0.36842468 0.037126135 -0.43506682 0.14586042 -1.3069324 1.1978767 1.8774476
-0.12820065 -2.3075442 -2.178539 1.8108581 3.8036008 1.4566892 3.1775563 -0.24483259
2.3161952 2.2949708 -1.559686 1.4370216 0.2021059 -2.1206775 -0.42721847 2.152339
-2.1113849 2.222512 -0.28802133 2.142899 -2.7375085 -0.17839596 2.8729486 2.9798563
0.01605459 -3.5219045 -2.2965422 -0.23808798 2.2661746 0.46058416 2.3897398 0.76970565
-2.5405056 1.7673092 3.0350494 1.5096573

model.0.bias f4 [100]
00000000: ba77 d33e fef9 c1be 2c5a f33e 19f2 f3be
00000010: 81ab 2e3f b4a5 b43e 9c60 a63e 8843 15bf
00000020: 777b 04bf 2ba3 9abe 925c bcbe 4f02 2a3f
00000030: 1ecb 133e 61c2 0a3e cc2a 4b3e 124e b03e
00000040: b7cd 093f df88 18bc a818 883e 4d5a e2be
00000050: 4424 93be fefa debd b2c3 3e3e aa45 a9be
00000060: e1a9 f1be 3bf3 823e fbf8 14bf 913b bf3e
00000070: fd48 bb3e c7b0 1abf bc6b 0fbe 15e3 23be
00000080: ba1e fabe d2ee 37bf b4d5 fe3e de7a b4bd
00000090: 5d50 f13e 9669 0c3f c492 56bf 13bf 783e
000000a0: 600d fe3e b163 303f ce88 f83e ebc4 613f
000000b0: b2ca 1abf ee47 e53e 0cce 3bbf 5df5 4e3f
000000c0: 0d56 9e3e 2592 253f 1bba 643e dd45 6abe
000000d0: 9977 e8be 4f83 59bf 4c80 233f c21a 3abe
000000e0: e0d9 163f f2f6 74be 8513 edbe 159e bd3e
000000f0: 5b5c 02bf f4e8 9fbe f5d4 8e3e a40d b3be
00000100: 3647 a6be 2e12 04bf 3a76 08bf f0a9 b63e
00000110: eb6a 87bf 5986 a23e 4241 18be 42bb fe3e
00000120: 2f9f 013f 2b9e 73be f919 893e c6a4 803e
00000130: e721 14bf f0ca 05bf 53ec adbe 12cc 0d3f
00000140: fe95 b43e e71a dc3e a6d2 e53e cb81 c33e
00000150: f87d 643f 2679 803e 37eb 3b3f cd3e 3b3f
00000160: e077 efbe afbc 863f baf7 04bf 9569 083f
00000170: 3945 113f 7531 9bbe a912 f0bd b42a 8e3e
00000180: 06dc 563f 1e19 e53e 6def 4dbf a82b ab3e
0.41302282 -0.3788604 0.47529733 -0.47645643 0.68230444 0.3528267 0.32495582 -0.5830617
-0.5175089 -0.30202612 -0.36789376 0.6640977 0.14432952 0.13550712 0.19840544 0.34434563
0.5382952 -0.009309976 0.2658131 -0.4420952 -0.28738606 -0.10887717 0.1862934 -0.33060962
-0.4719992 0.25576195 -0.58192414 0.37350133 0.36579123 -0.6042599 -0.14005941 -0.16004594
-0.48851568 -0.71848786 0.49772418 -0.088124976 0.47131625 0.5484861 -0.83817697 0.24291639
0.4961958 0.68902117 0.48541874 0.881911 -0.6046554 0.4478144 -0.7336128 0.80843145
0.30925027 0.64676124 0.22336619 -0.22878213 -0.45403746 -0.84965986 0.6386764 -0.1817427
0.589262 -0.23922327 -0.46303955 0.3703467 -0.50922173 -0.31232417 0.27896848 -0.34971344
-0.32476205 -0.5159024 -0.533054 0.35676527 -1.0579504 0.31743124 -0.14868644 0.4975224
0.5063352 -0.23790805 0.26777628 0.25125712 -0.5786423 -0.52262783 -0.33969364 0.5538951
0.35270685 0.42989275 0.44887275 0.38184962 0.89254713 0.2509243 0.73405784 0.731427
-0.46771145 1.0526332 -0.519405 0.53286105 0.5674625 -0.3031117 -0.11722309 0.27766955
0.8392948 0.44745725 -0.8044346 0.33431745

model.3.weight f4 [100, 100]
00000000: c195 c0bc a1e9 fdbc b84c 50bb 077c 72bd
00000010: a5f1 263d 3ca6 3b3c c818 473b 5779 433c
00000020: 3be3 b4bd ac84 7f3d f89b 8ebe c676 343e
00000030: 1aa8 d3bc 294b 6c3c fc1d be3d 2cb0 063e
00000040: 99b2 1c3e af77 983d 9782 87bd 7c1a 9d3d
00000050: 9037 283c 59fa 403e 5387 833e f6b5 dfbd
00000060: f8e4 66be a265 063e defd c5bd 71cf a23b
00000070: 4dea 37bc 559d a5be 298c 95bd d025 0f3c
00000080: d732 553d 975d 76bd e80f 433d 4acc 9d3d
00000090: 841d 283d df86 25bd 2808 35bd 1089 b63d
000000a0: 194a 9abb 639e 313e 28b6 2c3e 809b e638
000000b0: 98c9 55be ce5a 8f3d 4991 d9bd faa6 0c3e
000000c0: 21f3 4e3e d716 a73d 0948 923e d7fe 2fbd
000000d0: a1e8 aabe fe58 5cbc 4891 403e d52c 433d
000000e0: 87e8 103e 87e0 ac3d 6e44 e9bc 80af 12be
000000f0: a3a4 d73c b58b 99be d373 fa3d e020 f83c
00000100: 46f3 d9bc fab5 55be f19c 8abe 1e2c 203e
00000110: ca7e 853b 01be cb3d eadb 65ba a095 f03c
00000120: d96c ab3e 1e2a 9c3d 1790 143e 21ef a23d
00000130: ac3a 2fbe f0fa 94be 1426 a6bd e7ae 593e
00000140: ae84 aa3c 05af 153e 3b89 d33d a0cc 743e
00000150: f1e1 1a3e 296d 10bd cd0b 903e 49d3 973e
00000160: 22e5 73bd 618c 093e eb7f 46be e21c 88bd
00000170: c9ce 693e 5622 d7bc d838 4ebe f55c 4bbd
00000180: aa60 9fbd 4b26 3a3e 3921 3abe 3cc7 653e
00000190: 4af0 423d c768 0fbf 6ec1 40bd b3d1 3a3f
000001a0: 15c9 adbe 3200 b0bd 71a2 3bbe 0fc0 d03e
000001b0: e62a 093f 9bf0 d73d a689 36bf 5f36 9f3e
000001c0: aadd 6ec0 a10a e1bf 6946 c9bf 79b7 0f3f
000001d0: eefb aa3e bb24 ae3f 46e7 92be 0e3d 093e
000001e0: d5d9 9b3f 86c3 3b40 91a5 2bc0 6ebf 553f
000001f0: ea54 aabe ee33 ac3e e9e9 ca3e b867 2abe
00000200: 9231 fa3c 54f0 92be a630 5740 aa10 1940
00000210: 5320 ec3d 35ec d53e 6dcc a13d 4af8 c2be
00000220: ef1c 13bf 95d9 70be 00a0 5a3e 45c9 623e
00000230: 884b 95be 2002 a33e f455 043e 4258 41be
00000240: 9ec4 f3be 0460 cdbe e717 a13e c500 17be
00000250: 2ff9 613e f1da aebe ad39 743f 4a8f 2140
00000260: 809f 9abe fb78 b73e dd14 513e f9c4 f63f
00000270: d582 733e f797 bd3e 52ba 033b d755 32be
00000280: 2e5d efbb 0cff c8be 886f d53e b8b5 0f3f
00000290: 6e37 e3bd 7434 69be 1a96 dcbe 447f 353f
000002a0: e207 c73e e74e 0d3f 3932 9e40 6c00 95bd
000002b0: cffd 7b3e c54b e63f 15b1 e5bf 2303 273f
000002c0: 94f8 333e ed26 e6be 6a7a c93d ff60 ef3e
000002d0: 52f9 aabf d0f4 903e 28f3 ecbd b243 8c3e
000002e0: adcb e0be 7547 07be a12a 813e 7073 913e
000002f0: c7ff c9bd 917a e2bc 0a47 f0be 6822 bdbd
00000300: 3812 8e3e 5319 be3e 72a8 5b40 34cd d03e
00000310: 9284 efbd b13c 9d3e 6dbd 403e 16a3 903d
00000320: 0287 68bd 7c5b b43d d0de c7bc 48c0 403e
00000330: 667b 6abe ce18 fd3b 5039 15bd 6516 f53d
00000340: fc23 8f3e 03c3 bb3d 25cd eb3c e486 1a3e
00000350: 2df2 11bf 2afa 19bf 7b6a 22bf 217e 0cbe
00000360: 0449 c8bc b139 1f3e 72f8 65bd 17ad 233d
00000370: 10ee b23e be31 f43e aafa eebe 6804 9d3e
00000380: 48e8 863e 7736 733d 3e4a 8f3e ef38 e4bc
00000390: e9d1 19be cb98 47bd 9c8c 3d3e 49d2 df3e
000003a0: a212 833d 6b20 b53e 9b16 a3bc 568d 303e
000003b0: ec19 bebe bbd4 d13c 84d5 823e 4e83 ca3d
000003c0: 0ec6 5ebe 1c8e 0f3e b3ef 093d 2a96 40be
000003d0: a884 8f3d 95fb 36be 1ca5 3e3e b007 c9be
000003e0: a369 9c3d 748f 8abe add0 45bd 8013 eb3e
000003f0: 7a50 b63d abe2 9c3e 5296 003e 346b 033f
-0.023508908 -0.030995192 -0.003178401 -0.059200313 0.040757794 0.011453208 0.003037976 0.011930785
-0.08832403 0.062382385 -0.2785337 0.17623433 -0.025836993 0.014422216 0.09283063 0.13153142
0.15302505 0.07444703 -0.06616705 0.07671067 0.010267153 0.188455 0.25689182 -0.10923378
-0.22548282 0.13124707 -0.09667562 0.0049685766 -0.011225295 -0.32346597 -0.07302124 0.008737043
0.052050438 -0.060147848 0.04762259 0.07704981 0.041043773 -0.040411826 -0.04419723 0.08912861
-0.00470854 0.17345576 0.16866362 0.00010996219 -0.20877683 0.069997415 -0.10623414 0.13735572
0.20209934 0.08158653 0.28570583 -0.042967644 -0.33380607 -0.013448952 0.1880542 0.047650177
0.14151202 0.08441263 -0.028475013 -0.1432476 0.026323622 -0.299894 0.12229123 0.030289114
-0.02660526 -0.208702 -0.27072862 0.1564183 0.0040739523 0.0994835 -0.00087684265 0.029368222
0.33481482 0.07625221 0.14508091 0.079557665 -0.17112225 -0.290977 -0.081127316 0.21258126
0.02081522 0.14617546 0.10328909 0.23906183 0.15125252 -0.035260353 0.28134003 0.29653385
-0.05954469 0.13432457 -0.19384734 -0.06646134 0.22832789 -0.02626149 -0.20138872 -0.049649198
-0.07782109 0.1817867 -0.18176736 0.22439283 0.04759244 -0.5601925 -0.04705947 0.72976226
-0.33942476 -0.08593787 -0.18323685 0.4077153 0.5358108 0.10543939 -0.71303785 0.3109617
-3.7322793 -1.7581369 -1.5724612 0.5613933 0.33395332 1.3604959 -0.28692073 0.13402197
1.2175852 2.9338088 -2.6819804 0.83495224 -0.3326791 0.3363337 0.39631584 -0.16641128
0.030541215 -0.2869898 3.3623443 2.391642 0.11529603 0.41781774 0.07900319 -0.38080055
-0.57466024 -0.23520501 0.21350098 0.2214709 -0.29159188 0.3183756 0.12923414 -0.18881324
-0.47610945 -0.40112317 0.3146355 -0.14746387 0.22067712 -0.34151414 0.95400506 2.5243707
-0.30199814 0.35834488 0.20418115 1.9278861 0.23780377 0.37030002 0.002010007 -0.17415558
-0.007304809 -0.39257085 0.41686654 0.56136656 -0.11094557 -0.22773916 -0.43083268 0.70897317
0.38873202 0.5519852 4.9436307 -0.07275471 0.24608539 1.7991873 -1.7944666 0.6523916
0.17575294 -0.44951573 0.09837802 0.4675369 -1.3357337 0.28311777 -0.11569816 0.27395397
-0.43905392 -0.13210852 0.25227836 0.28408384 -0.09863239 -0.027646335 -0.46929199 -0.09235078
0.27748275 0.37128696 3.432156 0.40781558 -0.11695208 0.30710366 0.1882226 0.07062356
-0.05676938 0.08806512 -0.024398237 0.1882335 -0.22898635 0.007723904 -0.03643161 0.11967162
0.2795714 0.09168055 0.028784344 0.15090519 -0.57010156 -0.60147345 -0.63443726 -0.1371999
-0.024448879 0.15549351 -0.05614514 0.039959993 0.34947252 0.476942 -0.46675617 0.30667424
0.26349092 0.059378114 0.2798633 -0.02785918 -0.1502148 -0.0487297 0.1851067 0.43715122
0.06400038 0.35376295 -0.01990824 0.17241415 -0.37129152 0.025614133 0.25553524 0.09888326
-0.2175524 0.14019054 0.03367586 -0.18807283 0.07007724 -0.17869408 0.18617672 -0.39263678
0.07637336 -0.2706257 -0.04829471 0.45913315 0.089020684 0.30641684 0.12557343 0.51335454

model.3.bias f4 [100]
00000000: c66e d8bd b3ad a0ba 1eae bd3d c212 583e
00000010: 2c9c 46be f501 b63d cfde 223d a27f e63d
00000020: 7d12 bcbd 8656 e53a 78b2 05be d063 08bf
00000030: d40b 5f3e ce42 04be db59 173f c51f 853d
00000040: cc1b d23d 8988 2d3e 21b4 16bf 5698 d4be
00000050: 4394 2cbe c7b5 80bd 62bb fabe 2a18 6cbe
00000060: 96ef 34bc c2f6 8fbd 2581 9ebd 0198 7ebe
00000070: 4b1e 053e f70c 5e3d 9688 d03d 82be d1bd
00000080: dfde fb3c e982 1d3e 7e58 323e d138 8d3e
00000090: d248 443c daf4 f93d 32b6 d4be 4ddd 5dbd
000000a0: cb4e f23c 9c56 2bbe 57a3 8ebd d394 40be
000000b0: fbd7 1c3d c3f3 28be 2a25 3dbc 0ab4 17be
000000c0: d5b1 c83d 3f2c 80bd 7a06 823d e31c 1e3d
000000d0: cbf6 e1be d6bc 8c3e 7b49 053f d5a6 0d3d
000000e0: 4db6 1d3f 2d08 3c3e c114 a1bd fe9d 29be
000000f0: 3a13 293e eeb1 9abe 15de 73be 7e20 e0bd
00000100: 84a9 723e 34d7 7d3e b9ef 82be 81e8 9c3c
00000110: 2856 5cbe 2b3e b63a cb57 3dbb 2e3b ee3d
00000120: 906c df3c 2fa1 2b3d d831 003d f8e1 c43d
00000130: 0ac1 273e 785b 49be 72db 2b3e 9050 09bf
00000140: d546 89bc 6927 883d 4075 71be caeb 8fbd
00000150: 0643 95bd e179 c8bc b93e 103f d01b 143e
00000160: b850 3d3e 8c76 3f3e 7704 7cbe f426 cebe
00000170: 619c 81be cb78 dcbd 2453 aabd 4ffc 0b3b
00000180: c83c 1cbe ae7d 0ebe 2190 05bc 25ef 143f
-0.10568003 -0.0012258798 0.09261726 0.21100906 -0.19395512 0.08887092 0.039763268 0.11254813
-0.09183214 0.00174971 -0.13056362 -0.532773 0.21781856 -0.12916109 0.59121484 0.065002
0.10259208 0.16946615 -0.58868605 -0.41522473 -0.16853432 -0.06284671 -0.48971087 -0.23056093
-0.01104345 -0.07029487 -0.07739476 -0.24862672 0.12999837 0.054211583 0.10182302 -0.102414146
0.030745922 0.1538197 0.1741657 0.2758241 0.011980252 0.12204905 -0.41545254 -0.054166127
0.029578587 -0.16732258 -0.06964748 -0.18806772 0.038291913 -0.16499238 -0.011544505 -0.14814773
0.09799544 -0.06258439 0.063488916 0.038601767 -0.441336 0.2748782 0.5206525 0.03458293
0.61606294 0.18362494 -0.078652866 -0.16564175 0.1651124 -0.30213875 -0.23815186 -0.109436974
0.23697478 0.24789125 -0.2557352 0.019153835 -0.21517241 0.0013904026 -0.002889144 0.116323814
0.027273446 0.041901764 0.031297535 0.096134126 0.16382232 -0.19663799 0.1678293 -0.53638554
-0.016757408 0.06648142 -0.23579884 -0.07027395 -0.07288174 -0.024472179 0.5634571 0.14463735
0.18487823 0.18697566 -0.24611078 -0.40264094 -0.2531462 -0.10765227 -0.08316639 0.0021360104
-0.15257561 -0.1391513 -0.008152039 0.58177406

model.6.weight f4 [1, 100]
00000000: 4ab3 a83c 7070 4fbd 0203 9cbc 91a8 85bc
00000010: 231f edbc 0f5b d23c fd6a 083d 5095 b03c
00000020: 4c16 0ebc b821 50bc e4b7 36bc ba5f cdbc
00000030: ad97 3d3c cf4e fb3a a6a5 223d 7039 b03c
00000040: 65f5 fc3c f62e e93c cb78 4bbc 1f43 933b
00000050: 047d 79bc 7f60 e63c 9681 aabc 8010 95bc
00000060: ac4c 883c 1393 c3bb 6687 d33c bbd3 31bc
00000070: 4123 e53c a968 f33c 7f48 b53c 0588 953c
00000080: 42f9 9cbc 4355 6dbb ae75 353c 329d ec3c
00000090: 4ded 103d ad0c 023d 18b1 853b 7983 a2bc
000000a0: 1551 243d 9cc9 eabc 5378 c63c ee0a 87bb
000000b0: d7b4 09bc a032 a1bc 896f 0e3d 8dfc d9bc
000000c0: 6c1b cfb9 338f fc3c 3c3c efbc 4703 073c
000000d0: 62ca 833c fc0d 0f3d 0fd6 d63c 0c26 0fbd
000000e0: 55e5 0c3d 39c6 843c 5cf9 473c 748d 93bc
000000f0: 672f 053d 4839 513c 4e3f 963c 9e76 42bd
00000100: bb31 853c c074 b93c caec 06bc a08c 5e3c
00000110: b2ba 99bc 396f 83bb e76f 963c 7676 263c
00000120: 76a0 febc 7f84 7fbb a07d b33b 5de9 c2bc
00000130: c005 4abd 2653 38bb 7f36 01bd dec2 e8bc
00000140: 3898 4bbc baf6 143d df7d fbbc 7044 3abd
00000150: a021 8cbc eb78 923c b846 143d f11c c03c
00000160: d5cf f33c 35ef 4a3c d7d4 13bd 73d0 383c
00000170: dda8 ddbc 911c abbc c18d 1b3d c122 76bc
00000180: 02d6 afbc e758 633c 0957 f33c b1f4 8b3c
0.020593304 -0.050644338 -0.019044403 -0.01631573 -0.028945511 0.025678186 0.033305157 0.021555573
-0.008672308 -0.012703352 -0.011152241 -0.02507006 0.011571807 0.0019173267 0.039708756 0.021511763
0.030878732 0.028464776 -0.012418936 0.0044940854 -0.01522756 0.028122185 -0.020813745 -0.018196344
0.016638122 -0.0059684603 0.025821399 -0.010853703 0.027970912 0.029712992 0.022129295 0.018253336
-0.019161824 -0.003621415 0.01107542 0.02888355 0.035382558 0.03175037 0.004079949 -0.019838082
0.04011639 -0.028660588 0.024227297 -0.004121176 -0.008404932 -0.01967746 0.034774337 -0.026609683
-0.00039502548 0.030830001 -0.029203527 0.0082405275 0.016087715 0.034925446 0.026225118 -0.034948394
0.034398396 0.016207801 0.012205448 -0.018011786 0.03251591 0.012770005 0.018340733 -0.047476403
0.016259065 0.022638679 -0.008235166 0.013583332 -0.018765781 -0.0040110615 0.018363906 0.010160079
-0.031082373 -0.0038988886 0.005477622 -0.023792917 -0.04932189 -0.0028125732 -0.031546112 -0.028413232
-0.0124264285 0.03636811 -0.030699668 -0.045475423 -0.017105877 0.017879924 0.036200255 0.0234513
0.029762188 0.012386133 -0.03609165 0.011280167 -0.02705806 -0.020887645 0.037976984 -0.015022934
-0.021464352 0.013876176 0.029704588 0.017084451
