03_reg/mlp_early.pth (torch, 43735 bytes, 5 tensors)

model.0.weight f4 [100, 1]
0	0xbefb2f46	-0.49059504
1	0xbf89fe19	-1.078067
2	0x3eae427e	0.34035105
3	0x3f84f0b3	1.0385956
4	0xbf928060	-1.1445427
5	0x3f2d8f5e	0.67796886
6	0xbf09b722	-0.53795063
7	0x3e99fca5	0.30075565
8	0x3f1a27ab	0.6021678
9	0xbf534e7e	-0.82541645
10	0x3f4f19ce	0.8089875
11	0xbf8cfcf0	-1.101469
12	0xbf82d894	-1.0222344
13	0xbf5181cf	-0.818387
14	0xbf25c3e7	-0.6475205
15	0xbf8bd515	-1.0924402
16	0x3f53ce88	0.82737017
17	0xbf81bce9	-1.0135776
18	0xbf4a1fe7	-0.7895493
19	0xbef22c7c	-0.47299564
20	0xbf542d64	-0.8288176
21	0xbed6e996	-0.41975087
22	0xbf6b1dc3	-0.9184229
23	0xbe9b9807	-0.30389425
24	0x3e823195	0.25428453
25	0xbf59c999	-0.8507324
26	0xbf116354	-0.5679219
27	0x3ec557ac	0.3854345
28	0xbf617d74	-0.8808205
29	0x3f7eb61f	0.99496645
30	0x3f55c358	0.83501196
31	0xbf50c4e7	-0.8155045
32	0x3f8a8eaa	1.0824788
33	0x3e5c52d0	0.21515965
34	0x3f50e6d7	0.81602234
35	0xbf968855	-1.1760355
36	0x3de9ff54	0.11425653
37	0xbe83df4b	-0.25756297
38	0xbf4bc7df	-0.79601854
39	0xbf4fd87a	-0.8118969
40	0xbe7f6172	-0.24939516
41	0xbecd6922	-0.40119272
42	0x3ee5e84c	0.4490379
43	0x3f1a181a	0.60193026
44	0x3f7510a2	0.95728505
45	0x3f8c71ea	1.0972264
46	0x3f627f60	0.8847561
47	0xbf509939	-0.814838
48	0xbf451ffd	-0.77001935
49	0xbe74e414	-0.2391513
50	0x3f3066de	0.6890696
51	0x3f06c6d7	0.52647156
52	0xbf61b3bc	-0.8816488
53	0xbf130d25	-0.5744193
54	0xbf8fc4bb	-1.1231912
55	0xbf56dc02	-0.83929455
56	0x3f03b582	0.51448834
57	0xbf58b5ab	-0.84652203
58	0xbdb782aa	-0.08960469
59	0x3f1d3be2	0.614195
60	0x3e0e5fc4	0.13903719
61	0xbf0f1fea	-0.5590807
62	0x3ef228dd	0.472968
63	0x3f655b85	0.8959277
64	0xbf54334f	-0.8289079
65	0xbf7ec414	-0.9951794
66	0xbf29fedd	-0.66404516
67	0x3f7b8cec	0.98261905
68	0x3f88ef8c	1.0698104
69	0xbf69dd84	-0.9135363
70	0x3f775708	0.96617174
71	0x3f02119a	0.5080811
72	0xbf4c8313	-0.79887503
73	0x3f8b06e6	1.086148
74	0xbf384d41	-0.7199288
75	0xbf816154	-1.0107827
76	0xbf75fed3	-0.96091956
77	0x3f45aab2	0.77213585
78	0x3f17068c	0.58994365
79	0xbec3045f	-0.38089272
80	0x3f09269d	0.53574544
81	0x3f28cdf5	0.65939265
82	0xbf91e7fa	-1.1398919
83	0x3f7fb5af	0.998866
84	0x3ec1ec00	0.37875366
85	0xbf4a8d82	-0.79122174
86	0x3f849944	1.0359273
87	0x3f3991f3	0.72488326
88	0x3f73d4e3	0.95246714
89	0xbef44d12	-0.4771505
90	0xbf98f153	-1.1948646
91	0xbde51503	-0.11185648
92	0x3d3cf098	0.046127886
93	0x3f4a2bcd	0.78973085
94	0x3f4a358e	0.7898797
95	0xbe67069e	-0.22561118
96	0x3f8632a2	1.0484202
97	0x3f94dae7	1.1629304
98	0x3f4fdd08	0.8119664
99	0xbe65f208	-0.22455609

model.0.bias f4 [100]
0	0xbf4efd29	-0.8085504
1	0xbe113bab	-0.14182918
2	0x3eeef2c7	0.466696
3	0xbe8513d2	-0.25991684
4	0xbe96ba2e	-0.2943892
5	0xbe8aaa53	-0.27083072
6	0x3f0e5049	0.55591255
7	0x3f0fc933	0.5616638
8	0x3d410ac3	0.047129404
9	0x3f023e31	0.50876147
10	0xbea6f3cd	-0.3260788
11	0xbf08890e	-0.5333413
12	0xbe70583d	-0.2347116
13	0x3f1daf9c	0.61596084
14	0xbf0a623e	-0.54056156
15	0x3eee0b0e	0.4649281
16	0x3dfc0a44	0.123066455
17	0xbf19b24d	-0.6003769
18	0x3e0ee74c	0.1395542
19	0xbe24fa73	-0.16111164
20	0xbef45772	-0.47722965
21	0x3f1a182a	0.6019312
22	0x3e15b54d	0.14619942
23	0x3f440693	0.7657253
24	0x3e903ede	0.28172964
25	0xbe6fe62d	-0.23427649
26	0xbe4c7439	-0.1996621
27	0xbf5176de	-0.81822
28	0x3f44ae62	0.7682859
29	0x3f0df7d9	0.5545631
30	0x3d1e1d3d	0.038602103
31	0xbf3979cd	-0.7245148
32	0x3f4c3e18	0.7978225
33	0xbf01ff9f	-0.5078067
34	0xbe30c64b	-0.17263143
35	0x3c90296a	0.017597873
36	0xbf3d2306	-0.73881567
37	0x3f721d54	0.94576
38	0x3ed7a686	0.42119235
39	0xbf2003f8	-0.62506056
40	0x3f1b7beb	0.6073596
41	0xbf655c50	-0.8959398
42	0x3d4ce642	0.05002428
43	0xbf58595b	-0.84511346
44	0xbe9c273d	-0.30498686
45	0x3ed98652	0.4248529
46	0xbef2ed90	-0.4744687
47	0xbf551017	-0.83227676
48	0x3f559f57	0.8344626
49	0x3f380ec9	0.7189756
50	0xbf418857	-0.75598663
51	0xbf6e1a22	-0.93008626
52	0xbd1db25c	-0.038500175
53	0xbed1679c	-0.4089936
54	0x3e6df741	0.23238851
55	0xbf370fd7	-0.71508545
56	0x3c9d9205	0.019234667
57	0x3e8a1d52	0.26975495
58	0x3ee4e262	0.44703966
59	0xbe1a1ac9	-0.1504928
60	0x3f309756	0.6898092
61	0x3e8823a7	0.265897
62	0x3f127fdc	0.5722635
63	0x3f252e5c	0.64523864
64	0xbf68bb83	-0.9091112
65	0xbf01f8dc	-0.50770354
66	0xbe291662	-0.16512445
67	0x3e92e95c	0.28693664
68	0x3ef4d75d	0.4782056
69	0xbebaa8cb	-0.36456904
70	0xbed650c3	-0.4185849
71	0xbe2e33fb	-0.17012016
72	0xbe52ac4f	-0.20573543
73	0xbe003f00	-0.12524033
74	0xbbca95aa	-0.006182392
75	0x3eed0398	0.46291804
76	0x3ef2fe75	0.4745976
77	0xbf4becc4	-0.7965815
78	0x3f5a881d	0.8536394
79	0x3c6c2d51	0.014415101
80	0xbf22fdbe	-0.6366843
81	0x3f0a4045	0.5400432
82	0x3e72b24e	0.2370083
83	0xbdf09849	-0.11747796
84	0xbf607031	-0.8767119
85	0x3e2a6e2e	0.16643593
86	0xbf2a57b0	-0.6654005
87	0x3d9cd360	0.07657504
88	0xbe275925	-0.163426
89	0xbe681916	-0.2266582
90	0x3dc46671	0.09589852
91	0xbf3eb9ed	-0.7450245
92	0xbf0a0660	-0.5391598
93	0xbf1ba2a4	-0.60795045
94	0xbe904c88	-0.2818339
95	0xbf043beb	-0.5165393
96	0xbedee631	-0.43534997
97	0xbeb10123	-0.3457118
98	0xbf839500	-1.0279846
99	0x3ec8ffd9	0.39257696

model.2.weight f4 [100, 100]
0	0xbc25f051	-0.010128097
1	0x3d9277a3	0.07151725
2	0xbd8a3e04	-0.0675011
3	0x3d86c135	0.0657982
4	0xbd7495ac	-0.05971305
5	0x3da1c975	0.07899753
6	0xbcef1c04	-0.029188164
7	0x3d7cabf2	0.061687417
8	0x3d203288	0.03911069
9	0xbd9a8793	-0.0754539
10	0x3dcaae73	0.09896555
11	0x3c8e6ecd	0.017386818
12	0x3d94f14f	0.072725885
13	0xbd5d3948	-0.054009706
14	0x3d2dc47d	0.042423714
15	0xbdb36f08	-0.08761412
16	0xbd54f059	-0.051987026
17	0xbc5dfc95	-0.01354899
18	0x3d94966d	0.07255254
19	0x3d4ca877	0.049965348
20	0xbb8d3b33	-0.0043100356
21	0x3d0abf31	0.03387374
22	0x3d9147cd	0.07093773
23	0x3d4e59e6	0.050378703
24	0x3d5bbae0	0.053645015
25	0xbdaa93a0	-0.083289385
26	0x3cec7c16	0.028867763
27	0xbdcbdaf3	-0.099538706
28	0x3cab21db	0.020890167
29	0xbd0c790b	-0.034295123
30	0x3d220839	0.039558623
31	0x3d011ba2	0.031520493
32	0x3d8a1ab1	0.06743372
33	0x3cc6a548	0.024248734
34	0x3d673f17	0.05645665
35	0xbd81b825	-0.06333951
36	0xbd299301	-0.04139996
37	0x3c3037a7	0.010755456
38	0xbd936750	-0.0719744
39	0x3db6e687	0.08930688
40	0x3db4fdcb	0.0883747
41	0xbbc5bb70	-0.006034307
42	0xbccd810c	-0.025085948
43	0xbda34267	-0.079716496
44	0x3d516265	0.051119227
45	0x3ce11be8	0.027479127
46	0xbd3b4176	-0.045716725
47	0xbd43bb62	-0.047786124
48	0x3dc3235e	0.0952823
49	0xbd8897e8	-0.06669599
50	0x3da668ee	0.081254825
51	0x3c035066	0.008014774
52	0xbc6c6148	-0.0144274905
53	0x3d0b643c	0.034031138
54	0xbb981722	-0.0046414295
55	0x3c1d979a	0.009618664
56	0xbd0a8d78	-0.03382632
57	0xbc8f3038	-0.017479047
58	0xbd120113	-0.035645556
59	0x3cd4d3f8	0.02597998
60	0x3d28dee9	0.04122821
61	0x3da5f167	0.081026845
62	0xbce360c2	-0.027756099
63	0xbcdac3ba	-0.026704658
64	0xbcb289b7	-0.021794183
65	0x3c1fc6ac	0.009751957
66	0xbd45c230	-0.048280895
67	0xb876ca6f	-5.88395e-05
68	0xbdd99887	-0.106247954
69	0x3db2ee16	0.087368175
70	0xbda98111	-0.082765706
71	0xbc1b619f	-0.009483724
72	0x3ac2800a	0.0014839184
73	0xbd792f07	-0.060835864
74	0xbd912e03	-0.07088854
75	0x3d5167a3	0.051124226
76	0x3db83f98	0.089965045
77	0xbcee4596	-0.029085916
78	0xbd8b1233	-0.067905806
79	0xbc9a50c1	-0.018837335
80	0xbd1f4a9c	-0.038889512
81	0x3dcaae24	0.09896496
82	0xbca54f3d	-0.020179385
83	0xbd4b0372	-0.049563833
84	0x3bcfd53a	0.0063425573
85	0xbcc042d7	-0.023469372
86	0x3d377714	0.044791296
87	0x3c4e3fda	0.012588466
88	0xbd1298e7	-0.03579035
89	0x3c4bbcc7	0.012435145
90	0x3cf82fc8	0.030296221
91	0x3c2941ee	0.01033066
92	0x3dac7889	0.08421428
93	0x3d8ac322	0.067755
94	0xbc979c6d	-0.018507207
95	0x3d70a218	0.058748335
96	0x3d0a2e97	0.033735838
97	0xbac4815e	-0.0014992168
98	0xbd9ea5cd	-0.07746468
99	0xbcc5f717	-0.024165673
100	0xbd7addd9	-0.061246727
101	0x3dc37b2d	0.09544978
102	0xbcf8b6b9	-0.030360566
103	0xbd8a39fa	-0.067493394
104	0x3e6609e3	0.22464709
105	0x3cd1534d	0.025552416
106	0x3d72808c	0.059204623
107	0xbd51be57	-0.051206913
108	0xbe3f3377	-0.18671976
109	0x3cc47ead	0.023986185
110	0xbdf64e7e	-0.1202669
111	0x3e27a145	0.16370113
112	0x3e2bfeec	0.16796464
113	0xbd24a845	-0.040199537
114	0x3d98388e	0.07432662
115	0x3e11074c	0.1416294
116	0xbe56316e	-0.20917293
117	0x3dded776	0.1088094
118	0x3d37b837	0.044853415
119	0x3d2c62bb	0.042086344
120	0x3dc9fd6d	0.0986279
121	0x3d891964	0.06694296
122	0x3d938970	0.072039485
123	0x3c6e10a6	0.0145303365
124	0xbd116ade	-0.035502307
125	0x3e105b3f	0.14097308
126	0x3e2d17de	0.16903636
127	0x3d04b413	0.032398295
128	0x3c662c35	0.014048626
129	0xbdfc7c0a	-0.12328346
130	0xbe74cfbc	-0.2390737
131	0xbd50c578	-0.05096957
132	0xbc952544	-0.018206246
133	0x3c181373	0.009281981
134	0xbce8fa05	-0.028439531
135	0x3e6ce667	0.23134767
136	0xbcaffdb3	-0.021483278
137	0xbb8e944a	-0.0043511735
138	0x3e0e52d1	0.1389878
139	0x3d40da6c	0.047083303
140	0x3df0de75	0.1176118
141	0xbc4c33fa	-0.012463564
142	0xbd574414	-0.05255516
143	0x3c82a872	0.015949462
144	0xbe15174a	-0.14559665
145	0xbe302df1	-0.17205025
146	0xbdfc4360	-0.12317538
147	0x3a5f11b3	0.00085094123
148	0x3d592ecb	0.05302314
149	0xbd1f4e1f	-0.03889286
150	0x3d46e454	0.048557594
151	0xbdba3d66	-0.09093742
152	0x3e36c6c6	0.17849264
153	0x3d2e363f	0.0425322
154	0x3e3bee59	0.18352641
155	0x3c73f01d	0.01488879
156	0xbdb31ac8	-0.087453425
157	0x3dbfda90	0.09367859
158	0x3d6dc5e2	0.058050044
159	0xbd8d52d4	-0.06900564
160	0xbcdc3ca7	-0.02688439
161	0xbc63e344	-0.013909165
162	0xbd8d5394	-0.06900707
163	0xbc33eecd	-0.0109822275
164	0xbd3fde95	-0.04684313
165	0x3e24888c	0.16067713
166	0x3dadf8ce	0.08494721
167	0xbcedb381	-0.029016258
168	0xbe19584c	-0.14975089
169	0x3db45d91	0.08806909
170	0xbdb63388	-0.088965476
171	0xbd746910	-0.059670508
172	0x3e19c497	0.150164
173	0xbe060947	-0.13089477
174	0x3e6093fd	0.21931453
175	0xbc15cfd9	-0.009143793
176	0x3dd54db8	0.10415214
177	0xbdf58519	-0.11988277
178	0xbdb9d910	-0.090746045
179	0x3d8cddbd	0.06878231
180	0x3d36fc47	0.044674184
181	0xbe0510ef	-0.12994741
182	0x3e3df4da	0.18550435
183	0xbdcb67be	-0.099318966
184	0xbd8c2954	-0.0684382
185	0x3cc8ba6c	0.024502955
186	0x3d0abbad	0.033870388
187	0xbe203e08	-0.15648663
188	0xbd2fffdf	-0.042968627
189	0x3d8494fe	0.064737305
190	0x3d4fc270	0.05072254
191	0x3d2285b5	0.039678294
192	0x3ceed757	0.029155416
193	0xbdcb137a	-0.09915824
194	0xbe1b068a	-0.15139213
195	0xbd415a6f	-0.047205385
196	0xbca75b10	-0.020429164
197	0xbda9dc1d	-0.082939364
198	0x3d8ff836	0.07029764
199	0xbc6841b2	-0.014175819
200	0xbd967110	-0.07345784
201	0xbd507ae9	-0.050898466
202	0xbc7e4ffc	-0.015521999
203	0x3b21ab5f	0.0024668796
204	0xbd0d99d7	-0.03457054
205	0x3da76a3f	0.08174562
206	0x3d0b11cc	0.03395252
207	0x3d64cf41	0.055861715
208	0x3dba7653	0.091046
209	0x3da7788d	0.0817729
210	0xbccc48cd	-0.024937058
211	0xbd6f0dbf	-0.05836272
212	0x3e033631	0.12813641
213	0xbc81a0f4	-0.015823819
214	0x3a741651	0.0009311187
215	0xbd75b460	-0.059986472
216	0x3d04b9ba	0.032403685
217	0x3de04a42	0.109516636
218	0x3b9956c8	0.0046795346
219	0x3d0bae0a	0.034101523
220	0x3d82aef2	0.063810244
221	0x3d8dff3b	0.06933447
222	0x3d1f75a8	0.038930565
223	0xbd7ba182	-0.061433323
224	0x3dccc98b	0.09999379
225	0xbda3f429	-0.08005554
226	0xbb3cb8d7	-0.0028796697
227	0x3c4d6584	0.01253641
228	0xbdbe3aa1	-0.09288526
229	0x3d9af90c	0.07567033
230	0x3d684e6a	0.056715406
231	0xbd97c8eb	-0.07411369
232	0x3c7e5d14	0.015525121
233	0xbddacecd	-0.10683975
234	0xbd6a26c3	-0.057165872
235	0x3d4f0892	0.050545283
236	0xbd1e4545	-0.03864028
237	0x3d10a399	0.03531227
238	0x3d8f479a	0.06996079
239	0x3a2fde12	0.0006708811
240	0xbc0910f5	-0.008365859
241	0x3d921a7d	0.071339585
242	0x3c7a330c	0.01527096
243	0xbd4d0634	-0.050054744
244	0x3c8874cf	0.016657261
245	0xbda32c19	-0.07967395
246	0x3c789a0d	0.015173447
247	0xbda58b41	-0.08083201
248	0xbd64e96f	-0.055886682
249	0xbd0c21e2	-0.034212
250	0xbcc678ac	-0.024227463
251	0x3be92d41	0.0071159904
252	0x3d1a1cf4	0.037625268
253	0xbd6f03fb	-0.058353405
254	0x3d27f389	0.041003738
255	0xbdc044b7	-0.09388106

model.2.bias f4 [100]
0	0x3da73425	0.08164243
1	0x3da879fc	0.08226392
2	0xbd5790e2	-0.052628405
3	0x3af0902e	0.0018353516
4	0xbc239caa	-0.009986082
5	0x3cf65aa3	0.030072516
6	0x3c199e8f	0.009376182
7	0x3cf0831a	0.02935939
8	0x3c85daaf	0.016339628
9	0xbd13ec7e	-0.03611421
10	0x3c7ca1b5	0.015419413
11	0x3c57de4d	0.013175559
12	0xbc42f11c	-0.011898305
13	0xbc778fa2	-0.015109928
14	0x3cec949f	0.028879462
15	0xbc85214b	-0.016251227
16	0x3dabb043	0.08383229
17	0x3db56e97	0.08858984
18	0x3d98fead	0.074704506
19	0xbdc86ed3	-0.09786763
20	0xbd0519c5	-0.03249528
21	0xbd120e51	-0.035658184
22	0xbd9bd7e6	-0.07609539
23	0xbd8175c7	-0.06321292
24	0xbcb11246	-0.021615159
25	0x3e021490	0.12703156
26	0x3bac7921	0.005263463
27	0xbd487a86	-0.048944972
28	0x3d975cc1	0.07390738
29	0x3cfd5207	0.030922903
30	0xbdf25b93	-0.11833873
31	0x3da259d9	0.07927293
32	0xbbc1fe37	-0.0059201973
33	0x3d3224c4	0.043492094
34	0x3dc68871	0.09693993
35	0x3c8a7332	0.016900633
36	0xbd3f75b0	-0.046743095
37	0x3d129d4d	0.035794545
38	0xbbc90587	-0.006134692
39	0x3d9ba79c	0.07600328
40	0xbda100e9	-0.07861502
41	0x3da8f30d	0.08249483
42	0x3c346195	0.0110095935
43	0xbd07aec9	-0.033125672
44	0xbbb4ca47	-0.0055172774
45	0x3e0dea90	0.1385901
46	0xbd24dcfc	-0.04024981
47	0xbd1535a6	-0.036428116
48	0xbd159cd4	-0.036526516
49	0x3d62914d	0.05531435
50	0xbd9ce3f0	-0.07660663
51	0x3de0dc47	0.109795146
52	0xbd273064	-0.040817633
53	0x3d46ee4d	0.048567105
54	0xbcd4fefb	-0.02600049
55	0xbc8b52bb	-0.017007222
56	0x3dafc8c3	0.08583214
57	0xbd5f3c1a	-0.054500677
58	0x3c66d1d6	0.014088115
59	0x3d1b66c2	0.037939794
60	0xbd3b7d50	-0.045773804
61	0xbd044d1b	-0.032300096
62	0x3ce2b1a5	0.027672598
63	0xbd9e2cc8	-0.07723385
64	0x3ca5efdf	0.020255981
65	0xbd3e10e5	-0.04640283
66	0x3d73a943	0.059487592
67	0xbd44a068	-0.048004538
68	0x3dcb4340	0.09924936
69	0x3dadaea4	0.08480576
70	0x3d0e8d5f	0.03480279
71	0xbdd632d5	-0.10458914
72	0xb7a55ec9	-1.971367e-05
73	0x3cc6a898	0.024250314
74	0x3d4244b2	0.047428794
75	0xbda3a727	-0.07990866
76	0xbbb095e1	-0.0053889607
77	0xbe0541cb	-0.1301338
78	0xbd3ede82	-0.04659892
79	0x3e2329e0	0.15933943
80	0xbb6f0550	-0.0036471672
81	0xbcd5b226	-0.026085924
82	0xbd54ad0a	-0.051922835
83	0xbd70b602	-0.058767326
84	0xbdc1fd31	-0.094721206
85	0xbd0161da	-0.03158746
86	0x3d11ecae	0.035626106
87	0x3c504f05	0.012714152
88	0xbd40502b	-0.046951454
89	0x3d34a4a0	0.04410231
90	0xbcd9cfc7	-0.026588334
91	0xbd815f67	-0.06317025
92	0x3d633088	0.055466205
93	0x3d98d279	0.074620195
94	0x3dac0cc8	0.08400875
95	0xbd1993bf	-0.037494417
96	0xbdae6216	-0.08514802
97	0xbd2e56ef	-0.042563375
98	0x3c9ea0dc	0.019363813
99	0xbdad176a	-0.084517315

model.4.weight f4 [1, 100]
0	0xbc7f7253	-0.015591222
1	0xbe32d856	-0.17465338
2	0xbdb322f9	-0.08746905
3	0xbe2a7269	-0.16645207
4	0xbe169437	-0.14704977
5	0x3e19306c	0.14959878
6	0xbddb2fe1	-0.107024916
7	0x3dd8a3c6	0.10578112
8	0xbd70c8f2	-0.058785386
9	0xbe0501e6	-0.12989005
10	0xbcf13e62	-0.029448692
11	0x3e36d399	0.17854156
12	0xbd8f4beb	-0.06996902
13	0xbd8fdb5c	-0.07024261
14	0x3aa768f9	0.0012772373
15	0x3cf51350	0.029916435
16	0xbd4bf65a	-0.049795486
17	0xbd868fdb	-0.06570407
18	0xbe0c9ba0	-0.13731241
19	0x3ce53c0e	0.027982738
20	0xbe5a5e46	-0.21325025
21	0x3d1e1ca2	0.038601525
22	0x3e0f4c99	0.13994063
23	0x3e182d61	0.1486106
24	0xba02ad06	-0.0004984889
25	0xbdf0641c	-0.11737844
26	0x3e3f6309	0.18690123
27	0xbe1eda10	-0.15512872
28	0x3c599e44	0.013282362
29	0xbd941eba	-0.07232423
30	0x3d22cfed	0.039749075
31	0xbde301b1	-0.11084307
32	0x3dd41795	0.103560604
33	0xbd5bd218	-0.053667158
34	0xbda80196	-0.082034275
35	0x3d94fdf2	0.07274999
36	0x3d5e98dc	0.054344997
37	0x3e0a50c0	0.13507366
38	0x3e1b82db	0.15186636
39	0x3d630e46	0.055433534
40	0xbd54d569	-0.051961336
41	0x3e28f011	0.16497828
42	0xbd89d045	-0.067291774
43	0x3dec1c3d	0.115288235
44	0x3dd96659	0.106152244
45	0x3e262f6c	0.16229028
46	0x3cf2ddf2	0.029646847
47	0xbea2263f	-0.31669804
48	0x3db434c4	0.08799127
49	0xbdaf649d	-0.08564112
50	0x3de96d60	0.11397815
51	0xbd49a35d	-0.04922806
52	0xbdae8c8f	-0.08522903
53	0xbe3e591c	-0.1858868
54	0xbdee7fe5	-0.11645488
55	0x3d869fd8	0.065734565
56	0xbd052d17	-0.032513704
57	0xbe16d596	-0.14729914
58	0x3d492d94	0.049115732
59	0xbdd5d9c0	-0.10441923
60	0x3cd472cb	0.025933644
61	0x3d9a024c	0.07519969
62	0x3d922c8c	0.07137403
63	0x3da8fd69	0.08251459
64	0x3d951567	0.07279473
65	0x3daa6abf	0.083211415
66	0x3e198b06	0.1499444
67	0x3ddde5fc	0.10834882
68	0xbcb8ac07	-0.022542967
69	0x3df287e0	0.11842322
70	0xbd893246	-0.06699042
71	0x3d1e03b7	0.03857776
72	0x3dcf8c73	0.101342104
73	0x3dd36ee9	0.10323889
74	0x3d99b3f4	0.075050265
75	0xbe0ff0b1	-0.1405666
76	0x3e14c477	0.1452807
77	0x3dca8e95	0.098904766
78	0xbd50babc	-0.050959334
79	0x3e31f74e	0.17379496
80	0xbdec351a	-0.11533566
81	0xbd71caf9	-0.05903146
82	0xbdda368f	-0.106549375
83	0xbd8c50b3	-0.0685133
84	0x3dd59a00	0.10429764
85	0xbd0e835e	-0.03479325
86	0xbdb055b7	-0.08610099
87	0x3e313f3a	0.17309275
88	0x3db48ec5	0.088162936
89	0xbe4f424a	-0.20240131
90	0x3e1dc08f	0.15405487
91	0x3dd390fc	0.10330388
92	0x3e0fe953	0.1405385
93	0xbe560acc	-0.20902556
94	0xbcb7ff78	-0.022460684
95	0xbe007987	-0.12546359
96	0x3d8436a2	0.06455733
97	0x3e08b463	0.13350062
98	0xbbda10aa	-0.0066548185
99	0x3dae3218	0.085056484
