03_reg/mlp_noreg.pth (torch, 43735 bytes, 5 tensors)

model.0.weight f4 [100, 1]
0	0xc0358983	-2.836518
1	0x4031b149	2.7764456
2	0x40e6f134	7.2169437
3	0x405b8a53	3.4303176
4	0xc0857237	-4.1701922
5	0xbfddc472	-1.7325575
6	0x40292317	2.6427667
7	0xc04113b9	-3.0168288
8	0x40514176	3.2696204
9	0xc072af55	-3.7919514
10	0x3fe3f854	1.7810159
11	0x40814a9a	4.0403566
12	0x403e89a6	2.9771514
13	0x4041eee1	3.030205
14	0xc05bd211	-3.4346964
15	0xc0250e3c	-2.5789938
16	0x40833d35	4.1012216
17	0x405895f0	3.3841515
18	0xc03f3448	-2.987566
19	0xc026f5c6	-2.6087508
20	0x406b124d	3.672992
21	0xc04fe9f3	-3.2486541
22	0x403be424	2.9357996
23	0xc0392d78	-2.8934002
24	0x4044c509	3.074526
25	0xc039b4ff	-2.9016721
26	0xc03cd44e	-2.950458
27	0xc0683ce6	-3.628717
28	0x405e61d5	3.4747212
29	0xbffbcef1	-1.9672529
30	0x404e0514	3.21906
31	0x402f5d04	2.7400522
32	0x406e2b25	3.7213833
33	0x406aa204	3.6661386
34	0xc05b26c5	-3.4242413
35	0xc050e5c2	-3.2640233
36	0x402a65eb	2.6624706
37	0xc030b002	-2.7607427
38	0x402bd358	2.6847744
39	0xc008ba9a	-2.1363893
40	0x4075bda8	3.8397007
41	0x405a4775	3.4106114
42	0xc02f7bb0	-2.7419243
43	0x4047b1ab	3.120219
44	0xbf8c66d5	-1.0968882
45	0x3fd606fe	1.6720884
46	0xc04dd826	-3.2163177
47	0x4039d4da	2.9036164
48	0xc02d25b5	-2.7054265
49	0xc079aff9	-3.9013655
50	0xc0511cec	-3.2673903
51	0x4025f65c	2.5931616
52	0x400e09ea	2.219355
53	0xc0404699	-3.004309
54	0x40107bc2	2.2575536
55	0x40067d0f	2.101383
56	0xc078c3ee	-3.8869586
57	0xc03bf8d3	-2.937062
58	0xc030eebb	-2.764571
59	0x408451a1	4.1349645
60	0xc00105bd	-2.0159752
61	0xc083845d	-4.1099076
62	0xc03abd3f	-2.9178007
63	0xc018adab	-2.3855999
64	0x403fe590	2.9983864
65	0xc0223ef4	-2.5350924
66	0x4025a9d3	2.5884902
67	0xc0b4de87	-5.652164
68	0x4032933e	2.790237
69	0x40298b6c	2.6491346
70	0xbf6da29d	-0.92826253
71	0x4045dbeb	3.0915477
72	0x402c8360	2.6955185
73	0x4056748a	3.350863
74	0xc03efbc5	-2.9841168
75	0x401d8311	2.4611247
76	0x4054be3a	3.3241105
77	0xc073ff29	-3.8124487
78	0x40116ac1	2.2721407
79	0x4030f39d	2.764869
80	0x4050ef8a	3.2646203
81	0x40674f1f	3.6142042
82	0x4072fe78	3.7967815
83	0x4070f830	3.7651482
84	0x403c87fd	2.9458
85	0x402b8135	2.6797612
86	0xc02eb1b9	-2.7295973
87	0xc00acbba	-2.1686845
88	0x403ddee1	2.9667284
89	0xc03c4993	-2.9419906
90	0x3ff4cbcb	1.9124693
91	0x403edd7a	2.9822679
92	0xc03d5340	-2.9582062
93	0xc035577b	-2.8334644
94	0xc09f582b	-4.9795127
95	0xc036c832	-2.855969
96	0xc034cdf5	-2.8250706
97	0xc054ffd0	-3.3281136
98	0x402728b9	2.6118605
99	0xc09268c8	-4.5752907

model.0.bias f4 [100]
0	0x3f8d41b1	1.1035672
1	0x3f81bd9a	1.0135987
2	0xbdc4ec21	-0.096153505
3	0x3f819c3d	1.0125805
4	0xbfd06cba	-1.6283181
5	0xbf5dacc0	-0.8659172
6	0x3f866d4b	1.0502104
7	0x3f61871e	0.880968
8	0x3fa8ee30	1.3197689
9	0x3ef1805c	0.47168243
10	0x3f2bdd34	0.67134404
11	0x3e18b3b5	0.14912303
12	0x3f3fa33e	0.7485846
13	0x3f408fe6	0.7521957
14	0x3f2ebbd4	0.6825535
15	0xbf63a4e4	-0.8892348
16	0xbf5ae668	-0.8550782
17	0xbf2a24ff	-0.664627
18	0x3f9e1b27	1.2352036
19	0xbf5b3c49	-0.8563886
20	0xbfbc2b0d	-1.4700638
21	0xbf84d70c	-1.0378127
22	0xbf97ad6f	-1.1849803
23	0x3f3f8965	0.7481902
24	0x3f9c3e6b	1.2206548
25	0xbf9548fd	-1.1662899
26	0x3f9576da	1.1676896
27	0xbf91679d	-1.1359745
28	0xbf3eeec2	-0.74583066
29	0xbf36800b	-0.7128913
30	0xbf2ffb7f	-0.6874313
31	0x3f4e4165	0.80568534
32	0x3dc51c79	0.09624571
33	0xbec0e843	-0.37677202
34	0xbf7c7906	-0.9862217
35	0x3f282e50	0.6569567
36	0x3f17ba2e	0.5926846
37	0xbf7a97bd	-0.97887784
38	0xbf2b9e1e	-0.6703814
39	0xbf5539b5	-0.8329118
40	0x3f51178b	0.8167655
41	0xbfba13c8	-1.4537287
42	0xbf920ae0	-1.1409569
43	0x3f930762	1.1486628
44	0xbf349d6f	-0.70552725
45	0x3f195f18	0.59910727
46	0xbf9a04b0	-1.203268
47	0xbf73ff3f	-0.9531135
48	0x3f78521e	0.970003
49	0x3f1f641c	0.6226213
50	0xbfaae71a	-1.3351777
51	0x3f86e20d	1.0537735
52	0x3f616c96	0.88056314
53	0xbf926074	-1.1435685
54	0x3f0d2250	0.5513048
55	0x3f6d46db	0.9268624
56	0x3f1c3ef5	0.61033565
57	0xbf91c28e	-1.1387498
58	0x3f7d02d9	0.9883247
59	0xbec6ba33	-0.38813934
60	0x3f65e626	0.89804304
61	0xbc351b99	-0.011053943
62	0xbf947b6e	-1.1600168
63	0xbf6d1be9	-0.9262071
64	0xbf602edd	-0.8757151
65	0xbf7ef14d	-0.99586946
66	0xbf7f4eff	-0.99729913
67	0x3dcce394	0.100043446
68	0xbf351043	-0.7072794
69	0x3f80ac14	1.0052514
70	0xbf72b03b	-0.94800156
71	0x3f74d7b7	0.95641655
72	0xbf6bf377	-0.9216837
73	0x3efcf443	0.49405107
74	0xbf3561ef	-0.7085256
75	0xbf734194	-0.9502194
76	0xbf39bd90	-0.72554874
77	0xbe420657	-0.18947731
78	0x3f7a15b9	0.97689396
79	0xbf71ed40	-0.9450264
80	0xbfb0585a	-1.3776963
81	0xbf35fba9	-0.7108713
82	0xbedf6a91	-0.4363599
83	0xbf1938cf	-0.5985231
84	0xbf6dea9f	-0.9293613
85	0x3f8ea8c8	1.1145258
86	0x3f862d1e	1.0482519
87	0xbf77c2fe	-0.9678191
88	0xbf7ea8ab	-0.99476117
89	0xbf9806b5	-1.1877047
90	0xbf08efa0	-0.5349064
91	0xbf9da48c	-1.2315841
92	0x3f8d1f14	1.1025109
93	0xbf62bfba	-0.885738
94	0xbf140c3a	-0.57831156
95	0x3f95e8c4	1.171166
96	0xbf4d5be4	-0.8021834
97	0x3f1b160e	0.6058053
98	0x3f87acc3	1.0599598
99	0x3f53eadb	0.82780236

model.2.weight f4 [100, 100]
0	0xbe2e9d63	-0.17052226
1	0x3e0ecb98	0.13944852
2	0x402d6dc9	2.7098258
3	0x3eee43d7	0.46536133
4	0xbef193b6	-0.47183007
5	0x3c61731d	0.013760355
6	0x3cc5edfe	0.024161335
7	0xbe0e3dd7	-0.13890778
8	0x3de993ab	0.114051186
9	0xbf08b482	-0.53400433
10	0x3e097495	0.13423379
11	0x3f9bc974	1.2170854
12	0x3eca77ec	0.39544618
13	0x3e9d7d27	0.30759546
14	0xbe9808e9	-0.29694298
15	0xbe985c9c	-0.29758155
16	0x3ec355ee	0.38151497
17	0x3ebecb66	0.37264556
18	0xbdab39fb	-0.08360668
19	0xbe635e11	-0.22203852
20	0xbd273471	-0.040821496
21	0xbe999c2d	-0.30001965
22	0x3e077436	0.13227925
23	0xbe83bd76	-0.25730485
24	0x3dc8e9f8	0.09810251
25	0xbde12d07	-0.109949164
26	0xbdd18038	-0.10229534
27	0xbed49264	-0.41517937
28	0x3ed15967	0.4088852
29	0xbe30feab	-0.17284648
30	0x3e1beb7d	0.1522655
31	0x3eaa2e4d	0.3323845
32	0x3fe18cb4	1.7621064
33	0x3f166aa2	0.5875646
34	0xbf02c59f	-0.51082796
35	0xbe1a049b	-0.1504082
36	0x3ed63c5e	0.41842932
37	0xbe655c07	-0.22398387
38	0x3e8d1101	0.27552035
39	0xbdd6b7b9	-0.10484261
40	0x3e986c09	0.29769924
41	0xbc4c1b62	-0.0124577
42	0xbcd5c1f8	-0.026093468
43	0x3e723085	0.23651321
44	0xbd6c6543	-0.05771376
45	0x3d9ce057	0.07659977
46	0xbe1cd68b	-0.15316217
47	0x3decf5bd	0.11570308
48	0xbdcba899	-0.09944267
49	0xbee9efe6	-0.4569084
50	0xbe2e9032	-0.17047194
51	0x3e132be3	0.1437221
52	0x3e10a175	0.14124091
53	0xbe4aeeae	-0.19817612
54	0x3eb1521f	0.34632966
55	0x3df80f6c	0.121123165
56	0xbecbe7bd	-0.3982524
57	0xbe49a4b0	-0.1969173
58	0x3c5bd5c4	0.013417665
59	0x3f3b8c71	0.7326117
60	0xbdc70a7b	-0.09718796
61	0xbfa9ea08	-1.3274546
62	0xbda919c0	-0.082568645
63	0xbda21074	-0.079132944
64	0x3dd42886	0.10359292
65	0xbd747f29	-0.059691582
66	0x3e1f471f	0.15554474
67	0xbff34b47	-1.9007348
68	0x3e86c100	0.26319122
69	0x3e522a5e	0.20523974
70	0x3d8d855a	0.069102004
71	0x3edc15e5	0.42985454
72	0x3de95dda	0.11394854
73	0x3f0d09a8	0.5509286
74	0xbeeacaa4	-0.45857728
75	0x3d9f6b21	0.07784105
76	0x3eb21a7a	0.34785825
77	0xbf874a32	-1.0569518
78	0x3d943daa	0.07238324
79	0x3e496e43	0.19670968
80	0x3cf2c221	0.029633584
81	0x3eafa03e	0.34301943
82	0x3f2871d3	0.6579868
83	0x3ede6254	0.43434393
84	0x3e039142	0.1284838
85	0x3e07281c	0.13198894
86	0xbdeaf4cc	-0.114724725
87	0xbd7b07fc	-0.06128691
88	0x3dda750d	0.10666857
89	0xbe1ee5d8	-0.15517366
90	0x3e3ad039	0.18243493
91	0xbd2f1fe6	-0.04275503
92	0xbdc83094	-0.097748905
93	0xbe962e48	-0.29332185
94	0xbf507768	-0.814322
95	0xbcd36663	-0.025805658
96	0xbec69b41	-0.38790324
97	0xbe886a22	-0.26643473
98	0x3da1db45	0.079031505
99	0xbf212947	-0.6295361
100	0x3ed95e28	0.42454648
101	0x3b9e5ed9	0.004833084
102	0xbfd2a9e9	-1.6458102
103	0xbe9576e5	-0.29192272
104	0x3e1a2408	0.15052807
105	0xbdcbf037	-0.09957927
106	0xbb989bf1	-0.0046572615
107	0x3f431335	0.7620118
108	0x3e2b3739	0.16720285
109	0x3fdf8c7a	1.7464745
110	0x3d1aa75a	0.037757255
111	0xbf43193e	-0.7621039
112	0xbdce93af	-0.10086762
113	0xbe20b773	-0.1569498
114	0x3f8db061	1.1069452
115	0x3db78666	0.08961181
116	0xbfa33c41	-1.2752763
117	0xbf95484f	-1.1662692
118	0x3eaf88ff	0.34284207
119	0xb9f4f708	-0.0004672336
120	0xbef2ba0b	-0.47407565
121	0x3e4b940b	0.19880693
122	0xbea3a3fe	-0.31961054
123	0x3f44d7e0	0.768919
124	0x3d466081	0.048431877
125	0xbdf86d32	-0.12130202
126	0x3eb2d607	0.34928915
127	0x3e863a74	0.2621647
128	0xbf9bec3a	-1.2181466
129	0xbcb4bace	-0.022061732
130	0xbf5fe070	-0.8745184
131	0xbe13c113	-0.1442912
132	0xbfa9cc78	-1.3265524
133	0xbfd84d3a	-1.6898568
134	0x3e4372d0	0.19086766
135	0x3f88ad08	1.0677805
136	0xbe98a8dd	-0.29816332
137	0x3dff2003	0.124572776
138	0xbf628a4b	-0.8849227
139	0xbd33733a	-0.04381106
140	0xbe34d998	-0.1766113
141	0xbea952d4	-0.33071005
142	0xbda5155f	-0.08060717
143	0x3d8ef18b	0.069796644
144	0xbdedda36	-0.11613886
145	0x3ccf4907	0.025303377
146	0xbcdbbdd6	-0.02682392
147	0xbf09df8a	-0.5385672
148	0x3edbc97e	0.42927164
149	0x3fdb8349	1.714944
150	0xbc91869f	-0.017764388
151	0x3d02cf06	0.031935714
152	0x3d268d9b	0.04066239
153	0x3d45233f	0.048129316
154	0xbe0f04b0	-0.13966632
155	0x3dbabc40	0.09117937
156	0x3fd19850	1.6374607
157	0xbca815e5	-0.020518253
158	0x3ed5cf8e	0.41759914
159	0xbfd75efe	-1.6825864
160	0x3ed9409b	0.42432103
161	0x3f8a8c71	1.0824109
162	0xbd419364	-0.047259703
163	0xbd36e135	-0.044648368
164	0xbf326dc3	-0.69698733
165	0xbde81d99	-0.1133377
166	0xbec9486d	-0.3931307
167	0x3fb086f1	1.3791181
168	0xbf7d3fff	-0.98925775
169	0xbd550cb6	-0.052014075
170	0xbe141eb8	-0.14464843
171	0xbd8377db	-0.06419345
172	0xbf0f1010	-0.55883884
173	0xbeb05564	-0.34440148
174	0x3e951e17	0.2912452
175	0xbed65f4f	-0.4186959
176	0xbf7afce6	-0.9804214
177	0x3f24756b	0.64241666
178	0x3dec00fa	0.11523624
179	0xbf2b162d	-0.6683071
180	0xbebc1705	-0.36736313
181	0xbfa293be	-1.2701337
182	0xbfd3cf46	-1.654763
183	0xbfbdb19d	-1.4819828
184	0xbf18eae1	-0.59733397
185	0x3debc64a	0.1151243
186	0x3ef82eaa	0.48473102
187	0xbde24862	-0.11048962
188	0xbf0b9120	-0.5451832
189	0xbd6f8004	-0.058471695
190	0xbf3164bc	-0.69294333
191	0xbed5c42d	-0.41751233
192	0x3f08b3ca	0.53399336
193	0x3e32d505	0.17464073
194	0x3ef6a76d	0.4817461
195	0x3ed57255	0.4168879
196	0x3e6ba45a	0.23011914
197	0x3fb2d106	1.3970039
198	0xbd2f9d87	-0.04287484
199	0x3fef2981	1.8684541
200	0xbf4aec0e	-0.7926644
201	0xbdf9a9ca	-0.12190588
202	0x3e99c580	0.30033493
203	0xbd32f8e1	-0.04369438
204	0x3e38ed4c	0.18059272
205	0x3d914b53	0.07094445
206	0xbdfb7830	-0.12278783
207	0xbf519839	-0.818729
208	0xbdcbd7c9	-0.09953267
209	0xbed2806b	-0.411136
210	0xbd1fbcdb	-0.038998466
211	0x3d866fa9	0.06564266
212	0xbe07d574	-0.1326502
213	0xbd9301bd	-0.07178066
214	0xbf1eafab	-0.619868
215	0x3e2d5f8e	0.16930982
216	0x3f8e15d2	1.1100409
217	0x3f186f13	0.59544486
218	0xbf3dbad8	-0.74113226
219	0xbcc2c233	-0.023774242
220	0x3f6112d1	0.87919337
221	0x3e1299be	0.1431646
222	0x3f5f50c3	0.8723261
223	0xbf233b0c	-0.63761973
224	0xbe133c9e	-0.14378592
225	0x3df30b75	0.1186742
226	0xbf34d97a	-0.7064434
227	0x3e4b9704	0.19881827
228	0x3f7229d5	0.9459508
229	0x3e1d41d9	0.1535715
230	0x3f279941	0.6546822
231	0xbb28e934	-0.0025773766
232	0x3ea0f09a	0.31433564
233	0x3eb7fa13	0.3593298
234	0x3d1acecd	0.037794877
235	0xbf1fc854	-0.6241505
236	0xbdcc3be2	-0.09972359
237	0x3dc069c0	0.0939517
238	0x3f3b8756	0.7325338
239	0x3bb987a8	0.0056619234
240	0xbcd01b31	-0.02540359
241	0x3f56b64a	0.838719
242	0x3c9c14ae	0.01905283
243	0xbd325da3	-0.04354633
244	0x3e269ff2	0.16271952
245	0xbdc9e206	-0.09857564
246	0x3df2d6e2	0.11857392
247	0x3f3b6887	0.7320637
248	0xbf37327d	-0.71561414
249	0xbf1b776d	-0.60729104
250	0x3e2a00aa	0.16601816
251	0xbdae3f9b	-0.085082255
252	0xbb8ff88e	-0.0043936437
253	0xbb3d0fd3	-0.0028848543
254	0x3b57f9fb	0.0032955396
255	0xbc6f4b91	-0.014605419

model.2.bias f4 [100]
0	0xbc86be6f	-0.016448228
1	0x3d7a2541	0.061070684
2	0xbd0a029c	-0.033693895
3	0x3da29881	0.07939244
4	0x3eb8f5eb	0.3612512
5	0x3df65a88	0.12028986
6	0xbd69a4b0	-0.057041824
7	0xbe54093f	-0.20706652
8	0x3d4451fd	0.047929753
9	0x3f270fa1	0.6525822
10	0x3d1b1ca7	0.037869122
11	0xbe8c5d42	-0.274149
12	0xbd08b3ea	-0.033374704
13	0x3e4cdd22	0.2000623
14	0x3e613f6e	0.21996853
15	0x3e969365	0.29409328
16	0xbe352d48	-0.17693055
17	0xbe5608f0	-0.20901847
18	0x3e1c30ed	0.15253039
19	0x3d170001	0.036865238
20	0x3dda7b11	0.10668004
21	0xbdbbd47d	-0.09171388
22	0xbbe168ea	-0.006878962
23	0x3dd5ee81	0.10445882
24	0x3de3329c	0.11093637
25	0xbe620235	-0.22071154
26	0xbd283612	-0.04106719
27	0x3d42a456	0.047520004
28	0xbea0ca78	-0.3140447
29	0x3d2c6140	0.042084932
30	0x3e8e0c11	0.2774358
31	0x3ddf4344	0.10901502
32	0xbd760867	-0.060066607
33	0x3d339d0f	0.043850955
34	0xbe93261c	-0.28740013
35	0xbea53f08	-0.32274652
36	0xbf05de09	-0.52291924
37	0x3e0e5a87	0.13901721
38	0xbe614cae	-0.22001907
39	0x3ed91e6b	0.4240602
40	0x3e046d86	0.12932405
41	0xbe3988c9	-0.18118586
42	0x3e3e8ca1	0.18608333
43	0xbeb79233	-0.3585373
44	0xbd7be846	-0.06150081
45	0x3c2c1e52	0.010505276
46	0xbb02e414	-0.001997237
47	0x3f1f9506	0.62336767
48	0x3e69d5a5	0.22835405
49	0xbe00b698	-0.12569654
50	0xbd49857b	-0.049199563
51	0x3e10990e	0.14120886
52	0x3e6c6700	0.23086166
53	0x3e45da42	0.1932154
54	0xbd87c263	-0.06628873
55	0xbe9078f1	-0.2821727
56	0xbe07dc44	-0.13267618
57	0x3d308b6c	0.043101713
58	0x3e1468bc	0.14493078
59	0x3e9e215e	0.30884832
60	0xbdb9b39d	-0.09067462
61	0xbdcc581f	-0.09977745
62	0xbe63d656	-0.22249731
63	0xbec77f88	-0.38964486
64	0xbbae58cc	-0.005320644
65	0xbe974ff7	-0.29553196
66	0xbeaabe0a	-0.33348113
67	0xbd41cd95	-0.0473152
68	0xbe7f056e	-0.24904415
69	0x3e34e134	0.17664033
70	0x3ea6c96e	0.32575554
71	0xbe1214c5	-0.14265735
72	0x3ea8da27	0.32978937
73	0xbce798df	-0.028271137
74	0x3e54339c	0.20722812
75	0xbe651411	-0.22370936
76	0xbe3de85f	-0.18545674
77	0xbccb8a00	-0.024846077
78	0xbdf8336c	-0.12119183
79	0xbdd09d2b	-0.101862274
80	0x3e8724bd	0.26395217
81	0x3e97cc79	0.29648188
82	0x3e96fc7d	0.29489508
83	0xbe6c336f	-0.23066495
84	0x3e5c16d2	0.2149308
85	0x3e9d7d2e	0.30759567
86	0xbb5120ee	-0.0031910497
87	0xbe9ba9f1	-0.30403093
88	0x3e42a6cc	0.1900894
89	0x3da70c65	0.08156661
90	0x3c80746a	0.01568051
91	0xbcf08286	-0.029359113
92	0xbdefc642	-0.117077366
93	0x3e49a6b4	0.19692498
94	0xbd97dcdf	-0.07415175
95	0x3ef22c24	0.47299302
96	0x3e1d4636	0.15358815
97	0x3b9dc497	0.004814695
98	0xbeb029df	-0.34406945
99	0xbddb69c7	-0.10713535

model.4.weight f4 [1, 100]
0	0x3dc22425	0.0947955
1	0xbd59ec1a	-0.05320368
2	0x3d88900a	0.06668098
3	0x3d3eb7c6	0.04656198
4	0xbe0aac32	-0.1354225
5	0xbcae9389	-0.021310585
6	0x3f11b309	0.5691381
7	0x3edf8a90	0.43660402
8	0xbc26497f	-0.010149359
9	0x3ead3729	0.33831146
10	0xbdc33739	-0.09532017
11	0x3f1cb5c4	0.6121485
12	0xbf400b44	-0.7501719
13	0xbce0a324	-0.027421542
14	0xbd8bfff5	-0.06835929
15	0x3f42d77a	0.7611004
16	0xbd67a1de	-0.056550853
17	0x3e18d69e	0.1492562
18	0xbdf8d7a4	-0.12150505
19	0xbea5b255	-0.3236262
20	0x3f084371	0.5322791
21	0xbe8ab920	-0.27094364
22	0x3eec7a76	0.4618718
23	0x3d846b35	0.064657606
24	0x3f00a0da	0.5024544
25	0x3e2a0217	0.1660236
26	0x3ed09da5	0.40745273
27	0x3e166d18	0.14690053
28	0x3e109521	0.14119388
29	0x3e8c3df8	0.27391028
30	0xbdf4ce4f	-0.11953413
31	0xbee71e99	-0.45140532
32	0xbde17690	-0.11008942
33	0xbe6acb39	-0.22929086
34	0xbef7760b	-0.48332247
35	0x3e01b795	0.12667687
36	0x3e0c3b40	0.13694477
37	0xbd15cd40	-0.036572695
38	0x3f1d2d95	0.6139768
39	0x3ed2d01c	0.411744
40	0x3d255e5f	0.040373202
41	0x3e0e3d2c	0.13890523
42	0xbc997476	-0.01873229
43	0x3e02f2f7	0.12787996
44	0x3f2b4c2d	0.6691311
45	0x3e9778bb	0.29584298
46	0x3dd76892	0.10517992
47	0x3ec61250	0.38685846
48	0xbd354cff	-0.044262882
49	0x3cfc48bd	0.030796403
50	0xbd6b8737	-0.057501998
51	0x3d94ec03	0.07271578
52	0xbe04d826	-0.12973079
53	0xbef8f3ed	-0.486236
54	0xbdd56af8	-0.10420793
55	0x3f16a590	0.5884638
56	0x3c7d3460	0.015454382
57	0xbdf6e71b	-0.120557986
58	0xbcb57ab8	-0.022153243
59	0x3ecc5d9b	0.39915165
60	0xbf2de036	-0.67920244
61	0xbe51b1e6	-0.20478019
62	0x3ef2c330	0.4741454
63	0xbeb1e7c7	-0.34747145
64	0x3aaee01b	0.0013341935
65	0xbec03ace	-0.37544864
66	0x3dfd0114	0.12353721
67	0xbf0158dc	-0.50526214
68	0x3e1868eb	0.14883773
69	0xbdd79b15	-0.105276264
70	0x3f0e1690	0.5550318
71	0x3cbe585e	0.023235496
72	0x3eaf0a4c	0.34187543
73	0x3def45da	0.11683245
74	0xbe07b310	-0.132519
75	0xbeee44b0	-0.4653678
76	0xbcf19627	-0.029490544
77	0x3d847b94	0.06468883
78	0x3de2cc2a	0.110740975
79	0xbdf15f9d	-0.11785815
80	0xbe11e7e8	-0.14248621
81	0x3f00ec9b	0.5036103
82	0xbda2ebb1	-0.07955111
83	0x3b37b07f	0.0028028784
84	0x3ea44855	0.32086435
85	0xbe21c5ba	-0.15798083
86	0xbd9e246a	-0.07721789
87	0x3c0e2285	0.008675222
88	0xbcde46ed	-0.02713343
89	0x3e01dba3	0.12681441
90	0x3e50bb78	0.20384014
91	0xbaa5d338	-0.0012651449
92	0xbde6f66b	-0.11277469
93	0x3d33a614	0.043859556
94	0xbd4987a7	-0.049201634
95	0x3f10c744	0.56554055
96	0x3d8cac2c	0.06868777
97	0xbd33e18d	-0.043916274
98	0x3e0bb47e	0.13643071
99	0xbf21c4e1	-0.6319104
