03_reg/mlp_noiseinj.pth (torch, 43735 bytes, 5 tensors)

model.0.weight f4 [100, 1]
000000 82 c9 23 ba 59 79 c8 3f a2 81 97 bf 6d 5c c1 3f
       -0.00062479835 1.5662032 -1.1836436 1.5106331
000010 c4 48 78 3f 10 cb 4d be 9e 8b 9c 3f 9d 59 a9 bf
       0.9698603 -0.20096993 1.2230108 -1.3230473
000020 eb 40 55 3f e1 5a 8f 3c ea d3 9b be 20 65 1a 3f
       0.8330218 0.01749939 -0.30435115 0.60310555
000030 09 7e 98 3d a6 3d ba 3f 6a 09 4e 3f a3 24 49 bf
       0.07445914 1.4550064 0.80483115 -0.7857153
000040 18 24 b0 bf 36 d2 b1 bf 59 b1 0c 3f 91 bc 96 3e
       -1.3761015 -1.3892276 0.5495811 0.2944074
000050 84 0f c3 bf 2e 66 bc 3f 90 47 a8 3f 6b bd d5 3e
       -1.523911 1.4718683 1.3146839 0.41746077
000060 06 3c 6c bb 28 0e 82 bf 94 f2 9d bf 3a db 90 bf
       -0.003604652 -1.016057 -1.2339654 -1.1316903
000070 dd 5b ea 3e a4 ad 3d bd d9 11 ba bf fe 4a ec 3c
       0.4577321 -0.046308175 -1.4536697 0.028844353
000080 45 93 44 be 55 01 95 3f 49 8c 03 bd 3c c8 b8 bf
       -0.19196804 1.1641032 -0.03211621 -1.4436107
000090 e3 6f bb 3b e9 17 20 3f 90 c6 40 3f 87 5f 61 bf
       0.005720125 0.62536484 0.7530298 -0.8803639
0000a0 00 7e 8f bf d3 40 a9 bf cd 25 7e bf ed c2 b4 3f
       -1.1210327 -1.3222908 -0.9927643 1.4121987
0000b0 76 26 fb 3e 51 25 8b bf 26 bf 82 3f 44 2d 4b bf
       0.4905278 -1.0870763 1.0214584 -0.79365945
0000c0 57 10 8e 3f e1 09 a6 bf 18 6c 8a 3f 04 2e 94 3f
       1.1098737 -1.2971765 1.0814238 1.1576543
0000d0 0a 87 4c 3c 6a bd d3 be 45 b1 81 bf 7a 5e 2f 3f
       0.012483368 -0.4135545 -1.0132223 0.68503535
0000e0 9b 04 3a 3f df b4 d1 be 06 5e 76 bf 5c 91 85 be
       0.7266328 -0.40958306 -0.9623722 -0.26087463
0000f0 3d 91 ae bf 10 de 9e 3f 83 4b 90 bf d4 a8 27 3f
       -1.3638073 1.2411518 -1.1273044 0.65491986
000100 a9 a0 ba bf 79 69 22 3f 7c f8 99 3c c4 d3 34 bf
       -1.458028 0.6344219 0.018795244 -0.7063563
000110 36 e6 01 bf eb a4 27 bf 8a c4 af 3f 3c a8 4f 3f
       -0.507419 -0.6548602 1.3731854 0.8111608
000120 32 a0 13 3f f9 0a 57 bf 4f 2c 5f 3f 91 73 24 bc
       0.57666314 -0.8400112 0.87176985 -0.010037319
000130 17 15 c0 3e ac 54 b8 bf 61 8c 52 bf 94 bc ac 3f
       0.3751609 -1.440084 -0.8224545 1.349505
000140 e1 99 b2 bf 10 52 48 bf 1c 3b a4 bc 08 97 5f bd
       -1.395321 -0.7825022 -0.020047717 -0.054587394
000150 a2 d5 df be 19 91 af bf a5 10 ad be 9a fc 5e 3f
       -0.43717676 -1.3716155 -0.3380176 0.8710419
000160 6e b0 e5 be 9c 42 9e bf b1 64 ba 3f 5e 66 e0 bb
       -0.44861168 -1.2364078 1.4561979 -0.0068481406
000170 58 65 de bd 0c 99 a7 3f f0 ef 82 bf 88 44 59 bf
       -0.108591735 1.3093581 -1.0229473 -0.84870195
000180 51 58 ba 3f 96 a0 b1 3d 39 1a 67 3e 3d 2d 73 3d
       1.4558202 0.086732075 0.22568597 0.059369314

model.0.bias f4 [100]
000000 72 92 8a bc 8e 49 cb 3e 61 93 76 be 89 05 14 3f
       -0.016915534 0.39704555 -0.24079658 0.57820946
000010 41 87 5c be d5 8e 56 3d 30 bc 87 3d 64 55 8b be
       -0.2153597 0.05238231 0.06627691 -0.27213585
000020 0b 44 cb 3e 9b ad 33 3c e1 c6 08 3d c6 04 05 3b
       0.3970035 0.010966684 0.03339279 0.0020297035
000030 a6 93 a0 bd 8d 45 02 3f f9 d7 00 bf 7f 0f 93 3e
       -0.07840662 0.50887376 -0.5032955 0.2872276
000040 31 42 00 3f ad 42 69 3e 40 af fe 3d 9c 57 3b bd
       0.50101 0.22779341 0.1243577 -0.045737848
000050 b4 e2 f2 3e 8f fb 03 bf 9b dd 1c 3e e3 f9 23 3e
       0.47438586 -0.5155572 0.15318911 0.16013293
000060 37 0b 55 bb b5 e5 09 3e 30 28 a6 be a2 4d 98 be
       -0.0032507905 0.13466533 -0.32452536 -0.2974673
000070 15 23 6f be 99 c8 d1 ba 8b 21 c9 3e 61 26 eb 3b
       -0.23353226 -0.0016005217 0.39283404 0.007176206
000080 22 a2 70 3c 3c 36 80 be 18 aa 12 3c 70 87 9a be
       0.014687093 -0.25041378 0.008951686 -0.30181456
000090 62 94 77 3b 44 ee 0a 3e d4 dd 27 be bf cd 3e 3e
       0.0037777652 0.13567454 -0.16393214 0.18633173
0000a0 2c 0d 51 be 11 8d ce bd 39 7e 79 3e 4c ae 0f bf
       -0.20415181 -0.100855 0.24364556 -0.5612533
0000b0 c4 63 49 bd 0f e0 be 3d 42 da 9d be 3a a2 03 be
       -0.04916741 0.093200795 -0.3083058 -0.12854853
0000c0 55 ad 95 be 88 64 d6 3e e6 c2 9c 3e e6 61 1f 3d
       -0.29233804 0.41873574 0.30617446 0.038911723
0000d0 0a b8 89 3b eb 06 21 3d 1b aa 82 3e 12 b1 24 be
       0.0042028474 0.039313238 0.25520405 -0.16083172
0000e0 2b a5 94 bd 37 1a 91 bd 47 6c 73 3e 5f ba 20 bd
       -0.07258066 -0.07085078 0.23771773 -0.039240237
0000f0 84 23 bf bd ac e5 bb be ba f6 e2 be 23 f6 11 bd
       -0.09332946 -0.36698663 -0.44328862 -0.035635125
000100 c9 e4 f0 be 1d 38 56 bd f9 f0 f8 bb d9 1d be be
       -0.4704955 -0.052299608 -0.0075970856 -0.37132147
000110 bc be 12 3d 78 c6 d5 bd 13 1d d4 3e 95 01 8b 3e
       0.03582643 -0.104382455 0.41428432 0.27149644
000120 ba f9 a8 3e 93 4f 9f 3e 46 bf 79 be d7 d2 03 3b
       0.33003026 0.31115398 -0.24389371 0.0020114684
000130 28 2a 58 bd 32 22 d3 be 53 0a 1c 3e fe 44 4b 3e
       -0.05277458 -0.41237026 0.15238313 0.19850537
000140 28 23 0f 3f 07 37 21 be 18 aa 10 bc 7b fb 99 bd
       0.5591302 -0.15743648 -0.008829616 -0.07518669
000150 07 b0 69 be f6 77 d2 3e 82 04 af 3e 93 92 99 3e
       -0.22821055 0.41107148 0.34183127 0.2999464
000160 f2 01 87 bd cc 57 fc 3e 01 df 58 3e c0 89 ba bb
       -0.06592168 0.49285734 0.21178819 -0.0056926906
000170 5a e4 19 3c 0b 22 fa be 99 bd 88 bd b7 26 79 3e
       0.009392822 -0.48854098 -0.06676788 0.24331175
000180 82 84 7b 3e 3a 76 a6 3d f1 32 ee 3c 37 0b 16 bc
       0.24562266 0.08128019 0.029077025 -0.009157947

model.2.weight f4 [100, 100]
000000 7f ab 56 3d 6e f0 21 bd d0 e5 68 3d 0a c2 6c 3d
       0.052409645 -0.039535932 0.05685979 0.057802238
000010 77 67 c6 bd 52 b7 4b 3c 37 06 aa 3d 0f cd 0c bc
       -0.09687703 0.012433844 0.08301967 -0.008593812
000020 ee 08 cb bb 18 7e 13 bd 10 1c d2 bd ec aa ae 3d
       -0.006196133 -0.036008924 -0.10259259 0.085286945
000030 89 92 c4 bc 67 97 84 bd 23 71 42 3d 22 ee a4 bd
       -0.023995655 -0.0647419 0.047471177 -0.08053233
000040 7c 97 a6 3c 26 96 39 3d ef 19 1f bd 56 44 00 3d
       0.020335905 0.04530921 -0.03884309 0.03131517
000050 ff 1b 9e 3d 32 7d 5b bc 15 c3 be bd 67 ce 6b 3c
       0.077201836 -0.013396548 -0.09314553 0.014392472
000060 a2 7d ae bd 3d 84 5c 3d b0 84 ab bd dc 39 3f bd
       -0.08520056 0.05383705 -0.083749175 -0.04668604
000070 eb 3c 9e bd 6c 5d 05 3d d5 5e 03 bd d9 ce 66 3d
       -0.07726463 0.032559797 -0.03207286 0.05634961
000080 e2 77 51 3c 38 a3 bb 3d 01 68 8e 3d 7e 67 1c 3c
       0.01278493 0.09161991 0.06953431 0.009546159
000090 d3 38 29 3d ea ff 8f 3d 1c 12 c0 3d 28 ab 26 3d
       0.041313957 0.070312336 0.09378454 0.04069057
0000a0 86 b2 87 bd 3c df f7 3c 84 a4 28 3b d8 72 9c 3d
       -0.066258475 0.030257814 0.0025732825 0.07639092
0000b0 17 ab 9a bd 12 3b d5 3c 42 fc e0 3c b4 0e c6 3d
       -0.07552164 0.026029143 0.027464036 0.09670773
0000c0 eb b1 55 3d 48 2b b5 3d 56 8a 9e 3d 00 51 b1 bd
       0.05217163 0.08846146 0.07741229 -0.08658028
0000d0 e5 7a 2f 3d c2 26 d0 bd a2 fe 9b 3d ff 1a 4c bd
       0.04284181 -0.101636425 0.07616927 -0.049830433
0000e0 32 2c 22 bd 8f ef c3 3d 19 2a 31 3d 7e eb 5e bd
       -0.03959293 0.095671766 0.043253038 -0.0544238
0000f0 29 b0 3d bd 79 26 b5 3a 7b 84 9a bd 83 7a 57 3d
       -0.046310578 0.001382067 -0.075448 0.05260707
000100 b0 39 3a bd 2d c1 a1 3d ba 5e 25 3c c3 57 73 3d
       -0.04546517 0.078981735 0.010093385 0.059409868
000110 ef c1 14 3c b3 4f ae 3d a3 2e 91 bc 8c 50 41 bd
       0.0090794405 0.08511295 -0.017722433 -0.047195956
000120 55 6d eb bb 80 84 2d 3c 0e 28 c7 3d d0 b7 c0 3d
       -0.0071846643 0.0105906725 0.09724437 0.094100595
000130 db 40 e9 3a fc 8a 97 3d bd 02 33 bd 27 91 76 3b
       0.0017795818 0.07399556 -0.043703783 0.0037623139
000140 61 6f 29 bd c6 1b 90 3d 00 25 16 bd 08 ab f5 b9
       -0.041365985 0.07036547 -0.03665638 -0.0004685747
000150 c3 5d 9a bd bd 2b 97 3c a6 15 32 bc 9f 2a c1 3d
       -0.07537415 0.018453473 -0.010869419 0.094319575
000160 90 28 a4 bc 85 82 83 3d 46 b7 4b 3d 84 2b 72 3d
       -0.020038873 0.06421379 0.04973533 0.05912353
000170 8b 1b 8f 3b 87 73 f4 bc 4e e4 83 3d ef 94 a4 3c
       0.004367297 -0.029840244 0.0644003 0.020090548
000180 d1 fa a4 3c eb 5e b8 3d a0 8a 99 bc 84 4c 28 bd
       0.02013913 0.09002479 -0.01874286 -0.041088596
000190 6b 02 58 bd 16 d0 92 3c fd 29 5a bc cc 8a 94 bd
       -0.05273668 0.017921489 -0.013315675 -0.07253036
0001a0 c1 a5 af bd 49 8a fe bc 88 98 0a bd 2d 36 64 bc
       -0.08576537 -0.031071799 -0.03383687 -0.013928932
0001b0 68 11 05 3c f9 80 80 bc f3 11 4a 3b b6 49 0f bc
       0.008121826 -0.015686499 0.0030833452 -0.008745601
0001c0 85 b8 83 bb 2c 3f 95 bd a8 29 a0 bd 14 e9 1f bc
       -0.004019799 -0.0728744 -0.07820445 -0.00976016
0001d0 78 1e 90 3d 1d 8c 8e ba 17 a5 72 3d ef d7 96 3c
       0.070370615 -0.0010875497 0.059239473 0.018413512
0001e0 23 f9 97 bd d3 17 ec bc 9a b1 9d bc a7 a8 26 3d
       -0.07420566 -0.028819954 -0.019249726 0.040688183
0001f0 dd f8 9e 3d 42 17 6a 3d 0b e2 13 bd dd 03 13 bd
       0.07762311 0.057151087 -0.036104243 -0.035892356
000200 e7 91 98 3c aa a6 11 3d 54 88 93 3c 13 4d 9a 3d
       0.01862426 0.035559334 0.018009342 0.07534232
000210 0d f1 1c bd 86 59 a5 bd 52 02 2b 3b 67 ca d3 bb
       -0.03831582 -0.08073716 0.0026093912 -0.006463337
000220 d9 d9 79 3d c8 97 02 3d 13 6e 67 3d fa 90 ae 3d
       0.06099877 0.03188303 0.05650146 0.08523746
000230 65 8c 8e bc a2 dc 86 3d 9c f8 03 3d 14 2f a7 3d
       -0.01740093 0.06585051 0.032219514 0.08163276
000240 03 b6 7c bd f3 67 83 bd 06 74 80 3d 8f 7b 51 bd
       -0.061697017 -0.06416311 0.0627213 -0.051143225
000250 84 d3 64 3c 4b ac 2b bd cf de b0 bd 53 0d ba 3d
       0.013966445 -0.04191236 -0.08636247 0.09084573
000260 be f3 40 bc 59 f7 74 3d 12 d0 a8 bd fa 58 27 3d
       -0.011776863 0.0598062 -0.08242811 0.04085634
000270 80 57 3e bd d3 b7 ab 3d c6 9a 3d bd cd 8c 42 3d
       -0.046470165 0.08384671 -0.04629018 0.04749756
000280 8b 30 98 bc 89 46 0f bd a7 95 ca bb 24 b7 11 bd
       -0.018577835 -0.034979377 -0.0061823907 -0.035575047
000290 9b d5 2d bc 27 2c 16 3c 11 cf ae bc cb 73 d3 3c
       -0.01061001 0.0091658 -0.021338971 0.02581205
0002a0 4f 5a 0c bd c5 b4 b5 3d f0 13 66 bd d7 ef 5d bd
       -0.034265812 0.0887237 -0.056171358 -0.054183807
0002b0 da c4 d6 3c 1e 88 8a 3d 41 c6 e6 ba 1c 1c 2b bc
       0.026216913 0.067642435 -0.0017606692 -0.0104437135
0002c0 14 9f ad 3d 30 2c 9d bd de 73 05 bd 4d 69 ea 3d
       0.08477607 -0.07674444 -0.032581203 0.11445866
0002d0 3e ea 99 3c b8 55 0a bd 8c 20 9e 3c 0e bf 67 bd
       0.018788453 -0.033773154 0.019302629 -0.05657869
0002e0 20 be f5 3c a9 18 8c 3d 3b 54 79 3c 55 a0 ae bd
       0.029997885 0.06840641 0.015217836 -0.08526675
0002f0 e2 9e 4d 3d df 07 0a 3d 1c 15 98 bb 8b a4 2a 3d
       0.05020035 0.033698913 -0.0046411883 0.041660827
000300 95 d4 0a bd 3b 74 73 3b 30 7b a8 bc 33 06 8a 3c
       -0.03389414 0.0037148136 -0.020566553 0.01684866
000310 60 d9 a9 3d 42 8c 4e 3d 4c 2f 90 bc 8d e9 b1 bd
       0.08293414 0.05042673 -0.017600678 -0.086871244
000320 a1 66 22 ba 55 9c 3c 3d 21 c8 b8 3d 6b a7 b3 3d
       -0.00061951025 0.046047527 0.090225466 0.08772167
000330 de 77 62 bd 87 f4 67 3d 1b 9b d9 bc c8 cb 00 3d
       -0.055290096 0.056629684 -0.026563218 0.03144434
000340 44 a4 df 3c 82 93 aa 3d 88 4b 00 bd 33 43 b8 bd
       0.027300008 0.08328916 -0.031322032 -0.08997192
000350 74 ae 92 bd 79 e4 7b 3d 38 73 9e 3d eb 4c a2 3c
       -0.071621805 0.061497185 0.0773682 0.019812068
000360 85 4d a0 bd 98 de 8e 3d ba ad 9f 3c b6 7d b0 bd
       -0.07827286 0.0697605 0.019492019 -0.086177275
000370 f9 04 80 3d de b2 d1 bd da 4a da 3c a4 b5 cc bd
       0.062509485 -0.10239194 0.02664702 -0.09995583
000380 42 2c 40 bc 03 bd bd bd d2 32 8c 3d 08 82 af bd
       -0.011729302 -0.09264567 0.06845631 -0.08569723
000390 0f 45 03 bd eb 87 0b bd 2e e7 93 3d c3 cd 31 3d
       -0.03204828 -0.03406517 0.072218284 0.04340912
0003a0 94 62 a1 3d c6 11 59 3d 3a a3 29 3b 67 d2 72 3d
       0.078801304 0.052995466 0.0025884644 0.059282687
0003b0 19 ba 43 bd 1f 0d 8e bd 51 61 98 bd 10 47 bb bd
       -0.0477849 -0.069360964 -0.07440437 -0.091444135
0003c0 b7 29 be 3c f5 2e a6 bc dc 5e a2 3d e5 97 93 bc
       0.02321325 -0.020286063 0.07928249 -0.018016765
0003d0 fd 9c 84 bc 26 43 16 bd eb 6d 7b 3d 76 c2 86 3c
       -0.01618814 -0.03668513 0.061384123 0.016450148
0003e0 72 de 95 bd f1 9a d4 3d 12 cb 0f bd 66 1e b6 3c
       -0.07317819 0.10381115 -0.035105772 0.022231292
0003f0 d0 f6 10 bc 19 fa 3f 3d 64 94 b7 3d bf be 93 bd
       -0.008847907 0.04686937 0.0896385 -0.07214116

model.2.bias f4 [100]
000000 1e 39 b6 bd 2d 74 e2 bc 50 7b 51 bd 2b df 04 be
       -0.08897613 -0.027643288 -0.05114299 -0.12975757
000010 a3 8f 63 bd da 7f 87 3d 93 13 cc bc 5f 84 d8 3c
       -0.055556905 0.066161826 -0.024911677 0.026430307
000020 46 4e 84 3d 55 df 2b bd ef 0f 9c bd 0e 2c c1 3d
       0.06460242 -0.041961033 -0.076202266 0.09432231
000030 7a 99 6d 3c 10 01 9d 3d 1a a4 7a 3e 3d 87 de 3d
       0.014501924 0.07666218 0.24476662 0.108656384
000040 3d 4b 44 3d 92 92 90 be 49 2a 6f be e3 8f 21 bd
       0.047923315 -0.28236824 -0.23355974 -0.03944386
000050 a9 e1 80 3e fa 68 c2 bd a0 d4 cb be 72 e2 f1 bc
       0.25172165 -0.09492679 -0.39810658 -0.029526923
000060 ce 69 15 3e bb e9 82 bc e3 92 24 3c 47 d9 d2 3c
       0.14591143 -0.015980592 0.010044786 0.025738372
000070 c8 16 8f 3d 71 c6 44 3d 1d 4f a5 3c 9a 74 ae bd
       0.06986767 0.04804081 0.020179326 -0.08518334
000080 6b b8 b2 3c 55 e5 72 be aa 75 25 3d 2e cc 83 bd
       0.021816453 -0.23720296 0.040395416 -0.064354286
000090 12 5e a8 be 06 89 10 ba bb d1 ef 3a 14 a4 d7 3b
       -0.3288427 -0.0005513582 0.0018296757 0.006580839
0000a0 3a 89 9e 3e d8 a3 9e 3b e1 8a bd 3c b6 cc f3 bb
       0.3096407 0.004841309 0.023137512 -0.007440175
0000b0 bc 68 7b 3c 06 c5 91 3e a9 15 c3 be 03 8d 94 3d
       0.015344795 0.2847063 -0.38102463 0.07253458
0000c0 be 56 7d bd 15 2f 6b bc df 9a c6 bd 1d ed 44 bd
       -0.061850302 -0.014354487 -0.09697508 -0.04807769
0000d0 e8 ba cf bd 7f 94 e2 bc 31 14 2f be 2d db 8f bd
       -0.101430714 -0.0276587 -0.17097546 -0.07024226
0000e0 ab b2 84 be c1 e8 7e 3d 8c 6e b2 be b7 d6 b2 3d
       -0.25917563 0.06223369 -0.34849966 0.0873236
0000f0 39 b6 f0 bc 62 d5 96 bc 5f b3 65 be 35 c2 3d bd
       -0.029383766 -0.018412296 -0.22431706 -0.04632779
000100 44 f5 36 3c 42 40 49 bd 67 c9 73 bd aa a1 ce b9
       0.011166874 -0.049133547 -0.059518244 -0.0003941183
000110 2c 55 ed 3d cd b3 8b 3c 0e 90 d0 be 66 b3 95 3d
       0.11588511 0.01705351 -0.40734905 0.07309608
000120 c7 ea 86 3d f9 06 26 bd 61 ed e7 bc 02 bd 74 bd
       0.06587749 -0.040533993 -0.028311433 -0.059750564
000130 e2 91 8a 3d 7f c9 89 3a 32 3f 9c ba 42 66 ad bd
       0.06766106 0.0010512321 -0.0011920689 -0.0846677
000140 2b 63 2b 3b 72 ff ac 3d 65 5b 3b be 08 da a8 3d
       0.0026151638 0.0844716 -0.18296583 0.08244711
000150 9f 17 1e 3d d9 fc ad 3d a9 d5 88 bd 5a 14 a1 3d
       0.038596746 0.084954925 -0.066813774 0.0786521
000160 e2 67 27 3d 6e 55 a2 3c c4 82 d0 3d 74 c5 53 bd
       0.040870555 0.019816127 0.101811916 -0.051701978
000170 1c 06 8a bd 56 fe 3c 3e 33 10 20 be c6 e0 2f 3d
       -0.067394465 0.18456396 -0.1563118 0.04293897
000180 2d 3b 57 3d bd dd 1b 3e e6 62 4b 3e 62 5d c5 3b
       0.05254667 0.15221305 0.19861946 0.006023095

model.4.weight f4 [1, 100]
000000 7c 54 12 3b c3 ea 08 bb ef 73 10 bb 53 da 98 bd
       0.0022328189 -0.0020891882 -0.0022041758 -0.07463517
000010 7e a3 08 ba ac c6 dd 3a f1 34 4b 39 03 79 c7 3a
       -0.00052123505 0.0016920171 0.00019379311 0.001521856
000020 16 cf bf 3d b6 4e 31 3a 85 22 e5 ba ae 91 8e 3a
       0.093656704 0.0006763743 -0.0017481601 0.0010877156
000030 a0 7d ae 39 92 dc c2 3d bd 73 d1 3d 57 a6 94 3d
       0.00033281464 0.09514727 0.102271535 0.07258289
000040 e5 22 29 3b 42 63 f0 3d fc 30 ed bd 39 c1 2f b8
       0.0025808152 0.11737682 -0.11581609 -4.1903204e-05
000050 ee d5 02 be e1 75 d6 bb be 6e 42 be 9e d3 8e 3b
       -0.1277692 -0.006544814 -0.18987557 0.004358723
000060 a2 7f 75 3d 64 15 46 3a 37 e4 14 ba e2 c6 30 bb
       0.059936173 0.0007556288 -0.00056797586 -0.0026974012
000070 6d b8 13 ba 78 0b b0 bb 4c 2a ad 3a e3 bb a8 3b
       -0.00056350866 -0.005372461 0.0013211458 0.005149351
000080 b3 06 c1 3d 19 02 b0 3d cd bb 36 3b 41 4c 14 3b
       0.09425106 0.0859415 0.0027882934 0.0022628459
000090 79 c0 9f 3d f0 b9 21 3b 68 78 e1 39 27 c2 44 3c
       0.07800383 0.0024677478 0.00043005054 0.01200918
0000a0 52 33 3c 3e 33 50 83 b8 77 9b ab 3a 98 8f cd bb
       0.18378952 -6.261505e-05 0.0013092597 -0.006273221
0000b0 94 2e 55 b8 b4 50 60 3d ac db 14 be cc 48 e0 39
       -5.0826537e-05 0.054764464 -0.14536923 0.00042778847
0000c0 34 fe 4b b9 2f ac 97 39 fa ae 44 3b ef 14 55 bb
       -0.00019454287 0.0002892925 0.003001152 -0.0032513698
0000d0 59 31 a8 3a 68 10 61 ba 5d 2d c5 bd cf 2c 04 3b
       0.001283209 -0.00085855136 -0.09627793 0.002016831
0000e0 7f 86 15 3e c9 0b 62 3c 16 39 09 3e be dc d8 39
       0.14602087 0.013796755 0.13400683 0.00041363196
0000f0 ca e4 d5 ba 3c 09 44 3a 03 ff eb 3d 0f 59 87 ba
       -0.0016318795 0.00074781827 0.11523249 -0.0010326224
000100 7f 6b a0 3a ae 47 69 b9 8f 63 f5 3a 36 80 0d ba
       0.0012239068 -0.00022247314 0.0018721687 -0.0005397828
000110 a2 84 0c 3e c9 72 dc 39 82 6c 2b be a3 22 25 ba
       0.1372247 0.00042047192 -0.16740611 -0.0006299412
000120 9c ca da 39 c5 67 a5 ba fd d3 21 3a 81 c8 f6 bd
       0.00041731156 -0.0012619427 0.00061732513 -0.12049962
000130 41 41 c3 3a 65 0c 52 3b f2 2f 4b 3a 1f 54 5e 3a
       0.0014896767 0.0032050845 0.000775098 0.0008481163
000140 8f 28 d2 b9 da a2 d3 ba 6e d2 15 3d f4 53 dd ba
       -0.0004008454 -0.0016146556 0.036577635 -0.0016885982
000150 42 86 85 3a 44 c5 c8 3b 08 ff 70 3a e6 e3 01 3b
       0.0010187107 0.0061270315 0.0009193276 0.0019819676
000160 ab 65 da 39 1a f3 d0 b8 60 25 29 3d c1 31 30 ba
       0.0004165595 -9.963494e-05 0.04129541 -0.0006721281
000170 38 62 b7 ba 9a 61 11 3d 4d bb 3b bd f4 b0 8e 39
       -0.0013991063 0.03549347 -0.04583292 0.0002721619
000180 ee fd 99 3b ea cb 6d 3d 0d 9a 5d 3d 8e 7b 8a ba
       0.00469946 0.058055796 0.054101992 -0.0010565387
