03_reg/mlp_wd.pth (torch, 43735 bytes, 5 tensors)

model.0.weight f4 [100, 1]
0	0xbc8eaeb3	-0.017417287
1	0xbc3e64a2	-0.011620672
2	0xbeb62bfa	-0.35580426
3	0x3d811f26	0.06304769
4	0x3e975167	0.29554293
5	0x3b4e5fa6	0.0031490116
6	0x3b56ed57	0.0032795274
7	0x3d1a5a20	0.037683606
8	0xbc8574d3	-0.016291058
9	0xbd0f3f01	-0.034972195
10	0x3ef84e9b	0.4849747
11	0xbf195517	-0.5989546
12	0xbcc7bb1a	-0.02438121
13	0x3dba253a	0.09089132
14	0x3acd0b6b	0.0015643662
15	0x3d0a547e	0.033771984
16	0xba18a258	-0.0005822531
17	0xbe1cd6eb	-0.1531636
18	0xbe00c6fa	-0.12575904
19	0x3e889e6d	0.2668337
20	0x3f059302	0.5217744
21	0xbd3e92bf	-0.046526667
22	0x3ad3eab4	0.001616797
23	0xbc2b5815	-0.010458012
24	0xbd2c4882	-0.042061336
25	0xbca6ddf9	-0.020369517
26	0x3d92e0c8	0.0717178
27	0xbd71803f	-0.058960196
28	0xbc6501b7	-0.01397746
29	0xbed018f2	-0.40644032
30	0x3ed954ca	0.424475
31	0xb3fc4708	-1.1747585e-07
32	0xbd7013c5	-0.058612604
33	0x3d982955	0.074297585
34	0xbe273bd7	-0.16331421
35	0x3c7f6cc0	0.015589893
36	0x3c7ee8f9	0.015558475
37	0xbe02a7f6	-0.12759385
38	0xbd014439	-0.031559203
39	0xbd83f095	-0.06442372
40	0x3f196fe7	0.59936374
41	0x35dd3b8a	1.6483111e-06
42	0xbdbd621b	-0.09247228
43	0xba0b47a3	-0.0005313104
44	0x3f2736ce	0.65318
45	0x3c949420	0.018137038
46	0xbd72bb2c	-0.059260532
47	0xbf1e77b3	-0.61901397
48	0xbcb95860	-0.022625148
49	0x3ec5237e	0.3850364
50	0xbe56c6d6	-0.20974287
51	0xbd468789	-0.0484691
52	0xbb901224	-0.004396694
53	0xbca89b81	-0.020581963
54	0xbd5439c0	-0.051812887
55	0x3efcf633	0.49406585
56	0x3b39225e	0.0028249244
57	0x3ac69112	0.0015149435
58	0x3ea4e9fe	0.32209772
59	0xbd5720e4	-0.0525216
60	0x3cff7b0c	0.031186603
61	0x3cd35866	0.025798988
62	0xbbe59ffe	-0.007007598
63	0x3ede9ed7	0.4348056
64	0xbcbf1fc9	-0.023330586
65	0xbe9936e4	-0.2992469
66	0xbab21ab6	-0.0013588283
67	0xbe03761e	-0.12838027
68	0xbe26548b	-0.16243188
69	0xbefc9f48	-0.49340272
70	0x3c6a521c	0.014301803
71	0xbe66a6c0	-0.22524548
72	0xbc6081a3	-0.013702783
73	0xbf2ac08d	-0.6670006
74	0xbf2942f5	-0.66117793
75	0xbf1bd044	-0.60864663
76	0x3ed200eb	0.41016325
77	0xbcfda1f6	-0.030961018
78	0x3de99aca	0.11406477
79	0x3ae583ca	0.001751059
80	0xbee2d594	-0.44303572
81	0xbf30e3b4	-0.6909745
82	0x3ebed44e	0.3727135
83	0x3ef96ee0	0.48717403
84	0x3f0f8342	0.5605966
85	0x3db46c3a	0.08809705
86	0xbf08d0f7	-0.53443855
87	0x3f22ef1e	0.63646114
88	0x3e98458a	0.29740554
89	0xbef19092	-0.4718061
90	0xbd41982f	-0.047264274
91	0x3c8ca1ce	0.017166998
92	0xbb5ab6bb	-0.0033373076
93	0x3e789809	0.24276747
94	0x3e53ab24	0.20670754
95	0x3e71854b	0.23586003
96	0xbf0ea8e9	-0.55726486
97	0x3c9b5fe6	0.018966626
98	0xbe66c07f	-0.22534369
99	0x3f10c4f9	0.56550556

model.0.bias f4 [100]
0	0xb98b29db	-0.0002654333
1	0x3944205a	0.00018704068
2	0xbc99974f	-0.018748907
3	0xbda0e42e	-0.07856022
4	0x3d278c7e	0.04090547
5	0x3c0968c0	0.008386791
6	0xbbd1b059	-0.006399196
7	0x3db4ca22	0.08827616
8	0x3e433566	0.19063339
9	0x3d9a2f63	0.075285695
10	0x3c730cf6	0.014834633
11	0xbcdb2c9c	-0.02675467
12	0xbdb132fb	-0.08652302
13	0x3d7a9617	0.061178293
14	0x38c10cf2	9.2053684e-05
15	0x3b0d8026	0.0021591275
16	0x3c5172c7	0.012783713
17	0xbd8dce59	-0.06924123
18	0xbda82d7a	-0.08211799
19	0x397284e0	0.00023128418
20	0x3c9221af	0.017838327
21	0xbd736365	-0.059420962
22	0x3910762c	0.00013776933
23	0x3d904330	0.07044065
24	0x3d8cdf7b	0.06878563
25	0xbd3bd740	-0.045859575
26	0x3e2e15cc	0.17000502
27	0x3caabed4	0.020842947
28	0x3d92566b	0.07145389
29	0xbd448e8f	-0.047987517
30	0x3ab9fe0a	0.001419009
31	0x34a147b2	3.0040752e-07
32	0x3c273a35	0.010206749
33	0x3e076f26	0.13225994
34	0xbdac4708	-0.08411986
35	0xbe43500b	-0.19073503
36	0x3d238763	0.039924037
37	0xbe057a4b	-0.13034932
38	0xbd01c184	-0.03167869
39	0x3dd2fec8	0.10302502
40	0x3cc564cd	0.024095917
41	0xb532b24a	-6.656961e-07
42	0xbc62f591	-0.013852493
43	0x3c0aa743	0.00846273
44	0x3cf45e07	0.029829992
45	0xba2df6a4	-0.00066361786
46	0xbd7bb49e	-0.061451547
47	0xbce2ed28	-0.027700976
48	0xbc2881ae	-0.010284824
49	0x3bffec3b	0.0078101433
50	0xbcf4ae6d	-0.029868329
51	0x3e34f0cf	0.17669986
52	0xb98618bc	-0.000255769
53	0x3bf36b06	0.0074285297
54	0x3dd08a74	0.10182658
55	0x3ce5a810	0.02803424
56	0xbad4acce	-0.0016225816
57	0x3e08edec	0.1337201
58	0x3d1ac064	0.037781134
59	0x3d8f28f4	0.06990233
60	0xbdf9cf4a	-0.121977404
61	0xbdd0274d	-0.10163746
62	0x3a611389	0.000858598
63	0x3c19b023	0.009380373
64	0x3e073ae2	0.13206056
65	0x3c277413	0.010220545
66	0xbb8a961a	-0.0042293193
67	0x3d506041	0.050873045
68	0x3c608712	0.013704078
69	0xbca28cbf	-0.019842504
70	0xbc2db200	-0.010601521
71	0xbd7a3cff	-0.061093327
72	0xbd450576	-0.04810091
73	0xbd00882a	-0.031379856
74	0xbd009d88	-0.031400234
75	0xbcceae28	-0.025229529
76	0x3c0d75b0	0.008634016
77	0x3ac98e27	0.0015377448
78	0x3ad24e94	0.0016045147
79	0x3e1df24d	0.15424462
80	0xbc3315a9	-0.010930457
81	0xbd07a40c	-0.03311543
82	0x3c9161bb	0.017746797
83	0x3cba71aa	0.022759277
84	0x3cc61ef6	0.024184685
85	0x3dac8246	0.08423285
86	0xbce3a6cf	-0.027789501
87	0x3cf21f94	0.029556073
88	0x3cfec0ba	0.031097759
89	0xbcef9daa	-0.029249985
90	0xbdc26caa	-0.09493382
91	0xbdf9b7b8	-0.12193245
92	0x395752dc	0.00020534865
93	0x3ca0ee4b	0.019644877
94	0x3ced83e8	0.028993562
95	0x3c9a4778	0.018832907
96	0xbcbb8359	-0.02288978
97	0x3ddc8071	0.10766686
98	0xbcc5bd9e	-0.024138268
99	0x3cbb8d95	0.02289466

model.2.weight f4 [100, 100]
0	0xb425e014	-1.5448342e-07
1	0x3695fdcc	4.470092e-06
2	0xb9231f5c	-0.00015556574
3	0xb99a2e94	-0.00029407872
4	0x395a0ba2	0.00020794434
5	0x38ff0a13	0.00012161224
6	0xb8e647ae	-0.00010980606
7	0x39c282bd	0.0003709997
8	0x3a262540	0.0006337948
9	0x39a712cb	0.00031866724
10	0x39442ad0	0.00018707966
11	0xb98a2886	-0.00026351603
12	0xb9c3a5cf	-0.00037316835
13	0x39883559	0.00025979689
14	0xb59c2dbf	-1.163622e-06
15	0x37e3747f	2.7114756e-05
16	0x392fa80d	0.00016751904
17	0xb991f4f7	-0.00027839068
18	0xb9a69a4a	-0.00031776942
19	0x387f8eff	6.0929913e-05
20	0x3945d84e	0.00018867964
21	0xb98f5510	-0.00027338462
22	0xb561cff4	-8.4121643e-07
23	0x39b5fc1f	0.00034710855
24	0x39994ee2	0.00029241206
25	0xb98af2f9	-0.0002650244
26	0x3a15b965	0.0005711525
27	0x38d4eadf	0.00010152696
28	0x39b41e7d	0.0003435499
29	0xb9881145	-0.00025952808
30	0x3906e2f6	0.00012863785
31	0xb08a6585	-1.0069675e-09
32	0x3862b2fd	5.4049295e-05
33	0x39f599c7	0.00046844615
34	0xb9a985dc	-0.00032333925
35	0xba22fc49	-0.0006217403
36	0x39825bbc	0.0002486388
37	0xb9eebef1	-0.0004553716
38	0xb942d8ff	-0.00018582119
39	0x39c012f4	0.00036635215
40	0x3985b4be	0.000255024
41	0x2fe91fbb	4.2405e-10
42	0xb8b1909f	-8.4669555e-05
43	0x391c380d	0.000148982
44	0x3994ee8a	0.00028406485
45	0xb723faeb	-9.7739785e-06
46	0xb99036a3	-0.00027506528
47	0xb98d27c7	-0.00026923252
48	0xb8cc3dc2	-9.738981e-05
49	0x390a5fed	0.0001319644
50	0xb922081d	-0.00015452546
51	0x3a15f331	0.0005720137
52	0x3615f5f5	2.2345896e-06
53	0x38aa1aba	8.11121e-05
54	0x39c30a6e	0.0003720107
55	0x396b67b3	0.00022449977
56	0xb7b8e55e	-2.2041317e-05
57	0x3a02594e	0.0004972414
58	0x3956b9e8	0.00020477886
59	0x3994f5a4	0.00028411776
60	0xb9ef3c5d	-0.00045630606
61	0xb9d37724	-0.00040333823
62	0x3890ed94	6.9107075e-05
63	0x39241348	0.00015647442
64	0x39ff1bb2	0.00048658025
65	0xb85a60da	-5.206545e-05
66	0xb8ea0bab	-0.00011160163
67	0x3929b18c	0.00016183237
68	0x378b03d8	1.6571881e-05
69	0xb95a2c86	-0.00020806686
70	0xb8d18817	-9.991245e-05
71	0xb988169a	-0.0002595678
72	0xb9923b74	-0.00027891586
73	0xb997d404	-0.00028958928
74	0xb99a0c47	-0.00029382316
75	0xb98a20e0	-0.00026345905
76	0x39163844	0.00014326075
77	0x376de22a	1.4178959e-05
78	0x37cfd4b2	2.4775367e-05
79	0x3a135302	0.0005619974
80	0xb92c3392	-0.0001642241
81	0xb9a044df	-0.0003056889
82	0x39256cf6	0.00015776217
83	0x395b036c	0.00020886742
84	0x397fa868	0.00024381431
85	0x39acf974	0.00032992254
86	0xb976ab65	-0.00023524238
87	0x39942b34	0.0002826095
88	0x393d207b	0.00018036544
89	0xb9674ce8	-0.00022058527
90	0xb9ca73b3	-0.00038614645
91	0xb9f221d1	-0.00046183032
92	0xb7f13f79	-2.8758996e-05
93	0x3904ff3c	0.00012683583
94	0x391f82f7	0.0001521221
95	0x3901154d	0.00012310334
96	0xb966c3dd	-0.00022007474
97	0x39e42259	0.0004351314
98	0xb90ff376	-0.00013728239
99	0x396b8892	0.00022462223
100	0xb820fb2e	-3.8380902e-05
101	0xb9030be8	-0.00012497569
102	0x3b24842b	0.0025103192
103	0x3bb0ea2f	0.0053990106
104	0xbb5b4f50	-0.0033464022
105	0xbb13b07b	-0.002253561
106	0x3b06d026	0.0020570843
107	0xbbd30607	-0.0064399275
108	0xbc2c485c	-0.010515299
109	0xbbbebe1c	-0.0058210026
110	0xbb412b51	-0.0029475281
111	0x3b827abf	0.0039819176
112	0x3bd85a1a	0.006602538
113	0xbb906e09	-0.0044076485
114	0x37a8cd6d	2.012282e-05
115	0xb9c89a8c	-0.0003826212
116	0xbb4cd89c	-0.003125704
117	0x3b95be3c	0.004569797
118	0x3bad8901	0.005295873
119	0xba8de3c7	-0.0010825329
120	0xbb566997	-0.0032716745
121	0x3b9d9625	0.0048091584
122	0x37825952	1.55388e-05
123	0xbbd0eb12	-0.006375679
124	0xbbb0bac0	-0.005393356
125	0x3b9df8dc	0.004820926
126	0xbc1a0b5f	-0.009402125
127	0xbb06aebb	-0.0020550925
128	0xbbced140	-0.0063115656
129	0x3b84d2a3	0.00405343
130	0xbb04bdcc	-0.002025473
131	0x3163888a	3.311046e-09
132	0xba9e00bf	-0.0012054666
133	0xbbff7929	-0.007796426
134	0x3bad5d5e	0.0052906713
135	0x3c25a987	0.010111219
136	0xbb94ffbc	-0.0045470875
137	0x3bf597bc	0.007494895
138	0x3b59f7a2	0.0033259173
139	0xbbd5665e	-0.0065124473
140	0xbb7ea566	-0.003885591
141	0xb0c7afb0	-1.4529089e-09
142	0x3aae4d46	0.0013298176
143	0xbb352870	-0.002764251
144	0xbb8e4bcf	-0.004342533
145	0x39824e04	0.00024853658
146	0x3b9c8fd9	0.00477789
147	0x3b86a98e	0.004109568
148	0x3ae04a0c	0.0017111911
149	0xbb09d414	-0.002103095
150	0x3b27b150	0.0025587864
151	0xbc1e1be2	-0.0096502025
152	0xb82053e8	-3.8225116e-05
153	0xbacf46c3	-0.0015813935
154	0xbbda8269	-0.006668378
155	0xbb68600a	-0.0035457634
156	0x39da741b	0.00041666706
157	0xbc0cad3b	-0.008586223
158	0xbb568d20	-0.0032737926
159	0xbbaa750a	-0.0052019404
160	0x3c02a66d	0.007974249
161	0x3becaabb	0.007222501
162	0xbaa8710a	-0.0012851071
163	0xbb21686a	-0.0024628886
164	0xbc0b4b95	-0.008501907
165	0x3a2e60d4	0.0006652002
166	0x3b05d31a	0.0020420016
167	0xbb4ac370	-0.0030939244
168	0xba0f2678	-0.00054607494
169	0x3b52a857	0.0032143795
170	0x3af76b04	0.0018876498
171	0x3b8923d7	0.0041851806
172	0x3ba71e51	0.0051000495
173	0x3b921b3e	0.004458814
174	0x3b914869	0.004433681
175	0x3b82123e	0.00396946
176	0xbb153722	-0.0022768457
177	0xb9a66279	-0.00031735355
178	0xb9b02762	-0.00033598678
179	0xbc1dc09f	-0.009628444
180	0x3b29133f	0.0025798825
181	0x3b97948a	0.0046258615
182	0xbb2539ea	-0.0025211521
183	0xbb587e83	-0.0033034391
184	0xbb72ead6	-0.0037066243
185	0xbbb7d604	-0.0056102294
186	0x3b74147d	0.0037243657
187	0xbb8b79a6	-0.004256445
188	0xbb391ba0	-0.0028245226
189	0x3b659c5b	0.0035035822
190	0x3bdbdaae	0.0067094183
191	0x3c04d508	0.008107431
192	0x3a040cd3	0.00050373113
193	0xbb046a8c	-0.0020205108
194	0xbb1f45e4	-0.0024303133
195	0xbafe0107	-0.0019378968
196	0x3b6eaf9a	0.0036420585
197	0xbbf8fb33	-0.0075983047
198	0x3b123270	0.0022307895
199	0xbb71321a	-0.0036803544
200	0xb793ce3e	-1.7619805e-05
201	0xb907dbbe	-0.00012956464
202	0x3b5f9f5e	0.003412209
203	0x3bdf1925	0.0068084174
204	0xbb95b359	-0.004568499
205	0xbb38f47f	-0.0028221903
206	0x3b275bc1	0.0025536867
207	0xbc09a8a3	-0.0084020225
208	0xbc65aed4	-0.014018733
209	0xbbf13eba	-0.007362214
210	0xbb82e3da	-0.003994447
211	0x3bb1e91d	0.0054294006
212	0x3c0acfac	0.008472364
213	0xbbbf0dce	-0.005830503
214	0x37f6acdb	2.9405977e-05
215	0xba178532	-0.00057800405
216	0xbb7c629b	-0.0038510922
217	0x3bc9a259	0.0061533866
218	0x3be80205	0.007080319
219	0xbac27a7f	-0.0014837532
220	0xbb9167ee	-0.004437438
221	0x3bcc61c2	0.0062372396
222	0x37b18339	2.116115e-05
223	0xbc020bae	-0.007937355
224	0xbbdc4c0f	-0.006722934
225	0x3bc64bde	0.0060515245
226	0xbc4ee11c	-0.012626912
227	0xbb1fcbb6	-0.0024382896
228	0xbc00fceb	-0.0078728
229	0x3bb6a8f4	0.00557434
230	0xbb3367b3	-0.0027375042
231	0x32a3a681	1.9051415e-08
232	0xbab32220	-0.0013666786
233	0xbc2b0eb5	-0.010440518
234	0x3be9f650	0.0071399584
235	0x3c5f4834	0.013628054
236	0xbbba1897	-0.005679201
237	0x3c25f06a	0.01012812
238	0x3b8b838f	0.0042576264
239	0xbc09a78f	-0.0084017655
240	0xbbad6600	-0.0052917004
241	0xb1e3665c	-6.6182064e-09
242	0x3af2ff8d	0.0018539295
243	0xbb5ffd0c	-0.0034177927
244	0xbbc28b43	-0.0059370114
245	0x398bb4ef	0.00026646952
246	0x3bcb14cd	0.006197548
247	0x3bb7ce3a	0.005609301
248	0x3b11078e	0.0022129747
249	0xbb3b133c	-0.00285454
250	0x3b6445a8	0.0034831557
251	0xbc509d3e	-0.012732802
252	0xb863530e	-5.4198368e-05
253	0xbaf9a0f4	-0.001904516
254	0xbc0b4c99	-0.008502149
255	0xbb9eb5e7	-0.004843462

model.2.bias f4 [100]
0	0x3b43034c	0.0029756604
1	0xbd3e3574	-0.046437696
2	0xbd82a6e0	-0.06379485
3	0xbbafe76d	-0.0053681643
4	0xbd1ad1d2	-0.037797756
5	0xbe97f8ed	-0.29682103
6	0x3ed6e732	0.41973263
7	0x3cbcb2a0	0.023034394
8	0xbc793722	-0.015210899
9	0x3ce12b5f	0.027486501
10	0x3d9d310b	0.0767537
11	0xbc97ee0e	-0.01854613
12	0x3c20ac50	0.0098067075
13	0xbc863728	-0.016383722
14	0x3c1ef3bd	0.009701666
15	0xbcba2b82	-0.022725824
16	0x3c6c596f	0.0144256195
17	0xba8e5af9	-0.0010860852
18	0xbb94863e	-0.0045326045
19	0x3ca679b1	0.020321699
20	0xbccf97fa	-0.025341023
21	0x3d3fbede	0.046812885
22	0x3c94d08d	0.018165851
23	0x3db29d91	0.0872146
24	0x3a2b0975	0.00065245415
25	0x3a9f5481	0.0012155921
26	0xbc85b840	-0.016323209
27	0x3c754c27	0.014971769
28	0xbe3b5960	-0.18295813
29	0xbe1aa564	-0.15102154
30	0xbdcf0753	-0.10108819
31	0x3d431d7b	0.047635537
32	0x3d1a59c3	0.03768326
33	0x3d1124ae	0.03543537
34	0x3d2c88b4	0.042122558
35	0x3b9277f3	0.0044698655
36	0xbca66a0a	-0.020314235
37	0x3d9d91df	0.07693838
38	0xbd9760ea	-0.07391532
39	0x3db0aec4	0.08627084
40	0x3c74e702	0.014947655
41	0xbb84bdb2	-0.0040509338
42	0xbbe74a2e	-0.0070584035
43	0x3d988954	0.07448068
44	0xbe1d67f5	-0.15371688
45	0x3db164d0	0.086618066
46	0xbdd2a99e	-0.10286258
47	0x3d908c88	0.07058054
48	0x3ce1697b	0.027516117
49	0x3c4259fc	0.011862274
50	0xbce557aa	-0.027995903
51	0xbc668e2e	-0.014071984
52	0x3d89fce8	0.06737691
53	0x3cb8c4a0	0.022554696
54	0x3c4bd09f	0.012439876
55	0xbd56d90e	-0.052453093
56	0xbe00b9f3	-0.12570934
57	0x3ce98447	0.028505458
58	0x3c3b49d2	0.011431174
59	0x3b1873bf	0.002326235
60	0xbcc61ec0	-0.024184585
61	0x3da7e3da	0.08197756
62	0xbd9b22e2	-0.07575013
63	0xbd653e5e	-0.05596768
64	0xbcf17978	-0.029476866
65	0xbe311e37	-0.17296682
66	0x3a895ede	0.0010480543
67	0xbc9ac764	-0.018893905
68	0xbc3665fd	-0.011132714
69	0xbd9e0dd7	-0.077174835
70	0xba027148	-0.00049759867
71	0x3ded9253	0.11600175
72	0x3ba39931	0.004992627
73	0x3d3052bf	0.043047663
74	0x3da72366	0.081610486
75	0x3ddcd6d7	0.10783165
76	0x3e384f88	0.17999089
77	0xbd3cfecd	-0.046141434
78	0x3e2b5c97	0.16734539
79	0xbef73774	-0.48284495
80	0x3ca70718	0.020389125
81	0xbd8aa9ff	-0.067707054
82	0xbb6f5646	-0.0036519929
83	0xbc8abc9d	-0.016935641
84	0xbd266ba9	-0.040630016
85	0x3d03975b	0.032126766
86	0x3c48d4a0	0.012257725
87	0xbccb764c	-0.024836682
88	0x3d1571a9	0.036485348
89	0x3d46c9a6	0.04853215
90	0x3d931ca4	0.07183197
91	0x3d19c839	0.037544463
92	0x3e215e6d	0.15758677
93	0xbb45d3b8	-0.0030186009
94	0x3d10ed23	0.0353824
95	0xbd5f05a4	-0.05444874
96	0xbf04a3c6	-0.518124
97	0x3d811a76	0.06303875
98	0xbdd99529	-0.10624153
99	0x3d3ccfe7	0.04609671

model.4.weight f4 [1, 100]
0	0xbb5f6a86	-0.0034090593
1	0x3d630d4d	0.055432606
2	0x3da0aad5	0.078450836
3	0x3bc99339	0.0061515835
4	0x3d3f8e9a	0.046766855
5	0xbf3e140a	-0.7424933
6	0x3f9e9258	1.238841
7	0xbcde0fad	-0.027107084
8	0x3c940b84	0.018071897
9	0xbd06958c	-0.032857463
10	0xbdc2c5cc	-0.09510383
11	0x3cb3e0a6	0.021957707
12	0xbc37d750	-0.011220768
13	0x3ca007a0	0.019534886
14	0xbc3ab8c7	-0.011396593
15	0x3cdf7580	0.027277708
16	0xbc8a4be5	-0.016881892
17	0x3aa0c3b5	0.0012265356
18	0x3bab1c69	0.0052218926
19	0xbcbf18dc	-0.023327284
20	0x3cf8409f	0.030304251
21	0xbd6b3679	-0.057424996
22	0xbcb11db8	-0.021620616
23	0xbdde0fb2	-0.108428374
24	0xba3e1340	-0.0007250793
25	0xbaaf8a0e	-0.0013392584
26	0x3c9f50c2	0.019447688
27	0xbc91f502	-0.017817024
28	0x3e852c16	0.26010197
29	0x3e4ed1a9	0.20197167
30	0x3e04b250	0.12958646
31	0xbd7013c4	-0.0586126
32	0xbd3958f1	-0.045250837
33	0xbd2ea9c0	-0.042642355
34	0xbd50cd12	-0.05097682
35	0xbba878eb	-0.0051413677
36	0x3cc1d425	0.023660729
37	0xbdc85581	-0.097819336
38	0x3dc02419	0.09381885
39	0xbddbd656	-0.10734241
40	0xbc9164c5	-0.017748246
41	0x3b96b9d7	0.0045997906
42	0x3c060c5a	0.008181656
43	0xbdc179e8	-0.0944708
44	0xbf039403	-0.5139772
45	0xbde1c904	-0.11024669
46	0x3e09190b	0.1338846
47	0xbdb620a2	-0.08892943
48	0xbd0959de	-0.03353297
49	0xbc638ffe	-0.013889311
50	0x3d079fd8	0.033111423
51	0x3c884d39	0.016638385
52	0xbdae198b	-0.08500966
53	0xbce08237	-0.027405841
54	0xbc704942	-0.0146659035
55	0x3d827e3f	0.06371736
56	0x3e2641b9	0.16236009
57	0xbd0d6ac7	-0.03452566
58	0xbc603354	-0.013684113
59	0xbb2b961e	-0.0026182006
60	0x3cea9a2e	0.028637972
61	0xbdcf0d98	-0.10110015
62	0x3dc4a055	0.096008934
63	0x3d9007d4	0.07032743
64	0x3d124fe7	0.035720732
65	0x3e77dca7	0.24205266
66	0xba943440	-0.0011307076
67	0x3cb8a0ba	0.022537578
68	0x3c577e15	0.013152619
69	0x3dc85dc6	0.09783511
70	0x3a0d0aaa	0.0005380312
71	0xbe189ad9	-0.1490282
72	0xbbbe24b1	-0.005802714
73	0xbd5aedfe	-0.053449623
74	0xbdd58f86	-0.104277655
75	0xbe10aa99	-0.14127578
76	0xbeae5a59	-0.34053305
77	0x3d631e74	0.055448964
78	0xbe7c3552	-0.24629715
79	0xbf6dfe80	-0.9296646
80	0xbcc9cf40	-0.024634957
81	0x3daeb6d0	0.085309625
82	0x3b8acd8d	0.0042359293
83	0x3ca08720	0.019595683
84	0x3d4a2f59	0.04936156
85	0xbd1fbff5	-0.039001424
86	0xbc6d236a	-0.014473775
87	0x3cf7a076	0.03022788
88	0xbd30eccb	-0.043194573
89	0xbd743439	-0.059620116
90	0xbdb9d26c	-0.09073338
91	0xbd386ec1	-0.0450275
92	0xbe5a60f3	-0.21326046
93	0x3b61eef9	0.0034474714
94	0xbd29d046	-0.04145839
95	0x3d89ac86	0.06722359
96	0xbf82e217	-1.0225247
97	0xbda1a7da	-0.07893343
98	0x3e0c6841	0.13711645
99	0xbd61ef1b	-0.05515967
