07_ae/2_dae.pth (torch, 560245 bytes, 15 tensors)

enc.0.weight f4 [6, 1, 5, 5]
-0.00074335176 -0.010942624 0.01198016 0.010648228 -0.01063973 -0.000636702 0.011900721 0.008986863
0.0049055773 0.0057496047 -0.0012502632 -0.05148264 0.13130884 -0.0153316865 0.004952607 0.008006392
-0.034316063 0.5627508 -0.049359106 0.0056903604 0.00033839315 0.07197623 0.05791228 0.062064268
-0.009767153 -0.0047800494 0.005561172 -0.0018842607 -0.010083715 -0.015570982 0.004014544 0.016993407
0.015416646 0.01423665 0.0034811443 -0.02769683 -0.04050128 0.10902598 -0.05658996 -0.01119308
0.016243493 -0.016531553 -0.41374403 -0.06352943 -0.011423064 0.026171042 0.10277217 0.31808934
0.0858693 -0.0022650228 -0.0031416037 0.008801742 0.0038082295 -0.020823322 -0.00383857 0.004005203
-0.001499201 0.016827248 -0.01743352 0.010815343 -0.014035469 -0.014822011 -0.0033175491 0.08125034
0.01592463 0.006575594 0.006455517 -0.01163242 0.6142956 -0.0046508783 0.017201371 0.0034482237
0.0378181 -0.099580385 0.013606306 -0.0005886258 0.00749212 -0.023820592 -0.026290907 -0.037083346
0.015411341 -0.008035839 0.031108197 -0.054306164 0.021714764 0.0032968293 -0.016472764 -0.032306563
0.48596853 0.055219855 0.008582364 -0.024602901 -0.017799312 -0.30863506 -0.029764729 0.005188793
0.009944266 0.0014330441 0.045294613 -0.013856909 0.0124130435 0.017512387 0.016026938 -0.02317768
0.006720354 -0.006356298 -0.00087518 -0.0052861045 -0.009726414 -0.0010573725 -0.0040395586 0.009521754
0.0002737178 -0.013610218 0.06462083 -0.003991512 0.00779555 0.0035435115 0.0018262765 -0.16439001
0.0012895121 -0.00415213 -0.0008133806 0.04356152 -0.6292406 0.0020637352 0.004203216 -0.007524907
0.0014100752 -0.008239511 0.0051740734 0.014039226 0.006354903 0.018928325 0.012134003 -0.013427509
0.0042022206 -0.011223761 -0.08052515 -0.0016952783 -0.009048106 -0.017602272 0.026114019 -0.26042348
-0.010064844 0.004160673 0.008680514 0.022919957 -0.5174868 0.056289762
00000000: 7edd 42ba b148 33bc 6f48 443c e875 2e3c
00000010: 4352 2ebc 59e8 26ba 3efb 423c a33d 133c
00000020: f7be a03b 2e67 bc3b dfdf a3ba 76df 52bd
00000030: d375 063e c131 7bbc 7b49 a23b 3e2d 033c
00000040: 008f 0cbd 7010 103f c62c 4abd 3476 ba3b
00000050: 5c6a b139 4668 933d 6d35 6d3d 1a37 7e3d
00000060: 6906 20bc f6a1 9cbb 7e3a b63b 4cf9 f6ba
00000070: 2b36 25bc 6f1d 7fbc 708c 833b c235 8b3c
00000080: 1a96 7c3c d740 693c e923 643b 76e4 e2bc
00000090: ace4 25bd 0349 df3d e0ca 67bd 2e63 37bc
000000a0: 1311 853c 2e6d 87bc 42d6 d3be b81b 82bd
000000b0: ce27 3bbc a764 d63c 377a d23d 9bdc a23e
000000c0: 3edc af3d c770 14bb 5de3 4dbb 2f35 103c
000000d0: 7d93 793b ac95 aabc 8590 7bbb 143e 833b
000000e0: d780 c4ba 4cd9 893c bed0 8ebc d632 313c
000000f0: 06f5 65bc 05d8 72bc 3d6b 59bb 9466 a63d
00000100: 5f74 823c 1578 d73b cd88 d33b e895 3ebc
00000110: 7a42 1d3f 6566 98bb e4e9 8c3c 98fb 613b
00000120: 27e7 1a3d cdf0 cbbd fcec 5e3c 024e 1aba
00000130: 7580 f53b 6723 c3bc 0760 d7bc b5e4 17bd
00000140: d97f 7c3c c0a8 03bc 9ed6 fe3c 2470 5ebd
00000150: 29e3 b13c 9e0f 583b e4f1 86bc e353 04bd
00000160: ded0 f83e 372e 623d 0b9d 0c3c 068c c9bc
00000170: ddcf 91bc 6a05 9ebe 29d5 f3bc c006 aa3b
00000180: 46ed 223c fbd4 bb3a d886 393d 1708 63bc
00000190: 1460 4b3c 2376 8f3c ed4a 833c 1edf bdbc
000001a0: 6a36 dc3b 7e48 d0bb 566c 65ba 0f37 adbb
000001b0: 8a5b 1fbc 8997 8aba 465e 84bb 2201 1c3c
000001c0: c881 8f39 64fd 5ebc ed57 843d 3bcb 82bb
000001d0: d071 ff3b 423a 683b ac5f ef3a db55 28be
000001e0: d904 a93a 970e 88bb 0c39 55ba 906d 323d
000001f0: e915 21bf bb3f 073b 22bb 893b 7f93 f6bb
00000200: 46d2 b83a 04ff 06bc 468b a93b c804 663c
00000210: ca3c d03b 930f 9b3c b3cd 463c 0eff 5bbc
00000220: c8b2 893b dee3 37bc 5fea a4bd 1a34 deba
00000230: 823e 14bc a432 90bc 11ed d53c 3a56 85be
00000240: 04e7 24bc 4156 883b b738 0e3c a2c2 bb3c
00000250: 047a 04bf 1890 663d

enc.0.bias f4 [6]
-0.105905585 -0.09021477 -0.12609135 -0.12039327 -0.098850794 -0.11815761
00000000: 07e5 d8bd 85c2 b8bd 171e 01be bf90 f6bd
00000010: 4972 cabd 9efc f1bd

enc.2.weight f4 [16, 6, 5, 5]
-0.020597514 -0.015138085 0.25254732 0.49058056 0.2838747 -0.01777839 -0.009574015 -0.011180696
0.23901577 0.00957583 -0.019534204 0.01861274 -0.028133202 0.008261092 -0.025821317 -0.013549524
-0.002567741 -0.006491516 0.00021930343 -0.016365405 -0.02156937 0.014821122 0.017182846 0.018074265
0.004690425 0.014784434 -0.030479476 0.23496775 0.49054807 0.25401807 -0.025169363 -0.0068706833
-0.0019143885 0.16627805 -0.014514384 -0.025981896 -0.0002717406 -0.00017674199 0.008870859 -0.019440195
-0.00045665656 -0.0036315988 -0.008074687 -0.016234284 -0.012559386 0.017206384 0.002022745 0.024323633
0.059842337 0.015049636 -0.035128556 0.026304897 0.40408137 0.43210593 0.09993369 -0.00079377636
-0.020081218 0.046859443 0.1503123 -0.016601935 -0.025659617 0.007061512 -0.017209837 -0.007530112
-0.01711558 -0.012195669 -0.022170912 0.03306286 -0.015321734 -0.004097116 -0.0015783778 0.00087809004
0.05830895 0.014251181 0.0015056581 -0.038957175 0.011354894 0.25008222 0.2943192 0.03566021
-0.023773883 -0.022771453 0.13893789 0.2831975 -0.010417041 0.011681247 -0.0015639387 -0.0601077
-0.014971082 -0.01387086 -0.0065955464 -0.021142945 0.007826694 -0.029624827 -0.028076282 0.027226713
-0.0104491785 0.030014006 -0.00069936115 0.0023769226 -0.0016716531 0.19938804 0.44553366 0.24358389
-0.0011618845 0.016895402 -0.032063346 0.04032446 -0.03218912 -0.03630005 0.0016306626 -0.03283486
-0.008872472 -0.037370127 -0.0032865528 -0.008910012 -0.007947921 -0.0068810335 0.0074661756 0.031468034
0.019791987 0.008739683 0.041686196 0.009147966 0.008974292 -0.039193757 0.06309707 0.43704775
0.47772914 0.06581859 0.007910233 0.025988469 -0.027979173 0.037993588 -0.022694089 -0.00069971173
-0.00011509408 0.037734468 0.004282793 -0.0049761212 0.0094634285 -0.027917365 -0.0014271243 -0.031406652
-0.00961513 0.025771383 0.044964686 0.023088621 0.0067957323 0.012853764 -0.05073309 0.015423426
0.25434867 0.08429007 -0.014073927 -0.04012131 0.2289028 0.46479678 0.16086471 0.014593765
0.00039781668 0.04598614 0.06766685 -0.06745933 -0.013666532 -0.019507725 0.009082457 0.015159199
-0.020123199 -0.0019223681 0.007452761 -0.0018975732 -0.013725487 -0.003129739 -0.005323267 -0.019065917
0.049673703 0.27204767 0.10560255 -0.006644501 -0.011809528 0.2145561 0.43354592 0.103117846
-0.005739031 -0.029278819 0.0050631594 0.038540438 -0.034262266 0.003251763 -0.0032444345 0.016679373
-0.0039142948 -0.019559361 -0.0034615798 0.02727205 0.0027794773 -0.038592886 0.011076981 -0.015630629
-0.055225678 0.1640778 0.25611472 0.012991566 -0.0023605234 0.05009004 0.37453043 0.37653518
0.00982072 -0.0036020025 -0.007531841 0.10222869 0.007561529 -0.011043276 0.009187537 0.011300833
0.0037105903 0.0062314253 -0.012621296 -0.021862257 -0.030880846 -0.0076283105 -0.0027365156 -0.003610431
-0.024128096 -0.050456543 0.06746106 0.12539487 0.013578585 -0.006982782 0.013857469 0.31301686
0.36820695 -0.028095404 -0.0015698903 -0.017757282 0.16075426 0.029452303 -0.017085444 -0.0011635713
-0.017144825 0.02354448 -0.018511286 -0.009390306 0.0069008362 -0.0026424932 0.0016459607 0.020776467
0.008207362 -0.010379249 0.11249533 0.41334194 0.15277226 -0.008921747 0.011878222 0.18785745
00000000: 1ebc a8bc bb05 78bc e24d 813e 602d fb3e
00000010: 0658 913e fca3 91bc 54dc 1cbc 3d2f 37bc
00000020: 8dc0 743e f1e3 1c3c 3206 a0bc bf79 983c
00000030: 9a77 e6bc 8859 073c 3a87 d3bc d3fe 5dbc
00000040: 8c47 28bb c8b6 d4bb d1f4 6539 be10 86bc
00000050: 3fb2 b0bc 4bd4 723c 0ac3 8c3c 7b10 943c
00000060: 23b2 993b 693a 723c 18b0 f9bc 639b 703e
00000070: 1e29 fb3e a80e 823e fb2f cebc 7823 e1bb
00000080: 38ec faba cb44 2a3e bdcd 6dbc fcd7 d4bc
00000090: 6878 8eb9 d153 39b9 1457 113c 0b41 9fbc
000000a0: 686b efb9 1e00 6ebb b14b 04bc c3fd 84bc
000000b0: e2c5 4dbc 67f4 8c3c 0890 043b 5b42 c73c
000000c0: 3d1d 753d c092 763c f6e2 0fbd 5e7d d73c
000000d0: c1e3 ce3e fd3c dd3e 09aa cc3d 6e15 50ba
000000e0: 5e81 a4bc b0ef 3f3d 78eb 193e c800 88bc
000000f0: 1e34 d2bc 4264 e73b a5fb 8cbc 28bf f6bb
00000100: f935 8cbc 58d0 47bc c69f b5bc ec6c 073d
00000110: 0308 7bbc 1a41 86bb 92e1 ceba a02f 663a
00000120: 5ed5 6e3d c97d 693c 8159 c53a 8f91 1fbd
00000130: e109 3a3c c70a 803e 02b1 963e 7110 123d
00000140: 72c1 c2bc 338b babc bc45 0e3e 43ff 903e
00000150: 3dac 2abc b362 3f3c 13fd ccba 7e33 76bd
00000160: 4549 75bc 9b42 63bc 741f d8bb f833 adbc
00000170: 893b 003c c4af f2bc 3b00 e6bc 8e0a df3c
00000180: 0833 2bbc efdf f53c 5555 37ba 25c6 1b3b
00000190: 5f1b dbba 612c 4c3e fd1c e43e 0e6e 793e
000001a0: 604a 98ba 3a68 8a3c db54 03bd 432b 253d
000001b0: bdd8 03bd 5caf 14bd f5bb d53a d97d 06bd
000001c0: d85d 11bc 6b11 19bd 3563 57bb 4dfb 11bc
000001d0: ff37 02bc 4b7a e1bb d2a6 f43b a0e4 003d
000001e0: ce22 a23c e330 0f3c 25bf 2a3d 5ae1 153c
000001f0: e908 133c a289 20bd 0939 813d b9c4 df3e
00000200: ea98 f43e e6cb 863d ec99 013c c5e5 d43c
00000210: 9434 e5bc 2a9f 1b3d f4e8 b9bc dc6c 37ba
00000220: aa5e f1b8 758f 1a3d ac56 8c3b bb0e a3bb
00000230: 7f0c 1b3c f5b2 e4bc 580e bbba 43a4 00bd
00000240: c788 1dbc 821e d33c e42c 383d 5924 bd3c
00000250: bcae de3b 9898 523c 80cd 4fbd 8ab2 7c3c
00000260: fd39 823e 46a0 ac3d 5496 66bc 3e56 24bd
00000270: 7f65 6a3e d8f9 ed3e b8b9 243e b01a 6f3c
00000280: 0d92 d039 f65b 3c3d eb94 8a3d 1e28 8abd
00000290: 97e9 5fbc aace 9fbc 96ce 143c 4a5e 783c
000002a0: 68d9 a4bc f8f7 fbba 4a36 f43b feb7 f8ba
000002b0: dde0 60bc 4f1c 4dbb cd6e aebb 2030 9cbc
000002c0: a776 4b3d d549 8b3e 2646 d83d 1dba d9bb
000002d0: c07c 41bc 98b4 5b3e bbf9 dd3e 732f d33d
000002e0: 7b0e bcbb 22da efbc dce8 a53b 94dc 1d3d
000002f0: 9756 0cbd 881b 553b 94a0 54bb 2ea3 883c
00000300: 7c43 80bb f43a a0bc acdb 62bb a269 df3c
00000310: e427 363b 9313 1ebd 3a7c 353c ce0b 80bc
00000320: 5234 62bd 0304 283e 7821 833e 94da 543c
00000330: 03b3 1abb 372b 4d3d 74c2 bf3e 38c9 c03e
00000340: 16e7 203c 930f 6cbb a9cd f6bb 475d d13d
00000350: b4c6 f73b dbee 34bc 5387 163c 2127 393c
00000360: 602d 733b fc30 cc3b 8dc9 4ebc 7a18 b3bc
00000370: d4f9 fcbc e8f6 f9bb 1d57 33bb fb9c 6cbb
00000380: 49a8 c5bc 85ab 4ebd 0629 8a3d 8367 003e
00000390: b778 5e3c d2cf e4bb 700a 633c bf43 a03e
000003a0: 9f85 bc3e 5528 e6bc c7c4 cdba b877 91bc
000003b0: c49c 243e f545 f13c c6f6 8bbc f982 98ba
000003c0: 4e73 8cbc 5ae0 c03c fba4 97bc ccd9 19bc
000003d0: 6920 e23b ae2d 2dbb 47bd d73a 6933 aa3c
000003e0: 2c78 063c ba0d 2abc f463 e63d 8ea1 d33e
000003f0: 5570 1c3e 852c 12bc e09c 423c b45d 403e

enc.2.bias f4 [16]
-0.13839981 -0.15718618 -0.15292928 0.020670189 -0.16621578 0.16709441 0.074127495 -0.07779132
-0.094882615 0.45618027 -0.1577884 -0.074833766 -0.018110331 0.67308027 -0.13631059 -0.12837097
00000000: aeb8 0dbe 6af5 20be 7e99 1cbe 8754 a93c
00000010: 7834 2abe cc1a 2b3e 28d0 973d 0e51 9fbd
00000020: d151 c2bd 7690 e93e 4893 21be 7242 99bd
00000030: 1e5c 94bc fd4e 2c3f 0195 0bbe ae73 03be

enc.5.weight f4 [250, 256]
-0.4681484 -0.3642237 -0.21588898 0.2213931 0.031873748 0.0072339885 0.044599693 0.053958215
0.03796796 0.06433178 0.05073915 -0.053802498 0.036398467 0.025688475 0.19372272 0.18105759
-0.22030848 -0.048029996 0.022882408 0.19985697 0.038638104 0.06841962 0.08131211 0.09359407
0.10246529 0.037314493 0.19213152 -0.022571005 0.017279776 -0.003935619 -0.05586966 0.027961401
0.055006385 0.093045846 0.022958433 0.23049794 -0.0012677385 0.034994017 -0.008353225 -0.24096422
0.06625348 0.05197642 -0.058035217 0.092701375 0.06860741 -0.053108722 0.23541714 1.0736467
-0.010762643 -0.09918274 -0.139529 -0.049791813 -0.047292985 0.0056624217 0.007202159 -0.0010390553
0.08965433 -0.111571185 0.112528704 0.11645098 0.09009422 -0.05430919 -0.20526344 0.02604025
0.19383821 0.05231309 0.012879079 0.0619468 0.091864854 -0.0030711405 0.066885896 -0.012515698
0.030385366 0.048492625 0.07042176 0.0036841612 -0.055049114 -0.052924406 -0.04830668 0.28521296
-0.17936018 -0.06817045 -0.038737897 0.042044282 -0.06770621 -0.0038491318 0.17520265 0.13685323
-0.0459194 -0.00015655428 -0.011615898 0.048572283 0.08846547 0.037192542 -0.13647558 -0.0090601845
0.0127783455 -0.05847763 -0.019677483 -0.05695307 0.047458887 -0.11180233 -0.03317021 0.15774024
-0.01913811 0.14790264 -0.044268634 -0.0061680633 -0.062108707 0.009718817 0.36764947 0.48400798
0.09354865 0.10499605 0.060839128 0.08554085 0.014012244 0.06050498 0.04014137 -0.12701435
0.035285518 -0.0036984303 0.08473597 -0.06841333 0.0058394666 -0.042443745 -0.12026613 0.48367882
-0.024836889 -0.058030747 0.04853511 0.721416 0.04399267 0.073994555 -0.055619866 0.2319473
0.075745955 0.15889224 0.0714891 -0.21205238 0.08596821 0.0018273597 0.05351132 -0.0065660616
0.040454924 -0.1729813 -0.21390064 -0.090175286 -0.05672817 0.003723514 -0.043773353 -0.10872173
0.050297562 -0.03227914 0.036329184 -0.005942477 0.020151302 0.054034345 0.05711954 0.22339302
0.07272809 0.009254116 0.14739119 0.058749255 0.3374434 -0.022153523 -0.037150268 0.13087979
-0.028702306 0.06491337 0.06791466 0.015705833 0.020230206 0.04689888 -0.03592599 -0.1352994
0.05005054 0.07138125 0.07868142 0.3381687 0.028311087 -0.11103692 -0.0622397 -0.025110468
0.031406146 0.053726282 -0.046742458 -0.10312335 0.03229552 -0.067445606 0.07620146 0.17770186
0.015858956 -0.015005138 0.024477767 0.064500555 -0.016728291 -0.062048644 0.046593525 -0.0513615
-0.06864808 0.08131357 0.0633954 -0.021801515 0.04754948 -0.048934884 -0.08802422 0.38821068
0.11347962 -0.01432514 -0.23816141 -0.3028712 -0.05271761 -0.11396437 0.033777498 0.1542244
-0.08990617 -0.20496747 0.08538385 0.36162394 0.006946955 0.13213548 0.13384049 -0.036387518
0.13115282 -0.013928724 0.11107903 0.020161275 0.062331833 0.006344477 0.008664989 -0.050578978
0.041956913 0.018043432 -0.04050691 0.06611673 -0.023216028 0.06414173 0.09970561 0.5427562
-0.068064764 0.03300778 0.0075168856 -0.04062872 0.0643915 0.014151204 0.042069785 -0.022137122
0.08776547 0.096620075 -0.0012847004 0.18197201 0.009030832 0.064331435 0.29604548 0.99320865
00000000: 26b1 efbe 877b babe 0012 5dbe dfb4 623e
00000010: 0c8e 023d 180b ed3b 2bae 363d 4a03 5d3d
00000020: 4b84 1b3d 61c0 833d dbd3 4f3d 0260 5cbd
00000030: 8f16 153d a370 d23c 405f 463e 2967 393e
00000040: 8c98 61be 1abb 44bd e373 bb3c 4ea7 4c3e
00000050: fd42 1e3d 961f 8c3d f786 a63d 3fae bf3d
00000060: 52d9 d13d 15d7 183d 20be 443e d4e6 b8bc
00000070: 518e 8d3c 5df6 80bb 96d7 64bd 4f0f e53c
00000080: 604e 613d d28e be3d 5313 bc3c a707 6c3e
00000090: 3f2a a6ba e355 0f3d f7db 08bc 53bf 76be
000000a0: e8af 873d 3ae5 543d 56b6 6dbd 38da bd3d
000000b0: 0b82 8c3d 8888 59bd 3111 713e 416d 893f
000000c0: cc55 30bc 5220 cbbd b1e0 0ebe 80f2 4bbd
000000d0: 4ab6 41bd d68b b93b 1700 ec3b e930 88ba
000000e0: b09c b73d 6f7f e4bd 7375 e63d da7d ee3d
000000f0: 5283 b83d 5073 5ebd 9430 52be 5d52 d53c
00000100: 867d 463e 4046 563d c602 533c eebb 7d3d
00000110: a423 bc3d 3045 49bb 79fb 883d a40e 4dbc
00000120: bbea f83c 34a0 463d 4939 903d f871 713b
00000130: 2e7b 61bd 43c7 58bd 3add 45bd 6f07 923e
00000140: 32aa 37be f39c 8bbd a1ab 1ebd a036 2c3d
00000150: 8ea9 8abd b741 7cbb 5368 333e 4123 0c3e
00000160: fb15 3cbd b828 24b9 9c50 3ebc bbf3 463d
00000170: 622d b53d 3557 183d 41c0 0bbe 2b71 14bc
00000180: 445c 513c 3d86 6fbd ac32 a1bc 9f47 69bd
00000190: 4064 423d 9ff8 e4bd 7cdd 07bd a886 213e
000001a0: 87c7 9cbc ca73 173e 0753 35bd 771d cabb
000001b0: b365 7ebd ac3b 1f3c 8d3c bc3e e5cf f73e
000001c0: 6f96 bf3d 2b08 d73d 7332 793d 0b30 af3d
000001d0: 9c93 653c 12d4 773d 476b 243d 0d10 02be
000001e0: 8c87 103d 5d61 72bb 0d8a ad3d 4a1c 8cbd
000001f0: ff58 bf3b 7ed9 2dbd 174e f6bd c0a4 f73e
00000200: bb76 cbbc a6b1 6dbd c0cc 463d b8ae 383f
00000210: a831 343d 758a 973d a8d1 63bd 9883 6d3e
00000220: b220 9b3d a6b4 223e e168 923d 4224 59be
00000230: 1a10 b03d 0484 ef3a b02e 5b3d 1e28 d7bb
00000240: 10b4 253d 0322 31be c508 5bbe d2ad b8bd
00000250: cc5b 68bd 3306 743b b04b 33bd 80a9 debd
00000260: d104 4e3d 2237 04bd e9cd 143d 1cb9 c2bb
00000270: 5814 a53c 1e53 5d3d 2ef6 693d 24c1 643e
00000280: 77f2 943d 939e 173c b7ed 163e 0fa3 703d
00000290: 62c5 ac3e 4e7b b5bc e12a 18bd 5a05 063e
000002a0: 1921 ebbc 4df1 843d d716 8b3d 85a9 803c
000002b0: d1b9 a53c 0a19 403d 2227 13bd ed8b 0abe
000002c0: cc01 4d3d 5530 923d b923 a13d 7324 ad3e
000002d0: a7ec e73c 5367 e3bd 0eef 7ebd 78b4 cdbc
000002e0: bba3 003d 1710 5c3d 0575 3fbd 5632 d3bd
000002f0: 4f48 043d ec20 8abd 830f 9c3d 7af7 353e
00000300: a4ea 813c 1cd8 75bc 9985 c83c de18 843d
00000310: c509 89bc b826 7ebd dad8 3e3d 7060 52bd
00000320: 5d97 8cbd bb87 a63d 73d5 813d 1799 b2bc
00000330: 3ec3 423d f26f 48bd 0b46 b4bd 8dc3 c63e
00000340: 0168 e83d feb3 6abc 96e0 73be ef11 9bbe
00000350: 6cee 57bd 2766 e9bd 465a 0a3d 00ed 1d3e
00000360: ba20 b8bd fee2 51be badd ae3d c626 b93e
00000370: 48a3 e33b 864e 073e 7b0d 093e 140b 15bd
00000380: ed4c 063e 4e35 64bc 677d e33d 4229 a53c
00000390: aa4f 7f3d 55e5 cf3b 99f7 0d3c e72b 4fbd
000003a0: 03db 2b3d d2cf 933c 93ea 25bd 3568 873d
000003b0: 8a2f bebc bd5c 833d 7432 cc3d 12f2 0a3f
000003c0: 8a65 8bbd 2a33 073d 3550 f63b 4d6a 26bd
000003d0: b1df 833d 74da 673c 5e51 2c3d e958 b5bc
000003e0: 62be b33d bfe0 c53d 6463 a8ba df56 3a3e
000003f0: 0ef6 133c 33c0 833d 4693 973e ec42 7e3f

enc.5.bias f4 [250]
0.014172791 0.1327159 -0.015632594 -0.043639667 0.08328328 0.04484798 -0.08575691 -0.05711235
-0.05541671 0.12309935 0.21572983 0.060767237 -0.04533806 0.018200137 -0.08357111 -0.027959479
-0.05288862 0.01418791 -0.039657056 -0.076379135 0.12333671 -0.0050768545 -0.111178376 -0.018713275
0.020794919 0.14613588 0.031023277 0.12713258 -0.060451895 0.12930125 0.08922743 0.031815026
0.004337616 0.04253901 0.18356365 -0.06268803 0.021151865 -0.043064706 -0.060023014 -0.083368
-0.09182606 0.0051573575 0.006899618 0.000871841 -0.015906917 0.027554033 0.045844495 -0.0151592465
0.10797269 -0.082787305 -0.026737588 -0.07475116 0.015703209 0.1728325 0.15949605 0.1304509
0.028271878 0.1593447 0.068788916 -0.027405757 0.11335803 0.0557694 0.15144193 -0.06995155
-0.07866318 -0.08071028 -0.055571232 0.06627452 0.08153283 0.03716845 -0.010144789 0.03168283
0.009122891 0.15359238 -0.0766746 -0.018169142 0.026688676 -0.040971033 0.033441287 0.12013559
0.011942752 0.042404957 -0.0010055625 0.07034095 -0.065599486 0.03397598 0.117022984 0.22967508
0.006431916 -0.027809784 0.078406386 0.04298233 -0.10559007 0.036608305 -0.0013282241 0.08212585
-0.047549333 0.14146607 0.12530535 -0.021113222 0.0004633152 0.0765196 0.17186521 0.042895865
0.010520401 0.06964451 0.0082854275 -0.09508892 0.15842037 0.17505105 0.0021749858 -0.02950394
0.1995788 -0.051134583 -0.039759804 -0.06267744 -0.029774824 -0.008365009 -0.06803299 0.10360729
0.20538694 0.17006442 -0.07529457 0.030804712 0.02219962 0.14360356 0.039760742 -0.060565732
-0.042796116 0.011160218 0.118906125 -0.012953932 0.17105132 -0.013708243 0.012298642 -0.0048853634
0.093021825 -0.018303609 -0.08709797 -0.07979563 -0.08502076 0.1056753 0.017493907 -0.021813981
0.15820697 -0.010501952 -0.08382128 0.104791254 0.014320737 0.0859474 -0.004632744 0.014056507
0.010237879 -0.014035717 0.13286877 -0.015206816 0.0077162874 0.19926623 0.18125463 0.16348927
-0.039999176 0.12780982 0.0062072356 0.11635118 0.01688054 0.09818836 0.021336094 -0.03813027
0.035124723 -0.009140601 0.14103167 0.08958439 0.051919874 -0.0127249975 0.022733398 0.119950265
0.053163927 0.12928517 -0.06312185 -0.022981217 0.014423553 -0.031499967 -0.059838668 0.022159314
0.07130158 0.074775085 -0.04445469 0.016728794 0.13557786 0.046091627 -0.016473683 0.066123866
-0.0066189854 -0.003264492 0.0011270674 -0.07944457 -0.050330296 0.068173386 0.07135673 0.27644554
0.06897917 0.02722115 -0.03605546 0.09528284 -0.029384926 0.21826558 0.0022166863 0.026577141
0.04356228 0.18083929 0.011180891 0.13020936 0.072176926 0.1312218 0.06090148 -0.0041812262
0.12761548 0.028848806 -0.060673565 0.106485106 0.0938553 0.040410094 0.0064090723 0.021666817
0.10426593 -7.885789e-05 -0.04586088 0.05203053 -0.000505916 -0.059116222 -0.0073122215 0.029094145
-0.00090707367 0.020875435 -0.027240533 -0.031174744 -0.00509366 -0.060285117 0.1612362 -0.020044921
0.13009067 -0.01704711 -0.07647749 0.005436434 -0.0700896 -0.09470555 0.16426308 0.03907061
0.08957943 0.033477314
00000000: fe34 683c ade6 073e ed0f 80bc 82bf 32bd
00000010: 6d90 aa3d 84b2 373d 52a1 afbd a4ee 69bd
00000020: a2fc 62bd 831b fc3d 48e8 5c3e 11e7 783d
00000030: 67b4 39bd 7418 953c 5527 abbd 470b e5bc
00000040: bda1 58bd 6874 683c 706f 22bd aa6c 9cbd
00000050: f597 fc3d be5b a6bb 7db1 e3bd 954c 99bc
00000060: 1b5a aa3c a5a4 153e 8724 fe3c 0b2f 023e
00000070: 689c 77bd 8c67 043e dfbc b63d 7950 023d
00000080: 8f22 8e3b 633d 2e3d 1cf8 3b3e 9562 80bd
00000090: ad46 ad3c 9e64 30bd b1da 75bd d8bc aabd
000000a0: 4d0f bcbd 0dff a83b 3116 e23b 428c 643a
000000b0: 394f 82bc ffb8 e13c 70c7 3b3d 7d5e 78bc
000000c0: c920 dd3d 648c a9bd c908 dbbc 2317 99bd
000000d0: 04a4 803c 01fb 303e ef52 233e ec94 053e
000000e0: 6d9a e73c 422b 233e 34e1 8c3d 0a82 e0bc
000000f0: 4128 e83d 746e 643d 9813 1b3e c242 8fbd
00000100: 291a a1bd 6e4b a5bd a99e 63bd efba 873d
00000110: affa a63d f23d 183d 5436 26bc dbc5 013d
00000120: 2e78 153c 5247 1d3e 9307 9dbd 74d7 94bc
00000130: 36a2 da3c 3ed1 27bd bbf9 083d a609 f63d
00000140: 88ab 433c d2b0 2d3d 14cd 83ba ea0e 903d
00000150: 0659 86bd 662a 0b3d bfa9 ef3d f22f 6b3e
00000160: d2c2 d23b 58d1 e3bc 8793 a03d 3d0e 303d
00000170: 9b3f d8bd 97f2 153d ce17 aeba 9931 a83d
00000180: 17c3 42bd 7bdc 103e 0c50 003e a3f5 acbc
00000190: 1de9 f239 4fb6 9c3d 6ffd 2f3e 93b3 2f3d
000001a0: c35d 2c3c c8a1 8e3d 9abf 073c fbbd c2bd
000001b0: f338 223e 9540 333e 358a 0e3b 3fb2 f1bc
000001c0: 635e 4c3e 7f72 51bd 2ddb 22bd 085d 80bd
000001d0: 55ea f3bc 640d 09bc e154 8bbd 0f30 d43d
000001e0: f450 523e 5e25 2e3e 0a34 9abd 2a5a fc3c
000001f0: fadb b53c d00c 133e 29dc 223d c613 78bd
00000200: fb4a 2fbd 59d9 363c 0e85 f33d bb3c 54bc
00000210: 1428 2f3e 8a98 60bc 3e80 493c 6615 a0bb
00000220: 3a82 be3d 73f1 95bc 6c60 b2bd e46b a3bd
00000230: 5d1f aebd 4b6c d83d 624f 8f3c 3cb3 b2bc
00000240: 0201 223e 6110 2cbc 7eaa abbd cc9c d63d
00000250: 86a1 6a3c 3105 b03d 46ce 97bb 434d 663c
00000260: c7bc 273c 10f6 65bc c00e 083e 0226 79bc
00000270: e9d8 fc3b 720c 4c3e d09a 393e bb69 273e
00000280: 2dd6 23bd 94e0 023e 1166 cb3b 8749 ee3d
00000290: 0f49 8a3c fb16 c93d 08c9 ae3c 7c2e 1cbd
000002a0: f1de 0f3d 76c2 15bc 9b6a 103e 0578 b73d
000002b0: efa9 543d 827c 50bc 643b ba3c 7ca8 f53d
000002c0: 6bc2 593d 5563 043e 0746 81bd 1b43 bcbc
000002d0: c450 6c3c 1c06 01bd 6419 75bd 7387 b53c
000002e0: 9006 923d ae23 993d 1f16 36bd d30a 893c
000002f0: ecd4 0a3e 93ca 3c3d d1f3 86bc f36b 873d
00000300: 13e4 d8bb 16f1 55bb 1bba 933a d6b3 a2bd
00000310: 2427 4ebd 7d9e 8b3d 7a23 923d 458a 8d3e
00000320: f344 8d3d e4fe de3c e4ae 13bd a623 c33d
00000330: a8b8 f0bc 0381 5f3e d345 113b 4eb8 d93c
00000340: 5c6e 323d ef2d 393e 0e30 373c 9a55 053e
00000350: 7fd1 933d 025f 063e d573 793d ab02 89bb
00000360: a2ad 023e 5554 ec3c d884 78bd dd14 da3d
00000370: 3537 c03d 0e85 253d 3203 d23b 9c7e b13c
00000380: 6089 d53d 8260 a5b8 9ed8 3bbd f71d 553d
00000390: 739f 04ba da23 72bd 5c9b efbb d856 ee3c
000003a0: afc8 6dba f602 ab3c 8a27 dfbc 2d62 ffbc
000003b0: b8e8 a6bb 87ed 76bd 1a1b 253e 3f35 a4bc
000003c0: 7d36 053e 61a6 8bbc 3ba0 9cbd 1d24 b23b
000003d0: 238b 8fbd fcf4 c1bd 9534 283e 8108 203d
000003e0: 6c75 b73d 821f 093d

enc.7.weight f4 [10, 250]
-0.085137725 0.06668794 0.014270486 0.11941207 -0.18223333 -0.071401395 0.006042508 -0.0010291665
0.061775185 0.2706873 0.019344341 -0.13764085 0.039916385 0.017747136 -0.056238152 0.2893252
0.12012393 -0.041942343 0.02949692 0.0018274384 0.21851733 -0.11458172 0.12021598 -0.07399031
0.110576004 -0.21820547 -0.101099186 0.030484943 -0.14945729 0.28412163 -0.11807806 -0.121342346
-0.014747335 -0.07165013 0.03772758 0.048751827 0.09934563 0.07947142 -0.0024127676 -0.018789958
0.032954272 -0.029021218 -0.011523304 -0.08499785 -0.16194417 0.07494651 -0.0429947 -0.018111851
0.055070184 0.053928822 -0.0004192566 -0.01897304 0.06492656 0.098723285 0.055771988 0.013307858
-0.05075261 -0.10244286 -0.06561892 0.007748227 0.055204216 0.05544616 0.023293935 -0.024033645
0.025503198 -0.021005046 -0.024082609 0.20636125 -0.045400884 -0.03201627 8.143699e-05 0.09849808
0.03552913 -0.17315076 -0.07061279 -0.091222994 0.045937188 0.015635718 0.0173367 -0.29594225
0.008222746 -0.023495425 -0.13613568 0.1718371 -0.011210502 0.008531258 0.14345434 0.19170803
-0.09694937 0.00834054 0.37979499 -0.11246802 -0.06435657 0.10992666 0.010739068 -0.03576276
-0.057185836 -0.0009320747 -0.10623546 -0.010237949 0.065013245 -0.09333829 -0.011572036 -0.032876126
-0.1092643 0.02012825 -0.02970468 0.051564343 0.04960252 0.061600126 0.015552544 -0.10741022
-0.14394434 0.028564503 -0.055228364 0.050569724 -0.045238834 -0.09396134 0.0013491468 -0.0017016367
-0.18022595 -0.041936018 0.07935264 0.04858872 0.030413114 -0.04315664 0.047305565 0.05767834
0.04604675 -0.05010757 0.028962083 0.07910079 0.082100466 0.00071043265 0.07823323 -0.007451624
-0.074331895 -0.006585217 0.051884774 0.052479293 -0.04764132 -0.0029150108 0.08171619 0.029192902
0.104199395 0.033624638 -0.0027401277 -0.022809798 0.32916433 -0.072370276 -0.052828696 0.021949565
0.08976248 0.046959452 0.13110167 0.01104826 0.025015173 0.017463833 -0.39099836 -0.12345384
-0.023946771 0.08776422 -0.005368684 -0.010486576 -0.04678274 0.11021251 -0.05251719 -0.16711168
-0.20551465 -0.018627347 -0.07599635 -0.15581101 0.026239919 -0.0040183896 -0.0013163676 -0.13098764
-0.060293347 -0.21162581 0.062641755 -0.024635443 0.19209732 -0.04003761 0.031959303 0.048258673
-0.054328486 0.08149482 0.0083040865 0.049523104 0.00018453294 0.06263532 -0.016249893 -0.05606938
0.090805724 0.044303082 -0.079152904 -0.013908629 0.020003838 0.13024658 0.18591656 -0.03168123
0.18548334 0.024754787 -0.077014126 -0.25886565 0.0064232885 -0.123839416 0.16420996 -0.1008625
0.017328124 0.048286613 0.01188202 0.1231001 0.08983894 -0.046764594 -0.011862058 0.3311858
-0.14951107 -0.0101072425 -0.0035454447 -0.27980492 0.07906246 -0.0354954 0.020036632 0.0028524417
-0.18605031 0.02101423 -0.028972749 -0.0843805 -0.06015296 0.027570104 0.011090281 -0.07613749
-0.07085261 -0.13530253 -0.04753816 -0.03881213 0.030750418 0.03361421 -0.11386775 -0.05963366
-0.16601092 -0.04411999 0.0038043004 0.0509276 0.047103964 -0.010356376 0.109175704 -0.028342921
-0.3158581 -0.008796671 -0.12036556 0.012164183 -0.012297637 -0.06819735 0.002547683 -0.07885676
00000000: b05c aebd b093 883d c2ce 693c 518e f43d
00000010: 609b 3abe e53a 92bd 3b00 c63b 19e5 86ba
00000020: fa07 7d3d 8797 8a3e 0678 9e3c b9f1 0cbe
00000030: 5d7f 233d 7162 913c fa59 66bd 6f22 943e
00000040: 8903 f63d bccb 2bbd 86a3 f13c a886 ef3a
00000050: 02c3 5f3e d2a9 eabd cc33 f63d 3b88 97bd
00000060: ac75 e23d 4171 5fbe 170d cfbd 8fbb f93c
00000070: 550b 19be 6478 913e e9d2 f1bd 5682 f8bd
00000080: ce9e 71bc 4ebd 92bd 3c88 1a3d ffaf 473d
00000090: b975 cb3d e9c1 a23d 861f 1ebb 66ed 99bc
000000a0: 0ffb 063d e8bd edbc 3dcc 3cbc 5a13 aebd
000000b0: b1d4 25be 8e7d 993d 361b 30bd 4e5f 94bc
000000c0: 4691 613d 78e4 5c3d abcf dbb9 596d 9bbc
000000d0: 37f8 843d 6f2f ca3d 2b71 643d 3409 5a3c
000000e0: f8e1 4fbd 90cd d1bd 3663 86bd d7e4 fd3b
000000f0: d11d 623d 831b 633d ecd2 be3c 35e2 c4bc
00000100: 15ec d03c c612 acbc e448 c5bc 5d50 533e
00000110: 47f6 39bd 7e23 03bd 27c9 aa38 5db9 c93d
00000120: fe86 113d 6f4e 31be 709d 90bd 1fd3 babd
00000130: a228 3c3d 7a16 803c b205 8e3c be85 97be
00000140: b2b8 063c 7a79 c0bc 2767 0bbe 11f6 2f3e
00000150: 41ac 37bc b1c6 0b3c b2e5 123e 1c4f 443e
00000160: 648d c6bd c3a6 083c 7d74 c23e a255 e6bd
00000170: 61cd 83bd 3b21 e13d eaf2 2f3c f97b 12bd
00000180: b23b 6abd 7956 74ba fa91 d9bd 12bd 27bc
00000190: aa25 853d 2528 bfbd a398 3dbc 1ea9 06bd
000001a0: f6c5 dfbd 00e4 a43c 3b57 f3bc 2235 533d
000001b0: 032c 4b3d 6a50 7c3d 19d0 7e3c e4f9 dbbd
000001c0: 2566 13be 1b00 ea3c 2337 62bd 3322 4f3d
000001d0: 5b4c 39bd ce6e c0bd dbd5 b03a 7409 dfba
000001e0: 278d 38be 1ac5 2bbd a383 a23d f704 473d
000001f0: ec24 f93c 04c5 30bd 7bc3 413d 1f40 6c3d
00000200: 849b 3c3d 983d 4dbd e441 ed3c 98ff a13d
00000210: 4a24 a83d 543c 3a3a be38 a03d c12c f4bb
00000220: 523b 98bd cec8 d7bb 2185 543d 87f4 563d
00000230: 8b23 43bd c409 3fbb d15a a73d f425 ef3c
00000240: 7e66 d53d fdb9 093d b793 33bb 9ddb babc
00000250: 3a88 a83e de36 94bd e762 58bd 93cf b33c
00000260: 64d5 b73d 8e58 403d 843f 063e c303 353c
00000270: 9fec cc3c 5010 8f3c f030 c8be 5ed5 fcbd
00000280: 052c c4bc babd b33d c9eb afbb e3cf 2bbc
00000290: 429f 3fbd 19b7 e13d 441c 57bd 531f 2bbe
000002a0: 6f72 52be 6198 98bc f9a3 9bbd ec8c 1fbe
000002b0: 19f5 d63c b2ac 83bb f889 acba a021 06be
000002c0: 28f6 76bd 70b4 58be 524a 803d 45d0 c9bc
000002d0: 29b5 443e 7afe 23bd c2e7 023d e3aa 453d
000002e0: 8c87 5ebd c2e6 a63d dd0d 083c bdd8 4a3d
000002f0: 2f7f 4139 f246 803d 7f1e 85bc 02a9 65bd
00000300: 5af8 b93d 2677 353d eb1a a2bd 05e1 63bc
00000310: 17df a33c 5c5f 053e e960 3e3e 2dc4 01bd
00000320: 58ef 3d3e 8dca ca3c 95b9 9dbd 0a8a 84be
00000330: 737a d23b 859f fdbd a826 283e 0091 cebd
00000340: b6f3 8d3c 2fc8 453d ceac 423c e81b fc3d
00000350: 7afd b73d 3b8c 3fbd 1459 42bc 2f91 a93e
00000360: 6e19 19be d998 25bc b15a 68bb 9742 8fbe
00000370: 80eb a13d a063 11bd dd23 a43c 08f0 3a3b
00000380: f983 3ebe 0926 ac3c 4258 edbc afcf acbd
00000390: f362 76bd b3da e13c 03b4 353c f9ed 9bbd
000003a0: 2c1b 91bd bf8c 0abe 60b7 42bd 78f9 1ebd
000003b0: 4de8 fb3c 0eaf 093d 7f33 e9bd 6d42 74bd
000003c0: c4fe 29be 2ab7 34bd 9251 793b 7699 503d
000003d0: 16f0 403d caad 29bc 8397 df3d 6a2f e8bc
000003e0: 27b8 a1be ea1f 10bc 3882 f6bd 484c 473c
000003f0: 077c 49bc 0dab 8bbd 07f7 263b a77f a1bd

enc.7.bias f4 [10]
-0.06637655 -0.09034544 0.06074312 -0.03104657 0.0046788678 0.060788333 -0.007243038 0.065847725
0.0476346 0.01908754
00000000: 6ef0 87bd 0807 b9bd c7cd 783d 6055 febc
00000010: 3051 993b 30fd 783d 0257 edbb 2cdb 863d
00000020: 801c 433d 795d 9c3c

dec_1.0.weight f4 [250, 10]
0.21748313 0.063582286 -0.016671235 -0.101550445 -0.23652983 0.24809672 -0.08129127 0.3105228
0.08062347 -0.057944093 -0.25895804 -0.0033195307 0.08354816 0.3448815 0.4467527 0.15412368
-0.24232988 -0.25462824 -0.002330385 0.01248746 0.32522923 -0.16665825 -0.02224509 0.06723234
0.466965 0.42200875 -0.3240247 0.08326334 0.17545111 0.0805313 0.0850307 -0.04379311
-0.012503726 0.14339021 -0.02569971 0.18204734 -0.14399149 -0.116720155 -0.07066322 0.03208969
0.04353914 -0.012603846 0.052694853 -0.077926785 0.07209405 -0.21210366 0.014591146 0.2168787
0.07788872 -0.032118488 0.07271158 0.001186385 -0.00748755 0.152451 -0.18217133 0.01646048
-0.24581823 0.056858774 -0.2876546 -0.12530777 0.051000334 0.06256864 0.33886087 0.27097628
0.16703974 -0.03165792 0.33036178 0.5478283 -0.12476123 0.06861293 -0.27251235 0.09204838
0.060549702 -0.25977382 -0.03836732 -0.09171911 -0.30817103 -0.1225131 -0.20320909 0.1514872
0.21568534 0.81874895 -0.09702802 0.01595877 0.028567178 0.30028638 0.16842118 0.18984595
0.084976874 0.27697548 0.32796782 -0.1161893 0.021891406 0.096430175 -0.16575125 0.3384984
0.34200487 0.24288791 -0.22555949 0.32752338 -0.046732254 0.23838283 -0.0121655585 -0.17541075
-0.2624228 0.013012875 0.06406941 -0.14007059 -0.35919756 -0.2324319 -0.14231782 -0.13119964
-0.26268554 0.059217244 -0.116176166 -0.07036897 0.24814188 0.069719315 -0.046130404 0.19939055
0.46047696 0.015627857 -0.1775321 0.10655172 -0.091082 -0.5331382 0.18007642 0.4746131
-0.27208534 0.50854 -0.08120082 0.1788281 -0.22370566 0.32819617 -0.14126734 0.40947384
0.039261483 -0.40420923 -0.034106065 -0.05157973 0.09280922 0.30894697 -0.23804726 -0.0076680947
0.020295208 -0.03300441 0.18494338 0.45653087 -0.16629209 -0.43610737 0.34430876 0.28893575
0.07714451 -0.31046373 0.5151256 0.05796976 -0.1081457 0.32133284 0.031942368 0.185639
-0.025063016 -0.014096052 -0.07769378 0.12294046 -0.09965457 0.14884427 -0.18012406 -0.15091856
0.04555 0.025704812 0.37340835 0.26524708 0.05678453 -0.29106465 0.22993053 0.3072012
0.44584 0.19301939 0.37026018 0.17638367 -0.15699717 -0.08167126 -0.12469526 -0.0047365893
0.41774067 0.2003221 0.50338453 -0.13723814 -0.19726086 0.04856776 -0.26124963 0.0515758
0.2450304 -0.19128625 -0.15709563 0.12127247 -0.12928736 0.032195877 -0.12517 0.3083618
-0.054583896 -0.022870788 -0.24123356 -0.024237221 0.099922344 -0.059038747 0.084216006 -0.09181749
0.095391735 -0.0051515982 -0.24801786 -0.0036315464 0.057716254 0.18171372 -0.12469413 -0.106910124
0.13155405 -0.11930467 0.023020247 0.21262254 -0.13416511 0.107306965 0.38241205 0.34097266
-0.16851005 -0.19740336 -0.06378421 -0.3254999 -0.23702027 0.19166358 -0.1369771 0.025137411
0.6395706 0.16429819 0.06867836 -0.6159864 -0.062179565 0.096748486 0.016866045 0.15473479
-0.34748223 0.13789515 -0.15811664 0.17827834 0.3046741 0.41891342 -0.18580967 0.24609615
-0.14722925 0.21653813 -0.35130614 0.41722926 -0.12838703 0.35955337 0.20815627 -0.06350237
00000000: e6b3 5e3e 6e37 823d 1d92 88bc aef9 cfbd
00000010: e034 72be 110d 7e3e 0a7c a6bd d8fc 9e3e
00000020: eb1d a53d c956 6dbd 2696 84be 7c8c 59bb
00000030: 4c1b ab3d 4f94 b03e c5bc e43e 99d2 1d3e
00000040: 5325 78be a25e 82be 5fb9 18bb 3498 4c3c
00000050: 7284 a63e 76a8 2abe 563b b6bc 1cb1 893d
00000060: 0916 ef3e 8811 d83e 91e6 a5be f885 aa3d
00000070: 75a9 333e 98ed a43d 9324 ae3d 6760 33bd
00000080: 6edc 4cbc e2d4 123e 3388 d2bc 9e6a 3a3e
00000090: 8172 13be fa0a efbd e1b7 90bd 7b70 033d
000000a0: 1956 323d 5d80 4ebc 8fd6 573d 1498 9fbd
000000b0: 0ca6 933d b431 59be b40f 6f3c 7315 5e3e
000000c0: 1f84 9f3d ad8e 03bd cfe9 943d 7a80 9b3a
000000d0: 1f5a f5bb 1d1c 1c3e 1f8b 3abe 21d8 863c
000000e0: c6b7 7bbe bfe4 683d 7747 93be ae50 00be
000000f0: bae5 503d fd23 803d 2c7f ad3e 67bd 8a3e
00000100: 770c 2b3e bcab 01bd 2e25 a93e 7a3e 0c3f
00000110: d182 ffbd f084 8c3d bd86 8bbe dc83 bc3d
00000120: f702 783d 1301 85be 0d27 1dbd 3bd7 bbbd
00000130: 98c8 9dbe 26e8 fabd 0b16 50be 761f 1b3e
00000140: 9edc 5c3e 8899 513f a0b6 c6bd f7bb 823c
00000150: b705 ea3c 23bf 993e 9a76 2c3e fa66 423e
00000160: 5b08 ae3d bbcf 8d3e 66eb a73e a8f4 edbd
00000170: 9b55 b33c 2f7d c53d b2ba 29be aa4f ad3e
00000180: 431b af3e 9cb7 783e 11f9 66be 25b1 a73e
00000190: 526a 3fbd a11a 743e 0d52 47bc e09e 33be
000001a0: 485c 86be f433 553c d336 833d aa6e 0fbe
000001b0: bee8 b7be a102 6ebe c3bb 11be 3359 06be
000001c0: b87e 86be c88d 723d c5ed edbd 9b1d 90bd
000001d0: e818 7e3e 00c9 8e3d 3cf3 3cbd 092d 4c3e
000001e0: a3c3 eb3e fe05 803c faca 35be ca37 da3d
000001f0: 3389 babd bf7b 08bf f465 383e 7d00 f33e
00000200: c54e 8bbe ad2f 023f 9e4c a6bd b71e 373e
00000210: 1913 65be 5409 a83e 63a8 10be 8ea6 d13e
00000220: a6d0 203d 83f4 cebe cdb2 0bbd 4445 53bd
00000230: c312 be3d 4c2e 9e3e a9c2 73be a444 fbbb
00000240: 2342 a63c a22f 07bd cc61 3d3e 6abe e93e
00000250: 7948 2abe 7749 dfbe 3d49 b03e 63ef 933e
00000260: f1fd 9d3d 1af5 9ebe 45df 033f b371 6d3d
00000270: 7e7b ddbd bd85 a43e 00d6 023d 2618 3e3e
00000280: f450 cdbc 21f3 66bc eb1d 9fbd 35c8 fb3d
00000290: b217 ccbd a26a 183e 7172 38be 658a 1abe
000002a0: a392 3a3d e692 d23c 612f bf3e 77ce 873e
000002b0: e596 683d 6d06 95be e972 6b3e 7a49 9d3e
000002c0: 2445 e43e e0a6 453e be92 bd3e ec9d 343e
000002d0: dec3 20be 4343 a7bd 3a60 ffbd 6435 9bbb
000002e0: 1be2 d53e 3d21 4d3e cfdd 003f 2888 0cbe
000002f0: c0fe 49be fdee 463d 83c2 85be 2541 533d
00000300: 40e9 7a3e 8be0 43be addd 20be b35d f83d
00000310: e863 04be d3df 033d 912c 00be 99e1 9d3e
00000320: 5d93 5fbd 855b bbbc ee05 77be 238d c6bc
00000330: 16a4 cc3d 9dd2 71bd 7179 ac3d cf0a bcbd
00000340: be5c c33d bdce a8bb 65f8 7dbe 3dff 6dbb
00000350: e167 6c3d 2913 3a3e a35f ffbd b2f3 dabd
00000360: 1bb6 063e 0256 f4bd f594 bc3c b9b9 593e
00000370: 9462 09be c1c3 db3d 83cb c33e f893 ae3e
00000380: e68d 2cbe 1b24 4abe 4ca1 82bd eca7 a6be
00000390: 71b5 72be 7543 443e ba43 0cbe f9ec cd3c
000003a0: e6ba 233f c93d 283e 3da7 8c3d 49b1 1dbf
000003b0: 00b0 7ebd 1224 c63d a92a 8a3c cc72 1e3e
000003c0: 31e9 b1be 6334 0d3e 54e9 21be 998e 363e
000003d0: 3efe 9b3e d27b d63e e444 3ebe a100 7c3e
000003e0: 44c3 16be 2cbc 5d3e 66de b3be 139f d53e
000003f0: e477 03be 6117 b83e eb26 553e 880d 82bd

dec_1.0.bias f4 [250]
0.62980217 -0.2817445 -0.23787634 0.0059188087 0.053917635 0.5517288 -0.05493961 -0.36954135
0.19870923 0.36710215 0.6043496 0.49650195 0.18883212 -0.46526968 0.24060842 -0.22204064
-0.04252545 0.060848463 0.1301698 0.05947511 0.53328305 0.72474086 0.044329688 0.41679263
-0.043729246 0.20871863 -0.20675851 0.38895643 -0.10129561 0.02733146 0.2568017 -0.02569727
-0.026761554 -0.2993386 0.30331948 0.30416435 -0.012160229 0.053121176 0.43661243 0.53981483
0.20965096 -0.23828657 0.22324651 0.8010641 0.14557527 0.48362643 -0.36885127 0.18686326
0.13551119 -0.25701222 -0.19006358 0.21137035 0.00081574556 0.241493 0.02995504 -0.025513621
0.13766667 -0.16593032 0.025151579 0.16513906 0.2722437 -0.08314533 0.28347707 -0.1870857
0.0125927655 0.18027028 0.23685923 0.6903238 0.048697136 0.10595228 -0.32515416 -0.14300267
-0.16807842 0.034674298 -0.40324426 0.28897086 -0.08673457 -0.017471742 0.16967316 -0.017151158
-0.094280384 -0.24139518 -0.24800988 -0.23942743 -0.1824917 0.09133198 0.33930525 0.21559307
-0.13105984 0.27206448 0.15135679 -0.05029315 0.19607891 0.34185442 -0.28196365 0.29009238
-0.06075652 -0.6037712 -0.3058449 -0.30811518 -0.19614682 -0.04799427 0.13933676 -0.13760732
0.33716068 0.34047493 -0.17054331 -0.008650023 0.1697267 -0.20299362 0.008383963 0.3390059
-0.16165943 0.32113186 0.12274431 0.58368844 0.343375 -0.27973846 0.15615468 0.6420691
0.33385953 -0.23686235 -0.42438638 0.10152985 -0.25491637 -0.31243452 -0.49712342 -0.067429274
-0.33657154 -0.15548494 -0.3061705 0.16184568 -0.068829075 -0.07751823 -0.09416872 0.17385606
0.63861173 0.5517884 -0.0735977 0.37529796 0.101773776 -0.19113894 -0.34913167 -0.3596566
0.57732993 0.25067648 -0.18551922 0.5362363 -0.042653635 0.21634501 0.17584239 -0.061954305
-0.09988057 -0.28812233 0.21982913 0.33436993 0.53944445 0.121948056 0.12921536 -0.5265135
-0.29213372 -0.117697515 0.33967745 0.0412494 0.20616123 0.020451779 -0.09305807 0.33987758
-0.1229575 0.15749674 -0.013905267 -0.25705868 0.50284743 -0.1459158 -0.2802095 0.1235994
0.52697074 0.61395574 0.13616079 -0.5250028 -0.35630932 0.32465807 0.19487832 -0.28176507
0.65708333 0.21578012 -0.05265803 0.31949842 0.3430437 -0.03036683 0.25259393 0.2482833
0.0063380413 -0.4590476 0.13322027 0.3601067 0.42296648 -0.54547036 -0.06700407 -0.49924096
-0.08043838 -0.31596613 0.53965455 -0.29100198 -0.35358623 -0.16804263 -0.1489042 -0.06994488
0.5842108 0.17327839 0.56397635 -0.23034148 0.11561702 0.007402443 -0.22306669 0.36448878
0.13773087 0.45835158 -0.27259946 -0.30125186 -0.18724936 0.003779086 0.550191 0.11411166
0.24369135 0.0027854936 0.2224425 -0.097526856 -0.15636998 0.56600213 0.2949588 0.38854125
-0.2403031 0.27695268 0.04543917 -0.21758151 0.04546546 -0.16335613 -0.24572037 0.4635492
0.46965888 0.58872694 0.096580066 -0.016939428 -0.030843213 -0.06433941 0.38938433 0.14741237
0.47396976 -0.546043
00000000: b73a 213f d140 90be db95 73be 91f2 c13b
00000010: bdd8 5c3d 193e 0d3f 5b08 61bd 8634 bdbe
00000020: 6f7a 4b3e d0f4 bb3e a8b6 1a3f 8135 fe3e
00000030: 355d 413e d437 eebe 0e62 763e 9f5e 63be
00000040: 2b2f 2ebd 3d3c 793d 3b4b 053e 2c9c 733d
00000050: 3d85 083f 9e88 393f 0c93 353d d865 d53e
00000060: 701d 33bd 56ba 553e 81b8 53be 4c25 c73e
00000070: 1374 cfbd 3ae6 df3c 837b 833e 1583 d2bc
00000080: 0c3b dbbc e942 99be b14c 9b3e 6ebb 9b3e
00000090: b23b 47bc 9795 593d aa8b df3e 4e31 0a3f
000000a0: beae 563e 6501 74be bc9a 643e 8912 4d3f
000000b0: af11 153e e29d f73e 13da bcbe 1559 3f3e
000000c0: 72c3 0a3e 1b97 83be 07a0 42be 7871 583e
000000d0: c2d7 553a f149 773e 4664 f53c f101 d1bc
000000e0: 7ef8 0c3e a3e9 29be af0a ce3c 371a 293e
000000f0: 8763 8b3e 1948 aabd e823 913e 6593 3fbe
00000100: e351 4e3c c698 383e 3a8b 723e 10b9 303f
00000110: a676 473d 82fd d83d 9b7a a6be 4b6f 12be
00000120: c01c 2cbe a306 0e3d 0876 cebe fdf3 933e
00000130: e5a1 b1bd e620 8fbc cdbe 2d3e 9680 8cbc
00000140: 1316 c1bd 4c30 77be 4df6 7dbe 772c 75be
00000150: 1bdf 3abe 430c bb3d 6bb9 ad3e 6ec4 5c3e
00000160: 8d34 06be 094c 8b3e 46fd 1a3e 3100 4ebd
00000170: e9c8 483e 8b07 af3e 8a5d 90be fd86 943e
00000180: d4db 78bd c090 1abf b497 9cbe 46c1 9dbe
00000190: b6da 48be a495 44bd 4cae 0e3e efe8 0cbe
000001a0: 53a0 ac3e bb52 ae3e e8a2 2ebe d3b8 0dbc
000001b0: d6cc 2d3e 8fdd 4fbe e45c 093c 2e92 ad3e
000001c0: 0d8a 25be 656b a43e 5e61 fb3d 9b6c 153f
000001d0: d9ce af3e e139 8fbe 03e7 1f3e a45e 243f
000001e0: a3ef aa3e 0b8c 72be 2c49 d9be e2ee cf3d
000001f0: 6684 82be 6bf7 9fbe f686 febe 5c18 8abd
00000200: 1b53 acbe 7237 1fbe 61c2 9cbe e0ba 253e
00000210: 42f6 8cbd e1c1 9ebd 88db c0bd 5307 323e
00000220: 0f7c 233f 0142 0d3f 64ba 96bd 0e27 c03e
00000230: c56e d03d edb9 43be 63c1 b2be e924 b8be
00000240: e5cb 133f ab58 803e c0f8 3dbe c846 093f
00000250: 94b5 2ebd 8c89 5d3e 0710 343e ccc3 7dbd
00000260: 2f8e ccbd c584 93be e31a 613e 8932 ab3e
00000270: 0819 0a3f e7bf f93d 0851 043e 97c9 06bf
00000280: 8d92 95be 650b f1bd 34ea ad3e 21f5 283d
00000290: ee1b 533e 7d8a a73c 3b95 bebd 6f04 ae3e
000002a0: 24d1 fbbd d346 213e ebd2 63bc 329d 83be
000002b0: 9cba 003f f46a 15be 9f77 8fbe af21 fd3d
000002c0: 8ee7 063f 342c 1d3f bc6d 0b3e 9566 06bf
000002d0: 2d6e b6be 9539 a63e 2f8e 473e 8343 90be
000002e0: 9d36 283f 77f5 5c3e f2af 57bd 4c95 a33e
000002f0: 6da3 af3e dcc3 f8bc fe53 813e fa3d 7e3e
00000300: 58af cf3b 4908 ebbe e56a 083e e85f b83e
00000310: 108f d83e f2a3 0bbf 6e39 89bd 839c ffbe
00000320: e1bc a4bd 50c6 a1be cd26 0a3f 36fe 94be
00000330: 4109 b5be 5e13 2cbe 587a 18be 433f 8fbd
00000340: d78e 153f e46f 313e c160 103f a3de 6bbe
00000350: 9ec8 ec3d 3190 f23b 986b 64be 469e ba3e
00000360: 5209 0d3e 0fad ea3e 2892 8bbe af3d 9abe
00000370: 4cbe 3fbe 8baa 773b 51d9 0c3f 60b3 e93d
00000380: 3a8a 793e d48c 363b f7c7 633e 29bc c7bd
00000390: 741f 20be 84e5 103f d704 973e e1ee c63e
000003a0: 0412 76be becc 8d3e 6c1e 3a3d b0cd 5ebe
000003b0: fd39 3a3d d446 27be 1f9e 7bbe 5256 ed3e
000003c0: 2177 f03e cfb6 163f c5cb c53d 8ec4 8abc
000003d0: e8aa fcbc 61c4 83bd 625d c73e 45f3 163e
000003e0: 2aac f23e 79c9 0bbf

dec_1.2.weight f4 [256, 250]
-0.049850635 -0.022794858 0.0030100571 -0.020673376 -0.029058555 -0.04478188 0.048289113 0.03941324
-0.035717238 -0.008298624 -0.0064913547 0.011899263 -0.05028502 -0.10972793 0.012336625 -0.012224235
-0.059546523 0.026031354 -0.07433309 -0.04343788 -0.13262187 -0.10322774 -0.028908525 -0.057037923
0.10938941 0.029511439 -0.014886506 -0.11055069 -0.08277627 -0.11967669 -0.066988185 -0.051911436
0.08189409 0.025986467 -0.054275732 -0.044935517 0.05045535 0.0014412204 -0.061144244 -0.09940719
0.028947819 0.0061750044 0.0043622833 0.020810572 -0.0500942 0.004913226 -0.093057655 -0.0030073822
-0.073684834 0.04236064 -0.0315671 -0.023046155 -0.08167507 -0.09739817 -0.046392888 -0.08168094
-0.021465318 0.022040538 0.011817089 0.01586074 -0.07130132 -0.09795206 -0.06381066 -0.06873277
-0.10111924 -0.015200913 -0.054231577 -0.021000162 -0.03949331 -0.024207233 0.03475843 0.034089476
-0.027256083 -0.061759945 -0.059377667 -0.10700177 -0.010837688 -0.03990882 -0.06813776 0.06754936
-0.063149884 -7.9721365e-05 -0.0015599577 0.027003711 -0.07485115 -0.060863167 -0.011565006 -0.08455423
0.03740798 -0.10783884 -0.13460109 -0.060087364 -0.06048833 0.016567014 0.0078033605 -0.08819903
-0.13044769 0.026463572 0.0020828927 -0.049681302 0.024913186 0.032024488 -0.111510515 -0.07251451
0.02643856 -0.07091046 -0.14423524 -0.05622644 0.008358933 -0.031069173 -0.07189975 -0.045648057
0.013678724 -0.039617606 -0.022185782 -0.08116679 -0.023539806 0.07144863 -0.08609151 -0.063807435
-0.036035083 0.0015640251 0.027999168 -0.03400326 0.027693026 -0.025759598 -0.047071792 -0.056598864
-0.045628138 0.0026972918 -0.05380748 0.002724676 0.036357872 -0.048940286 -0.08102494 -0.03464456
-0.15349998 -0.021424133 0.020165702 -0.05236444 -0.11102251 -0.011570847 0.034992434 0.092644304
-0.05811122 -0.09040705 0.0123862475 -0.022029659 -0.07148339 -0.009581733 -0.04549629 0.031790655
-0.021739677 -0.021591252 0.021577746 0.011425086 -0.033395484 -0.017236652 -0.014360048 -0.065960355
-0.03206655 -0.13555698 -0.037155062 -0.04278342 -0.028635988 0.062374327 -0.037162777 -0.029608821
0.04394212 0.002017159 -0.04984291 0.012453891 -0.08527231 -0.020480536 0.004199224 -0.022366786
-0.016562816 0.011457554 0.054088473 -0.0044338675 0.036137123 -0.06464912 -0.11465247 0.013145128
-0.024606433 -0.04450682 -0.044159703 -0.094126485 0.00064838375 0.03589135 -0.061578233 -0.015011569
0.02081551 0.0057344665 0.0782121 0.03583652 -0.104225524 -0.03768532 2.3259841e-05 -0.010858164
-0.110698834 -0.07743541 -0.090946205 0.058468517 -0.008992092 0.008676219 0.0074937935 -0.0138594145
-0.060885735 -0.029244244 0.018479515 -0.030039217 0.08920268 -0.03882195 -0.028774738 -0.061155315
-0.059061427 -0.027874436 -0.014219242 -0.007849096 -0.11820373 -0.009941114 -0.107764594 0.029856259
-0.0018944571 -0.020549485 -0.056874704 -0.0110814925 0.05142076 0.055650994 -0.12322163 -0.080675654
-0.075096026 0.074963905 -0.081770115 -0.10402507 -0.029471004 -0.012643701 -0.0033567036 -0.006937367
0.06169937 -0.048279703 -0.05378281 -0.0012607962 -0.003321801 0.03330993 -0.068247534 -0.028865267
-0.10603489 0.052080765 -0.06647776 0.013201175 -0.0025883862 -0.012282032 0.017871428 -0.037759807
00000000: 2e30 4cbd 48bc babc 6144 453b 365b a9bc
00000010: 350c eebc 346d 37bd ceca 453d c76f 213d
00000020: 3d4c 12bd f4f6 07bc 6eb5 d4bb 20f5 423c
00000030: aaf7 4dbd 09b9 e0bd 8e1f 4a3c 2848 48bc
00000040: 0ee7 73bd b53f d53c f23b 98bd ebeb 31bd
00000050: 07ce 07be 1169 d3bd 92d1 ecbc 99a0 69bd
00000060: 8e07 e03d f9c1 f13c 88e6 73bc 6668 e2bd
00000070: 9b86 a9bd 0d19 f5bd 1a31 89bd 16a1 54bd
00000080: 17b8 a73d 92e1 d43c 3b50 5ebd 4e0e 38bd
00000090: 45aa 4e3d 55e7 bc3a 6372 7abd ff95 cbbd
000000a0: fa23 ed3c b157 ca3b 7cf1 8e3b ef7a aa3c
000000b0: 932f 4dbd 20ff a03b 0395 bebd 8017 45bb
000000c0: 13e8 96bd 5a82 2d3d 814c 01bd 4acb bcbc
000000d0: 4245 a7bd b178 c7bd 7806 3ebd 5648 a7bd
000000e0: 09d8 afbc 5c8e b43c 779c 413c 62ee 813c
000000f0: 6d06 92bd 179b c8bd 2aaf 82bd c4c3 8cbd
00000100: 9b17 cfbd 400d 79bc ee21 5ebd 8808 acbc
00000110: bdc3 21bd 3f4e c6bc db5e 0e3d 68a1 0b3d
00000120: 2648 dfbc fff7 7cbd ff35 73bd be23 dbbd
00000130: 8f90 31bc 6e77 23bd cf8b 8bbd 5257 8a3d
00000140: ba54 81bd 1530 a7b8 7f77 ccba e336 dd3c
00000150: 8f4b 99bd a84b 79bd 277b 3dbc c52a adbd
00000160: 1c39 193d 9cda dcbd ded4 09be 2b1e 76bd
00000170: 9cc2 77bd 8cb7 873c 55b3 ff3b b1a1 b4bd
00000180: 1494 05be 22ca d83c 2481 083b 9f7e 4bbd
00000190: bd16 cc3c 1c2c 033d a05f e4bd 7d82 94bd
000001a0: ae95 d83c 8139 91bd 67b2 13be b24d 66bd
000001b0: e8f3 083c c784 febc 2d40 93bd 75f9 3abd
000001c0: ba1c 603c 1246 22bd f5be b5bc c63a a6bd
000001d0: 8dd6 c0bc a953 923d bf50 b0bd 79ad 82bd
000001e0: 8699 13bd f9ff cc3a 835e e53c 0147 0bbd
000001f0: 7cdc e23c cb05 d3bc 5ace 40bd 36d4 67bd
00000200: 92e4 3abd 0cc5 303b 3b65 5cbd 7a90 323b
00000210: feeb 143d 9c75 48bd 67f0 a5bd 74e7 0dbd
00000220: 192f 1dbe aa81 afbc 8b32 a53c 187c 56bd
00000230: c55f e3bd a693 3dbc 3a54 0f3d 4cbc bd3d
00000240: 0806 6ebd 5527 b9bd b0ef 4a3c 8b77 b4bc
00000250: e265 92bd b3fc 1cbc 515a 3abd eb36 023d
00000260: 6817 b2bc 23e0 b0bc d0c3 b03c 4930 3b3c
00000270: b4c9 08bd e133 8dbc 6846 6bbc 3916 87bd
00000280: 3758 03bd 73cf 0abe e82f 18bd ab3d 2fbd
00000290: 0596 eabc 397c 7f3d ff37 18bd 338e f2bc
000002a0: a7fc 333d 5032 043b 1428 4cbd 680b 4c3c
000002b0: 40a3 aebd ccc6 a7bc a599 893b 8d3a b7bc
000002c0: beae 87bc 77b8 3b3c e08b 5d3d fa49 91bb
000002d0: 8504 143d c266 84bd eace eabd aa5e 573c
000002e0: 6e93 c9bc c94c 36bd cee0 34bd 63c5 c0bd
000002f0: 4cf8 293a cf02 133d 7539 7cbd 15f3 75bc
00000300: 4a85 aa3c 31e8 bb3b aa2d a03d 51c9 123d
00000310: 3174 d5bd ec5b 1abd 211e c337 71e6 31bc
00000320: 12b6 e2bd 7596 9ebd 0142 babd af7c 6f3d
00000330: 9153 13bc b326 0e3c 7f8e f53b 9912 63bc
00000340: 5263 79bd a091 efbc 5a62 973c ce14 f6bc
00000350: e5af b63d c403 1fbd 00b9 ebbc ff7d 7abd
00000360: 65ea 71bd ee58 e4bc d3f7 68bc 7f99 00bc
00000370: cc14 f2bd 0ee0 22bc afb3 dcbd 1d95 f43c
00000380: 6f4f f8ba 6557 a8bc 73f5 68bd 268f 35bc
00000390: 939e 523d 4cf2 633d 9f5b fcbd 4739 a5bd
000003a0: f2cb 99bd ad86 993d 1777 a7bd 190b d5bd
000003b0: 2d6d f1bc 8727 4fbc 24fc 5bbb da52 e3bb
000003c0: 7bb8 7c3d f0c0 45bd 5d4b 5cbd 4d41 a5ba
000003d0: 93b2 59bb fe6f 083d 5dc5 8bbd da76 ecbc
000003e0: d228 d9bd a452 553d 7e25 88bd be49 583c
000003f0: eaa1 29bb 933a 49bc 1a67 923c 07aa 1abd
