02_cnn/1_lenet5.pth (torch, 180743 bytes, 10 tensors)

model.0.weight f4 [6, 1, 5, 5]
000000 f0 fb 98 bd 91 9b 52 3e 19 2d f2 bb d3 d4 38 be
       -0.07469928 0.20567156 -0.00739063 -0.18049936
000010 a8 08 8e be a6 00 d6 bd 6d a7 42 3e bd df 4c 3e
       -0.2774098 -0.104493424 0.1900918 0.20007224
000020 e9 ce f7 3d ad 07 d3 3d e8 63 05 bd 6a 13 15 be
       0.12100012 0.103041984 -0.03256598 -0.14558187
000030 cc 64 34 be 49 d1 b3 bd f4 25 4c 3e 6d dd 8b bb
       -0.17616576 -0.08780152 0.19936353 -0.0042683394
000040 59 31 25 3d 1b c9 05 3c 23 3c f6 3b 35 81 30 3e
       0.040330265 0.008165623 0.007514493 0.17236789
000050 fd b4 82 3e d4 2d a1 3d 05 5c d8 3d fa 1d 4f 3e
       0.25528708 0.07870069 0.10564426 0.20226279
000060 fa ea bc 3c be 1e 1d bf e9 8c 85 be 0d 19 fe bd
       0.023061264 -0.61375034 -0.26084068 -0.12407122
000070 82 44 a6 3d 03 df 51 be a8 f0 fd be 1d 43 e1 be
       0.081185356 -0.20495228 -0.4959767 -0.43996516
000080 a2 7f af be 18 59 b5 bd f1 f6 18 be 19 4d 2a bf
       -0.34277064 -0.08854884 -0.1493795 -0.6652389
000090 35 a9 23 bf d4 f7 62 be 1a 1c 38 3d 15 c0 18 be
       -0.63930064 -0.22164851 0.044948675 -0.14917023
0000a0 53 68 13 bf f2 02 d9 be 51 2a 80 be 73 21 31 3e
       -0.5758106 -0.4238506 -0.25032285 0.17297916
0000b0 f9 7b af 3d 36 9f df be 2f 78 e2 be ac 5f 48 bd
       0.08568568 -0.43676156 -0.44232318 -0.048919365
0000c0 49 8b 7b 3d d2 4a 8e 3e 33 52 d5 3e d7 28 da 3b
       0.06141213 0.27791458 0.41664276 0.0066577005
0000d0 93 87 4d 3e 5d f1 a0 3c fc df 72 3e d8 8d be 3e
       0.20071249 0.019646341 0.23718256 0.37217593
0000e0 bf f8 7c 3e c9 da 28 3e 02 ca 8b bd 64 36 8f 3e
       0.24704264 0.1648971 -0.06825639 0.27971184
0000f0 9c 80 36 be 54 f1 79 3e ea d6 39 3e a2 68 91 be
       -0.17822498 0.24408466 0.1814839 -0.2840014
000100 e1 ff 4d 3e 19 1f f0 be 11 b7 74 be 37 45 21 3d
       0.20117141 -0.46898726 -0.2389796 0.03937265
000110 78 29 99 be 89 04 cb bd 1e 49 30 be 66 e3 05 be
       -0.2991445 -0.099129744 -0.17215392 -0.13075027
000120 3e 30 16 be 8a b6 b1 be c4 b4 81 be d9 b1 f7 3d
       -0.1466684 -0.3470958 -0.25333226 0.120944686
000130 bc 1f 55 bb 25 a5 2f 3d af 53 ab 3e 0a 53 83 3e
       -0.0032520136 0.042882103 0.33462283 0.2564929
000140 6b 4d b7 3d af 01 a1 3b bd be 9e 3e 44 4e 9c 3e
       0.08950313 0.004913531 0.31004897 0.30528462
000150 0d db 68 3e 60 d6 40 3e dd b6 60 3d 85 cc 0b 3e
       0.22739811 0.18831778 0.054861892 0.13652237
000160 8a ce 18 3e 55 84 52 3e fe fb ad bd 60 ee 8a 3e
       0.14922538 0.20558293 -0.08495329 0.2713499
000170 d5 4d 10 3e 16 c0 f6 bc f2 84 3e 3e 60 c0 65 3d
       0.1409219 -0.03012089 0.18605402 0.056091666
000180 e0 6e 21 3e a5 d0 a0 3e 51 4a 84 3e 53 f4 4f 3e
       0.15764952 0.31409183 0.2583795 0.20308046
000190 b3 b0 a1 3e c6 1c 96 3e 96 59 21 3e 0a 72 b9 bc
       0.31580123 0.29318827 0.1575683 -0.022637386
0001a0 01 3e 6a bf a1 a2 ce bd 9e a8 25 3e 7b 42 15 3f
       -0.9150086 -0.10089613 0.16177604 0.58304566
0001b0 b7 a0 a7 3e 09 26 48 bf 18 3c c4 3c 89 94 b0 bd
       0.32739803 -0.7818304 0.023954436 -0.08622081
0001c0 1b e7 b4 3e 0e a3 9a 3e 01 ba c3 be e7 d6 22 3e
       0.3533257 0.30202526 -0.38227847 0.15902291
0001d0 45 84 80 be 99 08 14 3f f0 5a 31 3d 18 5d f2 be
       -0.25100914 0.5782562 0.043299615 -0.4733665
0001e0 8e f3 0e be 17 bf 05 be ae b8 f2 3e 40 a2 39 bd
       -0.13960096 -0.13061176 0.47406524 -0.04532075
0001f0 f1 1a 81 be 03 d6 c0 3d 9b 7a 04 3f ce 32 bb 3d
       -0.25215867 0.094158195 0.5174958 0.091405496
000200 90 fe b1 be 8f 61 b2 be 95 70 1c 3e f7 f9 47 3e
       -0.34764528 -0.34840056 0.15277322 0.19528948
000210 f5 8d 16 bc 0e 77 9f be 4b e6 e0 be 99 eb 30 be
       -0.009189119 -0.3114552 -0.439257 -0.17277373
000220 06 fe 39 3d e8 05 8e 3d e2 a3 58 bd 75 d6 00 3b
       0.04540827 0.0693472 -0.052890666 0.0019659076
000230 c6 ff ea 3d ab 81 e2 3d d2 8e 2d bd 2c 17 dd 3d
       0.11474566 0.110598885 -0.042372532 0.10795435
000240 f9 57 9e bb 82 9f 2e 3e 72 e0 aa 3e 4e cf 19 3d
       -0.0048322645 0.17053035 0.33374363 0.037551217
000250 93 92 89 be 98 ac 3c 3e
       -0.2686964 0.18425214

model.0.bias f4 [6]
000000 2f 61 be 3e 0f c9 d9 be 6e 5c 25 3f 19 31 c1 bd
       0.3718352 -0.42536208 0.6459416 -0.09433193
000010 81 8b a5 3e 4e 69 2d 3f
       0.32332996 0.6773881

model.3.weight f4 [16, 6, 5, 5]
000000 e3 ef 56 bd e4 2a 9f bd 8f ee c8 bd 23 91 27 3d
       -0.052474868 -0.077718526 -0.098111264 0.040909898
000010 52 22 bc bd af 3c 4f bd 03 bc d8 3c 23 25 c1 3c
       -0.091862336 -0.05059498 0.026456838 0.023577278
000020 8c ec 8d bd 63 18 81 bb bc c4 26 bd 32 14 a5 3b
       -0.06929883 -0.0039396747 -0.040714964 0.005037808
000030 51 90 13 3d 95 5c 4c 3b 67 cb c9 bd f3 e1 3f bd
       0.036026303 0.0031183113 -0.09853249 -0.04684634
000040 8f 8c 3f 3c 32 cc 82 bd dd 49 a1 bd 36 64 96 bd
       0.011691227 -0.063866034 -0.078754164 -0.073433325
000050 27 f0 61 bd 44 29 26 bd 7d 15 f4 3c 34 fd 19 3d
       -0.055160668 -0.040566698 0.029795403 0.03759499
000060 10 63 76 3c e4 73 1a 3e e7 3b 24 3e a5 f9 3d 3e
       0.015038267 0.15083271 0.16038476 0.18552263
000070 89 95 87 3b 87 ef 62 bb 87 55 ad 3d 45 cd 4e 3c
       0.004137699 -0.0034627633 0.08463579 0.012622182
000080 86 6f 33 3e 7b 0d 27 3d 97 83 27 bd 1c c4 45 bd
       0.17523012 0.04078434 -0.04089698 -0.048282728
000090 e2 72 43 bd 97 0b e4 3d 77 52 98 bd c7 ed 75 bc
       -0.047716983 0.11135023 -0.07437604 -0.015010304
0000a0 39 e4 10 be 49 4e 5f bd 7e 3e 1d 3d 45 85 0f 3d
       -0.1414956 -0.054518018 0.038389675 0.035039205
0000b0 e8 8a 82 bd 10 81 13 be 6a e6 13 be 96 5b 62 3d
       -0.063741505 -0.14404702 -0.14443365 0.055263124
0000c0 11 57 d9 bc 64 ac 30 be 47 1d 99 bd 33 a8 b8 bd
       -0.026530774 -0.17253262 -0.07476287 -0.090164565
0000d0 91 0a bb bd 3a 16 80 3c 33 c9 d9 bc 61 63 79 3d
       -0.09132875 0.015635598 -0.026585197 0.06088579
0000e0 d6 7a 07 3d 87 c0 32 3d 11 18 ab 3d 6f ab 14 bc
       0.03307613 0.04364064 0.083542 -0.009074076
0000f0 a8 14 e2 bc 3b b5 73 bd 17 e7 c4 3a 59 6f 95 bd
       -0.02759774 -0.059499007 0.0015022483 -0.072966285
000100 a3 dc ef 3b 52 2d 10 bd b7 8a 2b bc 8c fc 96 bd
       0.007320003 -0.03519947 -0.010470084 -0.07372388
000110 88 db 32 3d d6 3d 5c 3d 2c c8 6b bc 7c e8 80 bd
       0.043666393 0.05376991 -0.014390986 -0.06294343
000120 01 00 b0 bd 1d d0 8f bd 87 1e 8d 3c be a3 c7 3b
       -0.08593751 -0.07022116 0.01722647 0.0060925176
000130 6d 6d e0 bd 1b ce 8b 3c 0d 15 47 3a 5f d9 98 3d
       -0.10958371 0.017066052 0.00075943844 0.07463335
000140 3c cb f2 bc 19 c5 36 bd c8 10 b0 bd aa d2 7a bd
       -0.029637925 -0.04462156 -0.08596951 -0.06123606
000150 a1 44 58 3c 79 3d 9d 3d 2e ca 95 ba 22 29 a4 bc
       0.013199956 0.076777406 -0.0011428052 -0.020039145
000160 ff a6 0f 3d a9 d3 50 bd dc 5f 11 bd 12 2f 99 3c
       0.03507137 -0.050983105 -0.03549181 0.018699203
000170 b6 87 8e 3b 69 20 99 3d d1 8b c9 3c c1 72 d8 38
       0.004349674 0.07476885 0.024602802 0.00010321057
000180 8c 3e a0 3d 8e 55 bd 3d 47 10 93 bc 9e 7d 73 3d
       0.0782443 0.09244834 -0.017952098 0.05944597
000190 7c 31 d0 3d bc 61 2b 3d e7 53 19 3d d2 3f 95 bd
       0.101656884 0.041841254 0.03743353 -0.072875634
0001a0 17 cc 4e 3c 18 fa 86 bd e7 70 8c bc 8e d9 aa bc
       0.012621901 -0.0659067 -0.01714368 -0.020855691
0001b0 de de 88 3d af ce cd 3c b5 41 25 3d a4 ed 24 bd
       0.066831335 0.025122968 0.040345866 -0.040265694
0001c0 30 5f a3 bd 06 f0 d0 bc d4 18 ba 3d 33 76 d5 ba
       -0.0797714 -0.025505077 0.09086767 -0.0016285836
0001d0 03 e5 f0 bc e6 12 b4 bd 88 3e 02 bd ef d8 ee 3d
       -0.029406076 -0.08792667 -0.031797916 0.116624705
0001e0 0d ad 82 bd 2a a5 e8 bd ee 49 14 be d3 8d aa 3a
       -0.06380663 -0.113596275 -0.14481327 0.0013012238
0001f0 c3 00 36 3e 4b 4c 4b bd 89 8f 8f 3d 13 78 92 bd
       0.17773728 -0.049633306 0.07009799 -0.071518086
000200 33 60 b0 bd 43 2e 7a bd 41 b8 03 bd 50 9e 15 bd
       -0.086120985 -0.061079275 -0.03215814 -0.03652793
000210 94 03 47 3c 02 45 ba 3d c6 33 7b bd a7 4e 6b bd
       0.012146849 0.090951934 -0.061328672 -0.057448056
000220 2d 18 28 3d ae 1f 52 bb a0 bb 24 3c 6d 81 20 3c
       0.04103868 -0.003206234 0.010054499 0.0097964825
000230 55 85 56 3d 5d 96 98 bc 71 89 9c bd 9e d2 ec 3d
       0.05237325 -0.018626386 -0.07643402 0.115636095
000240 f1 e0 34 bd 85 f2 df 3c 08 87 fe bc c0 10 bc bd
       -0.044159833 0.027337322 -0.031070247 -0.09182882
000250 54 93 08 bd 1a f0 78 3d cc 7e 14 3d 91 9c 23 3d
       -0.033343628 0.060775854 0.036253735 0.039944235
000260 9f c5 86 3d 3e 14 66 3d fe d1 a2 3d 2b cd 23 3d
       0.06580662 0.05617165 0.07950209 0.039990585
000270 ca 8b ab bd 5b 13 34 bd 37 fe 44 bd 68 d2 da bc
       -0.08376272 -0.04396377 -0.048094 -0.026711658
000280 fe 49 86 3c 5a 89 27 3d d8 cc 67 3c d6 6d dc bb
       0.016392704 0.040902473 0.01414796 -0.0067269607
000290 08 18 72 3d 98 92 d9 3d 8a 18 fc 3d cc db af 3d
       0.05910495 0.10623664 0.12309368 0.08586845
0002a0 7b f0 b9 3d d4 5a 9a 3d 27 e9 65 3d 98 45 33 3b
       0.09079071 0.07536855 0.056130555 0.0027354714
0002b0 e3 65 3d bd 82 24 aa bd f8 44 e0 bc 77 34 4d be
       -0.046239745 -0.083077446 -0.027376637 -0.20039545
0002c0 fd 3e 5c bd 3d 6e ad 3c 69 08 cb bc 8a 5a 50 3e
       -0.053771008 0.02117073 -0.024784284 0.20347038
0002d0 c7 0a 1c bd 51 c2 ef 3d 82 19 9b bc f4 c6 e2 bc
       -0.038096216 0.11706985 -0.018933062 -0.027682759
0002e0 2d cf 3d 3e 4d 06 2b 3d 0c 5b a8 3d c0 79 d6 bb
       0.18536063 0.041754056 0.08220491 -0.0065452754
0002f0 0c ee 9c 3d 34 9b 6e bc 12 03 64 3e 39 86 81 bd
       0.07662591 -0.0145633705 0.22266796 -0.06324429
000300 f4 8a 11 be 5c 38 27 be 75 af c7 bd be 98 66 3c
       -0.14213163 -0.16330093 -0.09750263 0.0140745025
000310 e6 74 0d be ee 90 87 bd 0b 16 cb bd bd e4 23 bc
       -0.13814124 -0.0661944 -0.09916314 -0.010003266
000320 c5 38 24 3e ca c3 04 3e b4 5a 1a 3e 4b ab 26 3d
       0.16037281 0.12965313 0.15073663 0.0406907
000330 4b 63 c1 3d ce fc 2b 3d b2 51 23 3a 25 06 64 3d
       0.09442767 0.04198914 0.000623013 0.055669922
000340 ae ae 83 bd ea a6 3e bd ba 46 d4 3c 3a 03 fa bd
       -0.06429802 -0.0465459 0.025912631 -0.12207647
000350 2e dd 02 be 91 dd 21 3d 83 55 b7 3d 3f 35 dd 3d
       -0.12779686 0.039517943 0.08951857 0.108011715
000360 ed 96 d2 bd 43 d9 fb bc 01 63 5f bd 26 8c 39 3c
       -0.10282693 -0.030743247 -0.054537777 0.011324918
000370 60 30 1f 3d f0 24 0c 3e 27 7d 51 3e 34 0a 8d 3e
       0.038864493 0.13685966 0.20457898 0.27546847
000380 b3 27 63 3e fe 2a bb bd f5 5b 95 bd 2e 56 90 bd
       0.22183113 -0.091390595 -0.0729293 -0.070476875
000390 45 78 f5 bd cd f5 d9 3c b8 1d ea bc 63 d4 b9 bd
       -0.1198583 0.026606465 -0.028578624 -0.09073713
0003a0 8a e5 06 3d 0f 12 b8 bd 7f 44 84 3c 81 4c 87 bd
       0.03293375 -0.089878194 0.016145943 -0.06606389
0003b0 d7 2a 4d bd 39 7f d0 bd aa 71 aa bc c9 41 6d bd
       -0.050089683 -0.10180516 -0.020806152 -0.057924066
0003c0 4f 04 21 3d cc 7a a4 3d fb 15 c1 3d 81 72 a0 3d
       0.03931075 0.08031234 0.094280206 0.0783434
0003d0 44 a3 bb 3d 93 57 13 bd b2 6a a1 3d a4 90 82 bd
       0.09162 -0.03597219 0.07881679 -0.06375244
0003e0 c3 e0 d9 39 f0 cc 97 bc c2 ba d1 3d e3 e3 1f bc
       0.00041556926 -0.018530339 0.10240699 -0.009758922
0003f0 9e fd 2a bd 52 75 7c bd 1c dc 14 bd bb 9d 5d 3c
       -0.041745774 -0.061635323 -0.036342725 0.013526375

model.3.bias f4 [16]
000000 fd fb d9 bc f8 ff 2e 3e 59 3c 72 bd 08 90 b2 3d
       -0.026609415 0.17089832 -0.059139583 0.08718878
000010 d6 bb 94 3d 50 3b b1 3d 92 51 cb bc 6b ac ce 3c
       0.07262389 0.08653891 -0.02481917 0.0252287
000020 9f 12 f6 3a ab 64 68 3c 89 db 0f 3d 44 d4 9e bc
       0.001877386 0.014184157 0.035121474 -0.019388326
000030 9a d2 4d bd 5e 8e 61 3a b1 6f 5d 3d 6c 2a 3f bd
       -0.050249673 0.0008604283 0.054061595 -0.046671316

model.7.weight f4 [120, 256]
000000 da 4b c4 3b a1 c4 08 bd d6 dc a7 bc 09 f5 40 3d
       0.0059904875 -0.033390645 -0.020491045 0.047108684
000010 16 f6 48 3c a5 fe 6a bd 60 82 73 bd 73 10 26 bd
       0.012265703 -0.057371754 -0.059450507 -0.04054303
000020 86 b1 0c bd bb 55 92 bc 59 96 3b bd 25 c0 13 bd
       -0.034348987 -0.017863145 -0.04579768 -0.036071915
000030 55 7f 31 3d 1e 98 62 bd b6 35 40 bd df ab 78 3d
       0.043334324 -0.05532085 -0.046926223 0.060710784
000040 ea bc 44 3d 78 8f 5e bd 2f 40 83 bd d0 d5 6a 3d
       0.048031725 -0.05433604 -0.064087264 0.057332814
000050 4f d0 e6 bc d9 ec a1 bc a3 9a 37 bd 3a c4 07 3c
       -0.028175501 -0.019766258 -0.044825207 0.00828653
000060 16 75 24 bd 52 c6 2f bd 41 cb 4d bd 9c 2b 58 bd
       -0.040150724 -0.042913742 -0.050242666 -0.052775964
000070 93 b3 e1 bb 51 34 10 bd a0 d0 4d bb 8a f1 28 3d
       -0.006887862 -0.035206143 -0.0031404868 0.041245975
000080 5d e1 1d 3d b1 24 61 bc 8f 7b 41 bd cc b1 52 bc
       0.038545 -0.013741658 -0.047236975 -0.012859773
000090 48 89 d9 bc 7d 6f 45 3d d6 d5 3e bc b2 0f 57 bd
       -0.026554719 0.048202027 -0.011647662 -0.052505203
0000a0 36 17 55 3d de 1e 58 bd ec 4e ab bc 0b 52 f6 3c
       0.05202409 -0.052763812 -0.020911656 0.030068418
0000b0 e7 77 63 3a 2e e2 63 bd b6 04 4b bd 61 a1 8e 3b
       0.00086772296 -0.055635624 -0.04956504 0.004352734
0000c0 ae 79 80 bd 9c 60 70 3c 3c 48 7c bd 5f 5d 3c 3b
       -0.062732086 0.014671471 -0.061592326 0.0028742177
0000d0 be 25 0e bd e6 b3 1d 3d 9f 0a 41 3b 77 09 dc bc
       -0.034703963 0.038501643 0.0029455794 -0.026859982
0000e0 80 0c 9a ba 22 d1 1e bd 4a 85 32 bd 68 b3 3f bd
       -0.0011752993 -0.038773663 -0.043584146 -0.046801955
0000f0 13 9a 32 3d 33 b1 cb bc 47 89 bd bb f5 60 8c 3c
       0.043603968 -0.024864769 -0.005784187 0.017136076
000100 5d 29 c3 bc 0b 2e 4e 3c b5 19 07 bc 5a 94 fa 3c
       -0.023823434 0.01258422 -0.008245875 0.030588318
000110 3b f5 08 bd 1b cf eb 3c 87 a9 28 3d ca ca ff bc
       -0.033436995 0.028785279 0.0411773 -0.031224627
000120 ba 0d 6f 3d 93 51 6f bd 2d 12 3b bd af 8e eb bc
       0.0583627 -0.058427405 -0.04567163 -0.02875456
000130 20 ca 01 3d 89 16 41 bc 74 cc 75 bd de ef be 3c
       0.031686902 -0.011785158 -0.060009435 0.023307737
000140 c8 32 f2 3c 4f e4 54 bd f7 c2 e4 3b e7 cf f3 3b
       0.02956523 -0.051975545 0.0069812494 0.0074405554
000150 b7 fe 6e bd 6a 91 04 bd 6f b3 06 bb be e4 1f bd
       -0.058348384 -0.03236524 -0.0020553728 -0.039036505
000160 e4 98 f2 3c a9 80 34 3d 53 96 81 bc aa e5 82 3d
       0.02961392 0.044068012 -0.01581875 0.06391461
000170 10 a5 33 bd fd ff 41 3a 31 97 6d bc 90 5e 11 bd
       -0.043858588 0.0007400511 -0.014501379 -0.035490572
000180 23 8b 12 3d 70 25 e0 3b 79 84 6c bd 7a 4d 48 3b
       0.035777222 0.0068404004 -0.057743523 0.0030563758
000190 4e 65 42 bc 4b 53 19 3d 2d 47 5c bc 26 12 ee 3c
       -0.011864973 0.03743295 -0.013444704 0.029061388
0001a0 55 50 0a 3d 92 a8 9f bc 5e 21 69 3c 72 5a 87 bd
       0.033768017 -0.01948956 0.014229147 -0.06609048
0001b0 0c 81 45 bc f0 c1 ae bb c2 48 74 3d 8e e3 c4 bc
       -0.012054693 -0.0053331777 0.0596397 -0.024034288
0001c0 97 ec 32 3c f2 8c 13 3d 43 32 55 3d a3 02 21 3d
       0.010920665 0.036023088 0.052049886 0.039309155
0001d0 50 e7 c3 bc 07 b6 c6 bc 54 19 96 3d 4d 44 55 3c
       -0.02391401 -0.02425672 0.0732905 0.013016772
0001e0 70 8d 86 3d d1 6a 90 3d a6 45 a7 3b 5a 8e 67 3d
       0.06569946 0.070516236 0.0051047383 0.05653224
0001f0 ad 46 d5 3c 68 4e 02 bd ff d6 9b 3b 3b 0c 13 bc
       0.026034677 -0.031813055 0.004755854 -0.008975084
000200 8a b5 a4 bc 59 56 45 3d 92 87 c3 bc 8f 1e 3b 3d
       -0.020106096 0.04817805 -0.023868356 0.04568344
000210 53 78 59 3c 56 2e 20 bd 8d 8c 9b bd 54 3b 24 bd
       0.013273316 -0.03910669 -0.07595167 -0.040095642
000220 10 d0 4f bc 6c 5a 6f 3c 9c 06 84 bd ff 6e 18 3d
       -0.012683883 0.014608961 -0.06446573 0.03721523
000230 a7 e6 67 3c 53 c7 48 3d 5b 65 33 3d 4b ac 6f bb
       0.014154113 0.049018215 0.043797832 -0.00365712
000240 c0 d0 47 3d b4 65 42 bd 74 4c 37 bd 4c ba 3e 3d
       0.048783064 -0.047460273 -0.044750646 0.046564385
000250 d0 ee 7c 3c 8d b8 a3 bc b7 cc cf bc 36 4c a2 3b
       0.015437797 -0.019985462 -0.02536617 0.0049529327
000260 df b0 5d bd dd b0 4a 3c 47 80 65 bd dc 83 3c 3b
       -0.054123756 0.012371269 -0.056030538 0.0028765118
000270 bb 15 22 bd 4c e5 87 bd 7b 1b 64 bd dc 04 20 3d
       -0.039571505 -0.06635532 -0.05569027 0.039067134
000280 69 fc 65 3d f0 41 3f 3d cb 59 cb bc 7f e7 7c 3c
       0.05614892 0.046693742 -0.02482309 0.015436052
000290 ac 1c 3c bd 5b fa 36 3d 1e 64 8d 3d aa 6e c2 3c
       -0.04592578 0.04467235 0.069038615 0.02373441
0002a0 cb 0f ae 3b 45 4e 8c bc 76 ac 28 bd 2e 8e bc 3c
       0.0053119413 -0.017127166 -0.041180097 0.023017015
0002b0 18 09 22 3d 63 cd 53 3c 19 71 14 bd f3 32 9c 3d
       0.039559454 0.012927386 -0.03624067 0.07626905
0002c0 d7 c4 93 ba 55 2c 72 3d db 74 84 3d c5 0d 03 bd
       -0.0011273873 0.05912431 0.06467601 -0.031995554
0002d0 39 72 52 3d 8a fe 05 3c 5e 20 c9 bc 61 0c 8c 3d
       0.051378462 0.008178363 -0.024551567 0.068382986
0002e0 18 42 e3 bc fe 4f 45 bd b8 9c c5 bc 33 65 51 3d
       -0.027741477 -0.04817199 -0.02412258 0.0511219
0002f0 64 3b 70 bd 56 be 31 3d 5e 8c 22 3d 7d 72 59 bc
       -0.05865039 0.04339441 0.039684646 -0.013271925
000300 72 00 54 3b 26 25 15 bc af e5 0c 3d 7d 9f 5f bc
       0.0032348898 -0.009103095 0.03439873 -0.013648865
000310 93 c0 5b bb eb c8 13 3d a8 1d e9 bb 02 a7 f0 3c
       -0.0033531531 0.036080282 -0.007114131 0.02937651
000320 52 b3 35 bd f3 35 39 bc e1 78 50 bd 99 82 0f bd
       -0.044360466 -0.011304366 -0.05089653 -0.035036657
000330 4e 86 64 3d 92 46 49 3d fb dc 83 3c 09 b2 b2 bc
       0.055792145 0.049139567 0.016096583 -0.02181341
000340 63 e0 ed bb ce 7f 72 3b dc b9 0d bd 61 3c 3e bd
       -0.007259415 0.0037002447 -0.034601077 -0.0464443
000350 5e 82 1e bc 1e f5 9f bc 16 6c 21 bd e0 47 1d bd
       -0.009674637 -0.01952606 -0.03940972 -0.038398623
000360 4a 10 8a 3d 5b d1 61 3d 59 e0 92 3c ba 53 93 bc
       0.06741388 0.055131298 0.017929243 -0.01798426
000370 bc cc c2 3c 09 a5 33 bd 9f 75 0f 3d ac c3 07 bd
       0.023779266 -0.04385856 0.03502428 -0.03314559
000380 75 b6 0e 3d 61 90 b8 bc d1 57 6d 3c 44 8a 1d 3c
       0.034841973 -0.022529783 0.014486269 0.009615485
000390 7e 95 62 bd 69 d1 40 3c 20 8d 75 3c 90 fd 56 bd
       -0.055318348 0.011768677 0.01498726 -0.05248791
0003a0 ce d9 09 bd 0a 02 33 bd 85 b8 e1 3c cb 28 fa 3c
       -0.03365498 -0.043703116 0.027553806 0.03053703
0003b0 5e 2c 8c 3b aa af 76 3d b4 7d 9d bc 82 85 5d bd
       0.00427775 0.06022612 -0.019224979 -0.0540824
0003c0 45 f5 49 bd db 0a 86 3b ec 45 49 3d ae c4 31 bd
       -0.049306173 0.0040906495 0.04913895 -0.04340046
0003d0 e4 c9 77 bc 4f f8 02 bd f6 55 17 bd 63 81 09 bd
       -0.015123818 -0.031975087 -0.036947213 -0.03357066
0003e0 61 61 06 bb d7 e2 24 3d 45 bd 4c 3d fa 80 67 3a
       -0.002050482 0.040255394 0.04998519 0.00088311697
0003f0 ac f7 d5 3b 52 63 46 bd e2 ac b6 bb 95 16 1a 3c
       0.006529769 -0.048434563 -0.0055748085 0.009404798

model.7.bias f4 [120]
000000 25 89 d9 bc 1a d0 08 3b 95 7d 35 bd 3b 6b 18 bc
       -0.026554653 0.0020875991 -0.044309217 -0.0093029095
000010 99 26 18 3d 74 e1 71 bc 29 40 5a 3d fe 1f 20 bd
       0.037146185 -0.014763225 0.053283844 -0.03909301
000020 4e ef 42 3d 03 55 03 3d 8f b3 62 3d 4c c4 3f bd
       0.0475915 0.032063495 0.05534702 -0.046818063
000030 43 c3 25 3b ae bf 23 bd 1e da 4b bd f6 e6 84 3d
       0.0025293387 -0.039977722 -0.04976856 0.06489365
000040 30 ec 1d 3d 7e a9 93 bd 49 d2 02 3d 7b b0 cd bc
       0.038555324 -0.072100624 0.031938825 -0.025108567
000050 07 41 76 bd 93 e9 50 3d e2 2c 03 bd 7b aa 15 3d
       -0.06012061 0.051004004 -0.032025225 0.036539536
000060 8d 7a ff ba 9c 8f 90 3d 91 46 63 bd 62 89 53 3d
       -0.0019491479 0.07058641 -0.05548722 0.05164469
000070 56 81 f1 3b 5c b5 08 3d a4 19 a3 3c 6f 63 45 bd
       0.0073701544 0.033376083 0.019909687 -0.04819053
000080 56 bd 02 3d a9 cc a8 bc 7f c1 a2 3b ad 38 68 b9
       0.031918846 -0.020605402 0.004966914 -0.00022146358
000090 be 7b b2 bc e9 7b 26 3d ac 8c 80 bd 05 67 67 bd
       -0.02178752 0.040645514 -0.06276831 -0.05649473
0000a0 38 e4 35 bd a8 0e 57 3d 41 29 fb 3c 2e b7 48 3d
       -0.0444071 0.05250421 0.03065932 0.04900282
0000b0 b0 04 50 3c e5 9b b6 bc 8d 02 bd 3c d5 52 6f 3d
       0.01269643 -0.022291133 0.023072505 0.058428604
0000c0 5e ba 68 bd 43 75 a0 3d 93 6d 9c bc 82 25 10 3d
       -0.05681836 0.07834866 -0.019095218 0.03519202
0000d0 cb 1d 5e 3d 22 ba f1 3c 0f b9 ec bb 85 5c ab bc
       0.05422763 0.0295077 -0.007224209 -0.02091814
0000e0 eb e0 08 3d 4c d0 c2 3b 71 6e 68 bc a7 9c 02 3d
       0.033417623 0.005945241 -0.0141864875 0.031887677
0000f0 7c a0 4c 3d b0 9f 7d 3c 97 52 38 bd b8 11 21 3d
       0.049957737 0.015479967 -0.04500064 0.03932354
000100 c0 8c 46 3d b3 d9 33 bc 7d 68 63 3c 82 70 80 3a
       0.048474073 -0.0109771965 0.013879892 0.0009799155
000110 28 e7 9a bc c4 1a 34 bc b6 5d 88 bd e2 f6 84 3d
       -0.018909052 -0.01099271 -0.06658499 0.06492402
000120 cc 66 21 bd 66 f9 5c 3c 7b 2e 5d bd c2 fd 9b bd
       -0.039404675 0.013487196 -0.053999405 -0.0761676
000130 b0 d8 d1 bc 06 62 36 3c 3d fd 21 bc ea 34 c7 3b
       -0.02561602 0.011131769 -0.009887037 0.006079306
000140 d2 bf 27 3d c5 6a 5c bc 61 54 59 bd 90 31 3e bd
       0.04095442 -0.01345319 -0.053058986 -0.046433985
000150 bf 21 0e 3d ae 62 9d bb 80 a3 f6 bb cb 83 6b 3d
       0.03470015 -0.0048030233 -0.007526815 0.057498734
000160 83 a4 06 3d bd 81 f6 ba b5 51 40 bd 60 9c 3f bd
       0.032871734 -0.0018806976 -0.046952922 -0.04677999
000170 bc 66 fe bc d3 27 7d bd 0d 81 82 ba de d4 04 3d
       -0.031054847 -0.061805557 -0.0009956673 0.03242957
000180 33 26 59 bd fa bf 33 bd d3 f6 31 3c c4 8a 51 bd
       -0.053014945 -0.043884255 0.01086207 -0.051157728
000190 42 b7 4e 3d 3f 64 1d 3d 47 18 72 3d 50 ba 11 3d
       0.050467737 0.03842568 0.059105184 0.035578072
0001a0 36 10 42 bd b3 e8 8c 3c 62 20 10 bd dc 91 a1 3c
       -0.04737874 0.017200803 -0.035187133 0.019722871
0001b0 bf b2 86 3c ae be 4b bd 6d 27 b8 bc 97 08 1e bd
       0.016442655 -0.049742393 -0.022479737 -0.03858241
0001c0 81 af 7a bd dd ed d5 ba 23 b6 25 bd 4b 69 01 bd
       -0.06120253 -0.0016321499 -0.040456902 -0.031594556
0001d0 ae 5a c4 3b 6e 79 21 bd 11 a6 68 bd 53 80 05 bd
       0.005992255 -0.039422445 -0.056799 -0.032593083

model.9.weight f4 [84, 120]
000000 28 0c 4a 3d 76 15 97 bd 58 c0 9c bd 68 fc ff bc
       0.049328 -0.0737714 -0.07653874 -0.031248286
000010 fc 99 8b 3d 5d 3e 53 3d f6 20 91 3d f5 0c 15 bd
       0.068164796 0.051573146 0.07086365 -0.03638931
000020 74 ba d6 3d fb 67 98 bd db 3e 51 3d 31 53 9d 3d
       0.10484782 -0.07441708 0.051085334 0.07681883
000030 0d 39 86 3b 3c 16 3a bd 61 88 9c bd e9 30 12 3d
       0.0040961565 -0.04543136 -0.076432 0.035691176
000040 8a 1e 0f be 78 88 b0 bd 94 60 dc 3d 64 11 59 bd
       -0.13976493 -0.08619779 0.10760608 -0.0529951
000050 ab 47 aa bd 31 17 dd 3d 60 4b de 3d 58 0b 4f bc
       -0.08314451 0.10795439 0.108542204 -0.012636982
000060 64 3a a9 bc a2 d9 81 3d 9a c7 14 3d 7d 5b 41 be
       -0.020657726 0.06340338 0.036323167 -0.18882556
000070 a2 74 21 3d 15 64 ce bc de 0e 91 bd 1b f0 cf bd
       0.03941787 -0.025194207 -0.07082914 -0.10153218
000080 3d 7f 43 3d 35 15 a3 3d de c9 f3 bd 82 d2 41 3c
       0.047728766 0.07963029 -0.119037375 0.011829974
000090 af 2b 39 3d c6 4b 8f 3a 95 b7 65 bd be 19 e0 bd
       0.045207676 0.0010932616 -0.05608328 -0.1094241
0000a0 fe ef af 3d 6a 0e 62 bd 9b 78 9f 3d fe 0b fb bc
       0.08590697 -0.055189528 0.077866755 -0.030645367
0000b0 57 a5 00 3d 9b bc 60 bd 48 16 ec bc c8 a3 90 bd
       0.03140768 -0.05486737 -0.028819218 -0.07062489
0000c0 37 01 00 be f5 69 c5 3c 21 3e 0d 3d 68 5a 90 bd
       -0.12500463 0.024098376 0.03448308 -0.070484936
0000d0 bc 79 19 bd 46 25 8e 3d 91 1f 86 3d 99 35 78 3d
       -0.03746961 0.06940703 0.065489896 0.06059799
0000e0 54 be c6 bd 96 eb a3 bd 31 df 26 3d b0 7c d1 3c
       -0.09704271 -0.08003919 0.040740196 0.025572151
0000f0 5c 53 4c bd 22 15 4e 3a a6 65 af bd 76 60 83 bd
       -0.049884185 0.00078614254 -0.0856431 -0.06414883
000100 21 95 01 3e 82 96 ce bc 76 44 89 3d f6 a3 f8 bd
       0.12654544 -0.025218252 0.06702511 -0.12140648
000110 08 12 f0 3b fb 71 d4 bd 91 60 1c bd c4 aa c0 bb
       0.0073263682 -0.103733025 -0.03817803 -0.005879732
000120 33 10 bd 3c 8c 82 69 3d f4 40 41 3c 47 e9 35 bd
       0.023079013 0.057009265 0.011795271 -0.044411924
000130 d2 e8 6a 3d 0e bd 53 3d 48 d1 0c bc 0e 9a b8 bd
       0.05735094 0.05169397 -0.008594818 -0.090137586
000140 3d 06 a2 bd 72 bf 82 3d 75 7f e0 3b 80 51 35 bd
       -0.07911346 0.063841715 0.0068511316 -0.044267178
000150 0d 72 a1 bb 7a a2 fb bc d4 74 99 3d 63 e3 2f 3d
       -0.004926926 -0.030717123 0.07492986 0.042941462
000160 6b 60 1f 3d 2c 9d 95 3d ee a9 52 3d 78 66 23 bd
       0.03891031 0.07305369 0.05143159 -0.039892644
000170 1e 6a b9 3d 70 d9 c7 bd cb 24 f1 bc 51 fe b2 bd
       0.09053443 -0.0975827 -0.02943649 -0.08739913
000180 37 49 b2 bd 8c 88 b2 bc af ec e0 3d 31 fa 9a 3b
       -0.08705371 -0.021793626 0.10982644 0.004729532
000190 c2 ca 8e bd da c2 81 bd e4 42 1b bc c9 fd 93 3c
       -0.06972267 -0.06335993 -0.009476397 0.01806535
0001a0 3e e2 51 3a 00 b3 00 3e 0f 8e e5 bd 6b e8 0c 3e
       0.000800643 0.12568283 -0.11208736 0.13760535
0001b0 3c a4 d5 bd 8c 17 47 bd c3 19 62 3d 83 8a 39 be
       -0.10431716 -0.04860644 0.05520035 -0.18119244
0001c0 35 62 21 3d 5b 31 fe 3c 43 de 9d 3c 07 f4 4c 3d
       0.0394003 0.031029394 0.019271022 0.05003741
0001d0 c2 f5 00 3e 50 29 9e bc 0b e3 9f bd 95 a1 99 bc
       0.12593749 -0.019306809 -0.07806977 -0.018753806
0001e0 b5 78 85 bd 6c b9 e8 3c 1d 08 dd 3d aa a9 bb 3d
       -0.06517164 0.028408729 0.10792563 0.0916322
0001f0 81 6e 6f bd 51 b8 73 bd 03 03 1e bd 59 3f 11 bd
       -0.058454994 -0.05950195 -0.03857709 -0.035460804
000200 0c d7 8d bd c9 b5 40 3b c8 d0 83 3d 6c 5c 82 3d
       -0.069257826 0.0029405227 0.06436306 0.06365284
000210 95 1d 9a 3d 79 29 33 bd a8 95 e2 bc 0e c1 0e 3e
       0.075251736 -0.043740723 -0.027659252 0.13940832
000220 95 a3 4d bd e4 47 86 3c 82 3d c3 bc 9d 99 34 3d
       -0.050204832 0.016391702 -0.02383304 0.04409181
000230 de 26 94 3d c1 13 de 3d 8a 0a 38 3d fc c1 8e bd
       0.07233976 0.108436115 0.044931926 -0.06970593
000240 03 49 11 3d 14 d1 7f 3d 1f cd 5f bd df 34 62 bd
       0.03547002 0.06245525 -0.054638978 -0.055226203
000250 3b dc 54 3d 98 a7 77 3d ab 0d 43 bc 45 0b ee bc
       0.05196784 0.060462564 -0.011905114 -0.029058108
000260 53 82 9b 3d 84 a7 d0 3c 7f f5 f2 3d a7 f6 27 bd
       0.07593217 0.025470503 0.11863231 -0.04100671
000270 7b 24 9c bc da 08 a0 bc c2 62 85 3d f0 0d 34 bd
       -0.019060364 -0.01953547 0.06512977 -0.043958604
000280 90 fc 9a bd 33 a5 d5 3d 81 47 94 3d b9 e1 b2 3d
       -0.07567704 0.104319 0.07240201 0.087344594
000290 38 c7 ae 3c 8a 5d e9 3d 26 cb 5c 3c 13 e8 01 3d
       0.02133523 0.11394794 0.013476169 0.031715464
0002a0 17 0f ac bd 44 1c d2 3c 2a 7c c2 3d 6f 99 b4 bd
       -0.08401316 0.025648244 0.09496339 -0.08818328
0002b0 cc d6 e1 3b 94 a0 04 3d d6 77 64 bd fd ee fe ba
       0.006892061 0.0323797 -0.055778347 -0.0019449886
0002c0 82 b2 b4 bd 53 64 bf bd 9d 82 ac bd 02 16 0b bc
       -0.0882311 -0.09345307 -0.0842335 -0.008489134
0002d0 ed 77 49 bd 11 6e dc bd ef ef 80 bd 0e b9 a6 bd
       -0.049186636 -0.10763181 -0.06295764 -0.08140765
0002e0 7b 58 98 bc 80 d8 d9 bc bb a7 86 3b e2 2a e5 bc
       -0.018596878 -0.026592493 0.0041093505 -0.02797455
0002f0 e7 ff c9 3d eb 27 8e 3c a4 a3 45 3b 74 ba 18 3d
       0.098632626 0.017353019 0.0030157352 0.03728719
000300 f4 c5 19 3d a5 ba c0 bb 2b c8 f0 3c 2a 50 61 3c
       0.0375423 -0.0058816248 0.029392323 0.013752023
000310 1d 36 aa 3d 1f e8 93 bd b9 aa c3 bc bf c7 4e bd
       0.083111025 -0.07222008 -0.023885118 -0.05048346
000320 03 25 2d bd 14 17 ca bd 03 ad 32 bc b9 e1 b7 3d
       -0.042271625 -0.09867683 -0.010905507 0.089786
000330 f5 f3 90 3d cc 7c ed 3d a9 43 fc bb 2a 9f a6 bc
       0.07077781 0.11596069 -0.0076984954 -0.020339567
000340 4d 42 01 3d 3b 94 28 bd 88 cb ef bc 30 be b5 bd
       0.03155737 -0.04115699 -0.029271856 -0.08874166
000350 ec e7 b0 3d b4 93 9f bd cb df ad bd db 5b 89 bc
       0.086379856 -0.07791844 -0.08489951 -0.016767433
000360 4b 5d dd 3c 16 0c c1 bc c5 03 6d 3d ff 9f 31 3d
       0.027022025 -0.023565333 0.057864923 0.043365475
000370 5e 7e 8e bb fc 5f bd 3c 5e 27 29 3b 24 21 a1 bc
       -0.0043485602 0.023117058 0.0025810818 -0.019669123
000380 c7 35 62 bd ac 13 6a bc 85 1b c6 bc b5 1f 88 3c
       -0.055227067 -0.014286917 -0.024183044 0.016616682
000390 94 1f 1d bd 91 fb ec bb 8c 15 4a bb 24 4d 34 bd
       -0.038360193 -0.0072321375 -0.0030835597 -0.04401888
0003a0 ef 17 10 bd bb 47 8a 3d 10 f8 14 3e 86 2d 26 3d
       -0.035179075 0.06751963 0.14547753 0.04057076
0003b0 f6 95 8b 3d e4 53 ac bc 21 89 3f 3d bc 8b 53 bd
       0.06815712 -0.021036096 0.046761636 -0.051646933
0003c0 8b 4f 86 3d a5 9d b3 3b af 35 08 be cc c5 83 bd
       0.0655814 0.005481439 -0.13301729 -0.06434211
0003d0 ae ad 19 3c 81 42 07 3d 26 22 6d 3d 3e d8 9f 3d
       0.009379787 0.033022407 0.057893895 0.07804917
0003e0 0a c7 87 3d 78 94 dd 3b fc a2 cf 3b f9 38 f8 bc
       0.066297606 0.0067620836 0.006336568 -0.030300604
0003f0 83 e6 35 3d 64 ee 66 bd d9 67 86 3d ba 59 af 3d
       0.044409286 -0.05637969 0.06562776 0.08562036

model.9.bias f4 [84]
000000 e7 49 bf 3d 95 9d b6 3d 9d 69 3f bd cd 78 d4 3c
       0.09340268 0.08916775 -0.04673158 0.025936509
000010 a6 33 3c 3d 74 59 34 bd 4d 28 5f 3d 74 b9 88 bd
       0.045947693 -0.04403062 0.054481793 -0.066759974
000020 17 6f b5 3d 12 9a 80 3d 31 7c 71 3d b5 4a ff 3b
       0.08859079 0.062793866 0.05895633 0.007790888
000030 d5 ba a4 3c d9 02 97 bd 29 7c b2 bd 71 f2 86 bd
       0.02010862 -0.0737359 -0.08715088 -0.06589211
000040 ab 4d 93 bd 71 76 da 3d 20 e6 cf bc c6 ff f1 3c
       -0.07192548 0.10667122 -0.025378287 0.029540908
000050 b6 66 50 3d 34 a1 10 bd 26 a2 7a bd 11 9e 9c 3d
       0.050879203 -0.035309985 -0.061189793 0.07647336
000060 30 b5 f5 3b fc 18 10 bc ea a0 e4 3d 3e 30 56 3d
       0.007498406 -0.008795019 0.111635044 0.0522921
000070 2e 4c 82 bb ca 92 a7 3c f9 f4 39 bc 9b 77 70 bd
       -0.0039763665 0.020455737 -0.01134991 -0.058707815
000080 e8 46 82 3d 9a cc 1e 3d 46 df 91 3c 3e 9e 43 3d
       0.063611805 0.038769342 0.01780666 0.047758333
000090 fc 69 45 bc f9 5e 71 3d c3 6f b1 bd 1a 8c 78 bd
       -0.012049194 0.058928464 -0.08663895 -0.060680486
0000a0 41 21 91 3d 45 a5 47 3d 8c 92 bc bd 9e 32 16 bd
       0.07086421 0.048741598 -0.09207639 -0.036669366
0000b0 93 75 87 3c a4 b7 8f 3d c3 f4 a2 bd 03 ac 8d 3d
       0.016535556 0.070174485 -0.07956841 0.06917574
0000c0 b4 fb 4d 3d eb 45 b6 3d 97 84 b5 3d f2 96 60 3d
       0.05028887 0.089000545 0.0886318 0.054831453
0000d0 ba df 1f bd 88 b1 6d 3d 43 8f 73 bd c7 09 29 bd
       -0.03903172 0.058030635 -0.059462797 -0.04126909
0000e0 19 e4 ab bd a9 d3 56 3d e5 3e aa 3d 0c a6 a8 3d
       -0.083931156 0.05244795 0.083127774 0.08234796
0000f0 aa 94 10 bc 62 2b f6 3d 62 a1 07 3d f0 58 32 3d
       -0.008824507 0.12019993 0.03311289 0.04354185
000100 a2 33 0b 3d 1c 23 6f bc 64 b2 93 3c fc 85 b0 bd
       0.033984788 -0.014595773 0.0180294 -0.086193055
000110 c6 2d af bc a4 a5 c1 3d 78 5f a4 3d 66 7b ec bc
       -0.021384131 0.094554216 0.08026022 -0.028867435
000120 6d 42 71 bd da 51 48 bd 47 9e 8d 3c fa c3 35 3d
       -0.05890124 -0.048906185 0.017287387 0.04437635
000130 20 ff ac bd 03 e9 7e 3d e6 a4 9b 3d 09 0f 46 3c
       -0.08447099 0.062233936 0.07599811 0.012088546
000140 cc 75 8a 3d ad 9b 24 3d 30 ee 4f bd 12 42 64 3d
       0.06760749 0.040187526 -0.050764263 0.055727072

model.11.weight f4 [10, 84]
000000 00 aa 32 3e 34 83 dc 3d 56 57 40 bd f6 9c 97 bd
       0.17447662 0.107672125 -0.04695829 -0.07402985
000010 63 65 46 3e 39 92 65 3d 02 6d 53 3d ea ff 8b bc
       0.19374613 0.056047652 0.05161763 -0.017089803
000020 4d eb 5e be 4f bb 57 3c b0 5a 68 3d b1 7d ec 3c
       -0.21769448 0.013167216 0.05672711 0.028868528
000030 4c 33 46 bc 02 bf 23 be 69 85 18 3c 2c bc 1d 3b
       -0.012097191 -0.15990832 0.009309151 0.0024068458
000040 b8 58 90 bd 00 2b ba bc 34 9a 15 bc 6d e3 19 be
       -0.07048172 -0.022725582 -0.009131003 -0.15028162
000050 93 89 8e 3e b8 27 bc 3d 55 a6 62 3e f3 d5 02 be
       0.27839336 0.09187263 0.22133763 -0.12776928
000060 8d 29 a4 bd 75 4d 06 be 74 31 cc bd 59 b1 d5 3c
       -0.08015738 -0.13115485 -0.0997037 0.026085543
000070 e6 18 9e 3d 52 2a dc 3d a3 d4 81 3e 32 08 d3 bd
       0.07719593 0.107502595 0.2535754 -0.103042975
000080 29 3e fb 3c 1e c2 cc 3d ee 56 9b 3d a0 48 6e 3e
       0.030669289 0.099979624 0.0758494 0.23269892
000090 8c a2 e5 3b d7 2f 24 bd d1 6c f5 3d e2 01 e8 bd
       0.0070079025 -0.040084686 0.11983646 -0.11328484
0000a0 9b d3 13 3e 32 01 84 3d 94 16 eb 3d 65 90 1c 3d
       0.1443619 0.064455405 0.11478916 0.038223643
0000b0 ca 31 c9 bd 60 10 fb bb d7 1b 07 3d c8 12 31 bd
       -0.0982395 -0.007661864 0.032985535 -0.0432308
0000c0 dd 06 9f 3c 67 fc 90 3d f1 0c 25 3d c1 c8 3a 3e
       0.019412452 0.07079392 0.040295545 0.18240644
0000d0 ca ff 8c 3d 33 36 34 be aa 5f 0e 3e 3f 66 eb 3d
       0.068847254 -0.175988 0.1390368 0.11494111
0000e0 b9 5c 40 3c 59 81 77 3e 03 36 65 bd eb 8a a0 3d
       0.011740857 0.24170436 -0.055959713 0.078389965
0000f0 63 1f f3 bd 87 39 c0 3e ce 6c ae bd 38 8b 81 bd
       -0.11871221 0.3754389 -0.085168466 -0.06325382
000100 62 a7 b7 3d 91 d5 9d bd 5c 75 23 bd ef be 3b 3d
       0.089674726 -0.0770675 -0.039906844 0.045836385
000110 1f c0 ca bc c9 96 8f bd c5 e6 98 bd 27 94 82 bd
       -0.024749814 -0.07011182 -0.07465891 -0.06375914
000120 93 38 15 3d 47 3a 37 bd f1 3f 30 3e 2d 49 b8 3d
       0.036430907 -0.044733312 0.17211892 0.08998332
000130 23 32 e6 3d 2c 9c 94 3d 63 a5 cd 3d ba b7 27 be
       0.112400316 0.0725635 0.10041311 -0.1637868
000140 56 22 cb 3d e7 35 2b 3e 84 9c 1b 3e b3 26 5e be
       0.099186584 0.16719781 0.15196425 -0.2169445
000150 bd 3c 06 be be 58 78 be 7a 27 bf bd 25 31 c3 3b
       -0.13109107 -0.24252602 -0.093337014 0.005956786
000160 94 94 b4 bd 88 39 80 bd b2 79 bf 3e 1b 85 8c be
       -0.088174015 -0.06260973 0.37397534 -0.274453
000170 54 ec 6e bd 1c a7 67 bd 25 6f 7c 3d 9f 5b f1 3d
       -0.05833085 -0.056555852 0.061629433 0.117850535
000180 07 0a a6 3b d7 12 66 3d 60 87 00 3c a6 a1 97 bd
       0.0050671133 0.05617031 0.007844776 -0.07403879
000190 ff 17 0a bd 27 9f 2c 3e 9b f2 87 bc 77 7a f9 bd
       -0.03371429 0.16857587 -0.016595175 -0.121815614
0001a0 36 da 55 3e ce a8 22 bd 4c 1b 45 be 10 97 2f be
       0.20884022 -0.039711766 -0.19248694 -0.1714747
0001b0 96 dc b8 3d ab e6 29 be 98 9b 30 be 6f 1b 83 3d
       0.090264484 -0.16591899 -0.17246854 0.06401717
0001c0 5e a9 3e 3e 3e 34 fe bc b8 e5 cb bc 06 e9 6f 3e
       0.18619296 -0.03103077 -0.024889812 0.23428735
0001d0 c1 47 9d bd 87 20 89 3d 91 d6 56 3e 77 d1 18 bd
       -0.076797016 0.06695657 0.20980288 -0.037309136
0001e0 0d 95 57 bd 36 9a 68 be 4f 18 93 3d f8 a6 0a be
       -0.05263238 -0.22715077 0.07182371 -0.13540256
0001f0 c8 c9 40 be ca 11 e9 bd f6 8f 87 3b 2b eb 1a be
       -0.18826973 -0.11380346 0.0041370345 -0.15128772
000200 d2 de 05 bd 49 26 da bd 69 63 f7 bb fa 2b 7d 3d
       -0.0326832 -0.106518336 -0.0075496924 0.061809517
000210 e4 16 87 bc 6c 76 17 bd 0c 02 41 be e8 e9 52 be
       -0.016490407 -0.03697817 -0.18848437 -0.2059704
000220 b5 6d 54 bd b3 89 90 3e b3 c8 9f 3d e8 2f e9 bd
       -0.051862437 0.28230056 0.07801952 -0.113860905
000230 31 d0 7b bd f8 b9 1d 3e f9 4f 7a 3e fd 2c 9a bd
       -0.061477844 0.15402973 0.2444457 -0.07528112
000240 d8 9e 00 3e 63 26 24 3e c4 30 c6 3d b8 00 2e 3e
       0.12560594 0.16030268 0.0967727 0.16992462
000250 a7 9e 32 3e 8b 99 24 bd d0 4b 0f 3c 60 a5 99 bd
       0.17443334 -0.040185492 0.008746102 -0.07502246
000260 bf ae 88 3d e3 95 42 be 5e 85 a7 bc ae d8 d7 3d
       0.06673955 -0.1900249 -0.020449337 0.10539375
000270 40 fc 46 be 53 b1 bd bd c7 32 c3 bd 65 a3 c5 bd
       -0.19432163 -0.092623375 -0.095311694 -0.09650306
000280 23 a2 90 bd 33 e1 d2 bd 29 72 87 bd f0 7d 5a 3e
       -0.07062175 -0.102968596 -0.06613571 0.21337104
000290 63 eb 08 bd 59 bc f6 bd cf 8b d2 bd af 43 e4 3d
       -0.033427607 -0.12047643 -0.102805726 0.11145722
0002a0 91 41 7d 3d 10 f2 5f 3e 41 26 54 bd 6a 42 d0 3d
       0.061830107 0.21869683 -0.051794294 0.101689175
0002b0 81 00 0d be f9 16 bf 3b 51 e2 1e bd 25 92 f6 3d
       -0.13769723 0.005831596 -0.03879005 0.120395936
0002c0 5b 57 0d 3e 67 77 a2 3e 29 c9 cb 3d 91 22 e8 3b
       0.13802855 0.31731722 0.09950478 0.0070841988
0002d0 08 00 0f 3e 66 60 a2 bd aa 8e a7 be d0 9e ee 3b
       0.13964856 -0.07928543 -0.32726032 0.0072821155
0002e0 a8 03 0c bd 82 a9 87 3e d3 3d b2 bd f4 37 0d be
       -0.034183174 0.26496512 -0.08703198 -0.13790876
0002f0 24 ea 95 bd a2 84 2c 3e 44 46 b7 bd 45 aa 24 bd
       -0.073200494 0.1684747 -0.08948949 -0.040201444
000300 ce f5 db 3d c0 46 14 be 26 cb 53 be 01 4c 9b 3d
       0.10740243 -0.14480114 -0.20682964 0.07582856
000310 82 77 76 be 05 00 89 bd 01 1f a5 3c 62 c1 0a 3e
       -0.24069026 -0.06689457 0.020156385 0.13550332
000320 44 10 df 3d fa fc d2 bb 9c da 0d 3e c9 b7 dc 3d
       0.10891774 -0.0064388486 0.13852924 0.10777242
000330 60 82 84 be 70 2d 16 3e d9 f1 ed bd 92 d3 63 be
       -0.25880718 0.1466577 -0.116183944 -0.22248676
000340 55 e5 0b be b6 fc 95 3e ef 4a e9 bd 1f 91 e7 bd
       -0.13661702 0.29294366 -0.113912456 -0.113069765
000350 fb 0c 2d 3e 8c fa c5 bd f9 19 c0 bd 5f ea 8d 3d
       0.16899483 -0.09666929 -0.09379954 0.06929468
000360 c0 a9 6d 3e c5 52 0f 3e a2 38 08 3e 4c 47 74 3e
       0.23209286 0.13996418 0.13302854 0.23855323
000370 3b b8 b9 3d 73 f4 ca bd 96 c1 14 3e 89 e2 45 be
       0.09068342 -0.09909906 0.14526972 -0.19324698
000380 f5 37 05 3d 40 07 3f 3e 97 d5 34 be a3 8b 7a 3c
       0.032524068 0.1865511 -0.17659603 0.015292081
000390 cb 4e 77 bc a7 f0 e5 3d 70 fc 6c bc 19 b2 ce bd
       -0.015094469 0.112275414 -0.014464483 -0.10092563
0003a0 41 0b 11 be 46 39 8f 3d 83 8c 3e bd 64 7e b4 bc
       -0.1416445 0.06993346 -0.04652072 -0.022032924
0003b0 e2 02 ec 3a 45 35 5a 3d bc 44 a1 3d 1f 6a 36 bd
       0.001800623 0.053273458 0.07874438 -0.0445348
0003c0 5a cc b8 bd c3 a3 54 be 86 38 ad 3d 8d 05 30 3e
       -0.09023352 -0.20765595 0.084580466 0.17189617
0003d0 b2 cf 6c be e0 74 23 3d 83 cb d4 3d fe 71 bc be
       -0.23126104 0.039906383 0.10390379 -0.3680572
0003e0 ae a0 9f 3c 4a 4b 21 3b 82 7e a1 3d 88 e3 30 bd
       0.019485798 0.0024611526 0.078854576 -0.04318574
0003f0 26 45 b3 bd 9e 1c 8f 3d ae 0b 84 bd 11 ab 7b 3c
       -0.087534234 0.0698788 -0.0644754 0.01536061

model.11.bias f4 [10]
000000 42 4d 62 bd af ac a3 bd 4d 87 56 bd 4d 96 ef bc
       -0.05524946 -0.07991921 -0.052375127 -0.029246474
000010 f0 b6 51 be 02 aa 0b 3e d6 89 11 3e 38 32 31 3d
       -0.20479941 0.13639072 0.14212736 0.043260783
000020 88 c3 98 3d a7 2f 1d be
       0.074591696 -0.15350209
