02_cnn/2_vgg_net.pth (torch, 297698 bytes, 56 tensors)

model.0.weight f4 [20, 1, 3, 3]
00000000: ea94 43bf 630f 65bd ee99 c23f 161b d2bf
00000010: 1ecd e1bf 6f00 e93f 6c06 28be a676 5fbe
00000020: 7272 b23f f6b7 f7bd 36f3 29bd 52c0 643d
00000030: e2c8 ddbd 289e 023e 5f14 86bf 99b8 e73e
00000040: 3443 38bf 37d6 d0bf 7efb c03e 40c9 023f
00000050: 0eff 573f 6875 57bd f100 55bd c484 d93f
00000060: d101 04bf 3b87 45bf 5e12 4a3f eb09 dc3e
00000070: 7f73 7abf 7393 943f 7840 2dbf b574 0ec0
00000080: 4594 bf3f 22a3 aabe 7c96 a3bf 4de0 713f
00000090: dceb 903d 6c72 913b cc19 9fbe 2496 82bd
000000a0: 55bd 09c0 05a5 0dc1 3abb 4b3f 916b 193f
000000b0: 7c56 b3bf 7188 53bf efef acbf 8351 1cbe
000000c0: 917b 30bf c0e6 28c0 f42f 0d3c 8e03 c93f
000000d0: 5d0e c7bf 1499 febe 178c 2cbe bc43 a7bf
000000e0: e743 ddbf 48a0 553d 1b12 a2be b55d 4ebf
000000f0: 6e5c bdbd 8812 a5bd ad63 2bbe 8a28 fa3e
00000100: 98af 7bbf d518 873e fb12 94bd bf86 ccbf
00000110: 7acb 05bf a65e bbbd cec7 31bf bb1c 953e
00000120: 55f2 3dc0 b8a8 9bbf 4c49 6cbf 465b 883d
00000130: ed04 843d 0fc9 a53f 773a 0140 4b32 213f
00000140: 5d36 363f 8cdc 083f dcc6 69bf 7895 3d3f
00000150: 809b 8ebf 27ec 22c1 30b0 46bf a1f7 f53e
00000160: dec8 81bf 78d2 b23d d8c2 053f 3296 15be
00000170: d3e2 0e40 adf6 8d3f 5840 4fbe ab8a 3e3f
00000180: 3a37 bb3e d98d 03c0 ec38 c7bf fec6 413e
00000190: 196b 303e 55dd 7ebd 20d5 563d 336c 9dbd
000001a0: 0e26 84bf b84c 84be c30d 18bf 8416 a3bf
000001b0: af09 9cbf 963d 58be f68a ecbe a6be 7fbf
000001c0: fb40 c13f d568 22bf 9628 de3d 5447 8540
000001d0: 656b 353f 04ac aabf 0069 9fbf a33b 2c3e
000001e0: f810 d1be 1c90 af3d 4a39 603f e2cc 79bf
000001f0: a7f1 a8be daf1 b1bf 135e 893e fc78 2fbf
00000200: 25ea 29bf c204 d6be f331 8ebf 05bf dec0
00000210: 2e95 71be 2810 e53f 7d93 3e3e 9ea3 6d3f
00000220: ce3c 3a3f 10ed c43e b082 353f f326 0d3d
00000230: 4c61 12bf bd28 403f 51ea 16bf a853 54be
00000240: e0e0 17bd c785 0840 ef13 e8bc 78fc b43f
00000250: f56c a4be 0c0b 033f f815 63bf 4be0 0dc0
00000260: 870e 0340 91f9 b13e 0830 0cbe 3d3a 7d3f
00000270: 25bd 31be b636 bebf ab4a 88be e048 83bf
00000280: 76a8 40c0 403f 81bf 5ea3 e9be 256a 3f3f
00000290: 8a3a 76be 9369 29bf fa41 933d eb68 c2bf
000002a0: 9931 08bf a1f2 b33e f6c2 85bf ff05 33bf
000002b0: 13cd 833f 9ae3 183e 6971 823f 8d71 a43f
000002c0: e293 49c0 efef 023f 2430 3d3f 6157 88bf
-0.763991 -0.055922877 1.5203226 -1.6414516 -1.7640722 1.8203257 -0.164087 -0.21822605
1.3941176 -0.12095635 -0.04149171 0.055847473 -0.10829331 0.12755644 -1.0474967 0.45258024
-0.71977544 -1.6315373 0.37691873 0.51088333 0.8437356 -0.0526022 -0.05200285 1.6993642
-0.5156527 -0.7715947 0.78934276 0.42976317 -0.97832483 1.1607498 -0.67676497 -2.2258732
1.4967123 -0.33327585 -1.2780299 0.9448288 0.070762366 0.004438689 -0.3107437 -0.06376293
-2.152181 -8.852788 0.7958256 0.5992976 -1.4010768 -0.8263007 -1.3510722 -0.15265469
-0.6893855 -2.6390839 0.00861739 1.570421 -1.5551258 -0.49726164 -0.16850315 -1.3067546
-1.7286347 0.05215481 -0.31654438 -0.80611736 -0.09246145 -0.08060175 -0.16737242 0.48859054
-0.9831481 0.26386133 -0.07230183 -1.5978621 -0.52263606 -0.09148912 -0.694455 0.29123482
-2.9679158 -1.2160864 -0.9229934 0.06658034 0.06446252 1.2951983 2.0191934 0.62967366
0.711767 0.5346153 -0.9131906 0.74056196 -1.1141205 -10.182654 -0.7761259 0.48040488
-1.0139425 0.0873155 0.5225043 -0.14608076 2.2325943 1.1090904 -0.20239389 0.7443034
0.36565572 -2.0555327 -1.5564246 0.18923566 0.17228355 -0.062222797 0.052449346 -0.07686653
-1.0324113 -0.25839782 -0.59396 -1.2741246 -1.2190455 -0.21117243 -0.4619977 -0.9990028
1.5097955 -0.6344121 0.10847585 4.164957 0.70866996 -1.3333745 -1.2453918 0.16819625
-0.4083326 0.085724086 0.87587416 -0.9757825 -0.32996866 -1.3901932 0.26829585 -0.6854398
-0.663729 -0.41800505 -1.1108993 -6.960818 -0.23592064 1.7895555 0.1861095 0.92827785
0.7274903 0.38462114 0.7090254 0.034460973 -0.57179713 0.7506216 -0.5895129 -0.20735037
-0.037079692 2.1331651 -0.028329818 1.4139547 -0.32114378 0.5118873 -0.88705397 -2.2168148
2.0477617 0.34760717 -0.13690197 0.9891699 -0.17357309 -1.4860446 -0.26619467 -1.0256615
-3.010282 -1.0097427 -0.45632452 0.7477134 -0.24045768 -0.6617672 0.071903184 -1.5188268
-0.5320068 0.3514605 -1.0450122 -0.69931024 1.0296959 0.14930573 1.019086 1.2847153
-3.149651 0.5114736 0.7390158 -1.0651666

model.0.bias f4 [20]
00000000: e00c e83e 2f30 d83e 5ace 533e 60c8 cc3e
00000010: 1c7d 6bbf d5f1 763f e77f 0abf 1790 99bf
00000020: 698d c9bf cec5 39c0 7cc2 933f 5284 60bc
00000030: 27ce 9cbf de4f 8a3e 9b1a babf 25eb 243d
00000040: 18ff cabe a827 733e 1c75 693d c3ba 153f
0.45322323 0.4222426 0.20684186 0.39996624 -0.91987777 0.96462756 -0.54101413 -1.1997098
-1.574628 -2.902698 1.1543727 -0.013703423 -1.2250413 0.2701406 -1.4539369 0.040263314
-0.39647746 0.23745596 0.05699645 0.584881

model.1.weight f4 [20]
00000000: c128 6a3f 098c e03e 61e9 873e 2009 393f
00000010: 27c4 2540 a8fb bb3f 9934 4c3f 21f2 f43e
00000020: 912e 953f f9fa 3c40 b14a 4a3f dda4 323f
00000030: 12b8 ea3f 68b6 da3e 4ed8 3b40 d954 613d
00000040: abda d33f 7c5e 0a3f 2140 4cbc bd45 4140
0.91468436 0.43856838 0.2654524 0.7227955 2.5900972 1.4686174 0.7976776 0.4784098
1.1654836 2.9528182 0.7902022 0.6978281 1.8337424 0.4271729 2.9350772 0.055012558
1.6551107 0.5405042 -0.012466461 3.0198815

model.1.bias f4 [20]
00000000: 769b bb3e d2af 40bf 2183 97bf 6680 d8bd
00000010: 1141 debf 9fa7 afbf 501c 7abf 1e09 52bf
00000020: dc77 5d3f c832 bdbf ea6c 35bf 0a06 87bf
00000030: 5701 b9bf e0f1 93bf ed91 90bf 9763 7abe
00000040: a2fc d8bf 3945 61bf cee8 96bf 4b1e 7a3f
0.36642045 -0.7526828 -1.1836892 -0.10571365 -1.7363607 -1.3723029 -0.9769945 -0.8204516
0.86511016 -1.4781122 -0.70869315 -1.0548718 -1.4453534 -1.1558189 -1.1294533 -0.24452053
-1.6952097 -0.8799625 -1.1789796 0.97702473

model.1.running_mean f4 [20]
00000000: 077e 113f 27f6 c73f 87eb 58bf 51ce 8e3f
00000010: 6bc2 6440 74c6 6140 83d0 9a3f 84bf c93c
00000020: 1b8e b5bf 8022 1240 8a9f 5d3f 96ca 883f
00000030: bb0b 1ec0 20bb f83f c9eb d33f 7ebd 40bf
00000040: 90ae b0bf 1645 2140 c12e a13f fe12 073f
0.5683293 1.5621995 -0.84734386 1.1156713 3.5743663 3.5277376 1.2094883 0.024627455
-1.4183992 2.2833557 0.8657156 1.0686824 -2.469466 1.9432106 1.6556331 -0.7528914
-1.3803272 2.5198417 1.2592393 0.52763355

model.1.running_var f4 [20]
00000000: 4ca7 9340 1f9a 8540 a4bc 8440 4832 7a40
00000010: e83b 7e42 6d18 8b41 76b8 0b41 a797 8540
00000020: dcad 7f40 489a 9442 fbb6 2b40 5d3d 6f40
00000030: 54fc 0041 e5cd 0041 b4a4 f441 391d 2040
00000040: c9f9 7040 d6b3 7941 0079 8a40 84df 3b40
4.614172 4.1750636 4.1480274 3.909319 63.558502 17.386927 8.732534 4.1747622
3.9949865 74.30133 2.6830432 3.7381203 8.061604 8.050267 30.580421 2.5017836
3.7652457 15.606405 4.3272705 2.9355173

model.3.weight f4 [20, 20, 3, 3]
00000000: eb45 b93e d70b 813f 5607 8fbf f093 4a3f
00000010: 393f c73d fee3 91bf aa2c d2be 1c01 68bd
00000020: d3af 6c3d 3188 43bc 1a41 3cbe 778e a6bd
00000030: b279 e13c 2226 153e 0c40 a83e 4114 bb3d
00000040: 32da e93e 840a 463e 0bf6 8a3e b46c 62be
00000050: b44e dbbd b58a 2d3d c30f 12be a6ac 983c
00000060: d052 223e 8535 0bbe ae70 993e 6fd6 da3f
00000070: 94fc 333f 37c9 1cc0 aec6 c73f ba21 5abf
00000080: 0b2b 9abf b6ee 133a 6eac afbf df0c 2b3f
00000090: 2f46 043f da8f 73bf 4567 b43d 35b7 5bbe
000000a0: 142f 96bf ea90 993e ec5f 9abf 3175 923e
000000b0: aa06 453f b6a5 8abe 8648 30bf be1f 7bbf
000000c0: 296e 443f 2d5f 05be 518d 75bf a473 e03e
000000d0: 87d9 87be fb27 fc3d cee5 22be e294 39be
000000e0: be97 cf3d 7fb9 d93d 50d0 7abd f96e 713e
000000f0: 7510 293c 5301 6138 8f36 e53e c77a 693f
00000100: b5e8 5bbe bd9f bdbe c526 1c3f b0df 51bf
00000110: b376 c3be de02 373e dc79 0ebf a823 003f
00000120: 6132 29bf 009c b43f 3f1d 843f b3a2 333f
00000130: 2f5c d13f 59fe 673d 8344 d63f 430a a23f
00000140: 2988 85bf e7b8 ab3f 50cd b13e 0c23 ecbd
00000150: 62aa 733d 089b 8dbf 6812 8abf 2422 d5bf
00000160: 7055 e0bf 44b5 a4bc 56db 2e3f d06f 643f
00000170: d876 87bf 438b 67bd 2960 3e3f 2312 193f
00000180: 24d5 5b3f 8b6e 3e3f f219 16be 8c8a 14be
00000190: b0cf 13bb 6c56 933d 149f ebbe 66c4 01be
000001a0: 8238 cf3d db78 dcbd ee93 363e ab06 773e
000001b0: fa5d d5bf de2d a83f 4d1d 55be 772a ebbe
000001c0: 8102 403f 5450 17c0 4e48 f23e 9bf7 273f
000001d0: 5607 00c0 d8ff 9ebe 95a7 8d3d ff34 f2be
000001e0: 37d1 553f 064e 273f fc65 80bd 8fc8 df3e
000001f0: 8769 13be cc7f cabe 5244 d43e 5941 113f
00000200: b91c 6d3e 8eac 8abb 151c c7be fb9b 2cbe
00000210: 1738 2ebf 1a7d bf3d c925 52be 95f0 da3e
00000220: 8ae4 53bd 5427 f4be 6a08 c73d 3577 2bbf
00000230: c1e1 8fbf 8944 fb3e 7339 0dbf 3c9b 40bf
00000240: 04e4 5640 c18c 05bf 0a3a a93f 3008 503e
00000250: a6d0 c939 1e2d 3740 c9e6 653e b0ab 55be
00000260: 0d5c 1a40 1003 603e 5a3c e13d 34aa ef3e
00000270: 0c0e 7abd 9e54 2d3e 8d4e 6f3f b0f6 5bbf
00000280: 2c3f 0e3f a090 383f 1940 6bbe 6891 c23e
00000290: cf5c 663c 87c2 17bf 676c 273e 9a6c 7ebe
000002a0: eb4e 14bf 5168 883e b072 953d b88a 68bf
000002b0: 389a fcbf 984b 2a3f 6690 263f 7f00 ee3d
000002c0: 0b7c c83e ed79 e63f 511e 4540 c671 1a3f
000002d0: 70b2 aabf d11a 78bf 4b30 c93f ee37 17bf
000002e0: 3bdf 1cbb e6fd 323f 4871 513e b3d4 6b3e
000002f0: fcc1 79be 887b 583e 0f6c 1f3e 959c a53d
00000300: 7800 84be afa7 37be 14c6 293f 31d1 23bf
00000310: 2ca3 20bf c996 883e 7554 8cbe 9199 8fbe
00000320: 3a45 77be 1efa 4ebe 0a65 b7bd be77 a8be
00000330: 8b7e e0bd 611c b9bd 728d e0be fbb0 8fbf
00000340: b6cc f8be 7191 c33f b99f 2bbf c97a bf3e
00000350: cf44 7f3f e3db 9bbe fdc2 bcbd 2885 d1be
00000360: 8fab 0840 5790 5f40 64ab c3be 5c27 f23f
00000370: 5460 9440 a5af 1b3f bbcc a5bf 428b bebf
00000380: 7168 803d 237f 3e3e 168e 053f 2827 233f
00000390: 3642 3a3f 606f ba3f 99d4 2340 7f49 43be
000003a0: ea45 59bf 53ca 9cbe db1f a73e 9280 833e
000003b0: 1a27 8a3c 8c09 ed3e 9506 053f c3bd b23e
000003c0: e00d 50bc ae1f 343d 94b8 1c3e ebff 81be
000003d0: 386b c3bd 3478 b63e d241 92be 76f3 063d
000003e0: 0f19 263e 3ccf 05bf 1bf7 99bc 83b3 0cbe
000003f0: de41 dfbe b91c babe 201b 803e 59b8 bdbe
0.36186156 1.0081738 -1.1174114 0.79131985 0.09728856 -1.1397703 -0.410497 -0.056641683
0.057784867 -0.011934326 -0.1838421 -0.08132642 0.02752385 0.14565328 0.32861364 0.091347225
0.45674282 0.19339949 0.2714084 -0.2211178 -0.10708371 0.04236861 -0.14263825 0.018637013
0.15851903 -0.13594635 0.2996878 1.709669 0.7030728 -2.4497812 1.5607507 -0.8520771
-1.2044386 0.00056431757 -1.3724496 0.66816515 0.5166959 -0.95141375 0.088087596 -0.21456607
-1.1733117 0.29993373 -1.2060523 0.28605035 0.76963294 -0.27079552 -0.6886066 -0.9809531
0.7673059 -0.13024588 -0.95918757 0.43838227 -0.26533148 0.12312313 -0.15907976 -0.181232
0.101363644 0.10631084 -0.06123382 0.23577489 0.010318865 5.3645414e-05 0.44768187 0.9120297
-0.2147549 -0.37035933 0.6099666 -0.81981945 -0.38176498 0.17872187 -0.5565469 0.5005441
-0.660925 1.4110107 1.0321425 0.70170134 1.6356257 0.05663905 1.6739658 1.2659382
-1.0432178 1.3415803 0.34726954 -0.11530122 0.05948866 -1.1062937 -1.0786867 -1.6651044
-1.7526073 -0.020105965 0.6830343 0.8923311 -1.0583143 -0.056529295 0.7436548 0.597933
0.858721 0.74387425 -0.14658335 -0.14505976 -0.0022554211 0.07194218 -0.46019804 -0.12672576
0.101182 -0.10765239 0.17829868 0.24123637 -1.6669304 1.3138998 -0.20811959 -0.45930836
0.7500382 -2.3642778 0.4732079 0.6561219 -2.0004478 -0.31054568 0.06916729 -0.47306058
0.8352236 0.6535343 -0.06269452 0.43707702 -0.14395724 -0.39550626 0.41458374 0.5674034
0.23155488 -0.004231996 -0.38888612 -0.16856377 -0.68054336 0.09350033 -0.20522226 0.42761675
-0.051731624 -0.47686255 0.09718402 -0.6697877 -1.124077 0.49075726 -0.55165786 -0.7523687
3.357667 -0.521679 1.3220837 0.20315623 0.00038493163 2.8621287 0.22451319 -0.20866275
2.4118683 0.21876168 0.10997839 0.46809542 -0.061048552 0.1692681 0.93479234 -0.8592329
0.5556514 0.7209568 -0.2297367 0.3800156 0.014060213 -0.592812 0.16349946 -0.24846116
-0.5793292 0.26642087 0.072972655 -0.9083667 -1.9734564 0.66521597 0.65064085 0.11621188
0.39157137 1.8005959 3.0799754 0.60329854 -1.3335705 -0.9691592 1.5717863 -0.59069717
-0.0023936767 0.6991867 0.2045337 0.23030357 -0.24390405 0.21140873 0.15568565 0.08086506
-0.25781608 -0.1793506 0.6631787 -0.63991076 -0.6274898 0.2667754 -0.27408186 -0.2804685
-0.24147502 -0.202126 -0.089548185 -0.32903856 -0.10961636 -0.09038616 -0.43857914 -1.1225885
-0.48593682 1.527876 -0.6704059 0.37398365 0.9971437 -0.30441198 -0.092168786 -0.40921903
2.135471 3.4931848 -0.38216698 1.8918262 4.636759 0.6081489 -1.2953104 -1.4886248
0.062699206 0.18603186 0.5216993 0.6373162 0.7275728 1.4565239 2.559851 -0.19071005
-0.84872305 -0.3062311 0.3264149 0.2568403 0.016864348 0.46296346 0.5196317 0.34910402
-0.012698621 0.043975525 0.15304786 -0.25390562 -0.09541935 0.35638583 -0.28565842 0.032947026
0.16220497 -0.5226934 -0.018794587 -0.13740353 -0.4360494 -0.3635004 0.25020695 -0.3705471

model.3.bias f4 [20]
00000000: 1fb0 b1be f3a3 35be 9f98 1b3f 5047 9c3f
00000010: db07 413e 3509 8bbe c331 c7be 1528 483f
00000020: 7d78 9e3e c44a 363e 6bed 003e 3bc4 b8be
00000030: 19c1 5cbe 0fb2 cebf de30 1e3f fb76 923e
00000040: 3392 2cbe e567 b03e ea74 06bc 6024 463f
-0.34704682 -0.17738323 0.60779756 1.2209263 0.18850653 -0.27155462 -0.38905153 0.7818616
0.309513 0.17801958 0.12590568 -0.36087212 -0.21558036 -1.6148089 0.61793315 0.286064
-0.16852646 0.34454265 -0.008206585 0.77399254

model.4.weight f4 [20]
00000000: cab5 2a3f 8d70 b23f af7f aa3f 7287 2c40
00000010: 6acb c23f 13f3 cb3f d861 873f 3e98 a93f
00000020: 9c3c 0940 32b4 c23e bfcb 3340 21e5 c03f
00000030: 6606 5340 fd76 3d40 1a2f 0440 3ec8 3a3f
00000040: d88f a03f 4643 ac3f 4c98 e33f 22eb f43f
0.6668364 1.3940598 1.3320216 2.695767 1.5218327 1.5933555 1.0576735 1.3249586
2.1443243 0.38028103 2.8093107 1.5069925 3.2972655 2.9603875 2.0653749 0.72961795
1.2543898 1.345803 1.7780852 1.9134257

model.4.bias f4 [20]
00000000: a6ed 9bbf 648b 0ebf 8cbf eabf 067e 63bf
00000010: 7df8 cdbe 4667 0abf c327 8abf 1d0f 39bf
00000020: 393f 10be a328 8dbf a19d 6c3f 39cf 70bf
00000030: 36f6 d63f d22f a13f 5d53 8fbf c63a 1e3f
00000040: 4b7c 16bf 2b63 75be c02d 80bf ade0 74bf
-1.21819 -0.55681443 -1.8339705 -0.8886417 -0.40228644 -0.5406383 -1.0793384 -0.72288686
-0.14086618 -1.1028026 0.9242802 -0.94066197 1.6793888 1.2592719 -1.1197315 0.6180843
-0.58783406 -0.23963611 -1.0013962 -0.9565533

model.4.running_mean f4 [20]
00000000: cec0 1f41 524e b940 940b b840 1fc9 3b40
00000010: e6d0 04c2 bee3 07c1 a33b c640 57fa 2441
00000020: 50ff d5c1 b30a 03c1 f968 b4c0 e857 8640
00000030: c4a8 24c1 23ba 42c1 ddb4 5fc1 e189 3ec1
00000040: 7b22 1e3f db97 6541 da0b b0c1 b0e7 b5c0
9.984571 5.7908106 5.7514133 2.9341505 -33.204002 -8.493101 6.19478 10.311118
-26.749664 -8.190112 -5.637814 4.1982307 -10.291203 -12.170444 -13.981656 -11.908662
0.61771363 14.349574 -22.005787 -5.684532

model.4.running_var f4 [20]
00000000: 2671 f842 7d42 8c43 57bd 6643 ba15 d943
00000010: f136 f643 703b 6543 3f8d 2b43 5b02 8643
00000020: b4d7 1444 f622 4043 d08a ba43 b567 0b43
00000030: 0b3e 8243 418f 8243 63ba 4f43 fc13 3c43
00000040: e811 1443 4ec1 cf43 fccd 7c43 d465 da42
124.22099 280.51944 230.73961 434.16974 492.42923 229.23218 171.55174 268.0184
595.37036 192.13657 373.08447 139.4051 260.4847 261.11917 207.72807 188.07806
148.06995 415.5102 252.80463 109.19888

model.6.weight f4 [20, 20, 3, 3]
00000000: f928 27bf 77ba 14bf d98e fe3c 0593 d0bf
00000010: 8365 543e 609c 83bf 4508 5e3e 7495 d1bf
00000020: 8b09 20c0 e3aa 7abf 3588 c83e 64b1 533e
00000030: 58ac 89bd 3987 983f 90d2 f03d 3578 8f3f
00000040: 8285 dd3f 56eb bcbe 31a6 853f 4fbd 423e
00000050: 877b 35bf c9a0 9b3e 2998 c43e ebdd 983d
00000060: b4c9 53bf bd91 453f 0738 353f 8506 a23e
00000070: f713 283f 7d9e 0f3f 1edf f63f 3aa3 8040
00000080: 7d53 943f 466e 6540 e32a b840 9c08 c93f
00000090: 969a e5bf e2f4 38bf 7853 9abd ea45 62bf
000000a0: a0e5 af3f c83c 8a3f 8d2f 9ebf 2f56 9f3f
000000b0: 8561 71bd ad9a 923f a6f2 40bf a48a 0dc0
000000c0: 4976 a33f 533e b7be f36f 5dbe fb1b 0ebd
000000d0: 025b afbf a026 46be c64a abbf 5841 b9bf
000000e0: de20 6cbf 37de db3f 7588 9fbe 45c1 85bf
000000f0: 2839 b33f aa34 2dbc 5da0 0dc0 b0e8 cdbf
00000100: 9743 3c3e df88 afbe 5a08 0c3f 6207 b23e
00000110: 741b 99bf 3c32 d83e c0eb f1be c8c3 1dc0
00000120: 5254 e2bf a803 96bd f72c 8dbf 2e84 e1be
00000130: ea7b fabe 8f52 b2bf cac4 8c3f 7670 56bf
00000140: fe16 bdbf 70ee 94be 2cdc 29bf 7e43 03bf
00000150: edef 493f c8ae d83d d459 60bd 5287 683e
00000160: fcfc 08bf fcf3 2ebf 24bc c3be e524 d6bd
00000170: cbee c13e 4e76 03be e33c b73e bf63 163f
00000180: 5fbc a73e 5815 b33f e0f9 213f 2ee5 39bf
00000190: 24b3 eabf a0b6 49bf d77a b33f cbe4 b2be
000001a0: a793 97bd 14ac e73f 764c 1f3f 68f2 b03e
000001b0: f828 093f f7bc 4cbf d7c8 cdbf f24a 89be
000001c0: 8389 1d3f 7dee 36be faa1 a7bd b331 a23f
000001d0: d9d9 dbbe 9f7d 19bf 2d4f 0fbd 2349 7b3f
000001e0: 5ac5 bd3e 345a ad3f d99e c93f f753 0fbe
000001f0: a2bf 04bc 13e5 47be c9be 4f3f aca9 a5bf
00000200: d0df 633e 14da 1e3f 1e54 63bf f246 d2bf
00000210: 4122 653f b9c9 aebe 80ad d1bf ad77 a8bf
00000220: 0752 03c0 2e94 0ec0 356d 98bd 9163 57bf
00000230: d1e6 d3bf 8600 863f 46f3 febf 4624 56c0
00000240: e34d 22bf f0b1 17be 5453 e5be 2d90 4e3f
00000250: c167 87be ac74 193f 0115 693e 3545 bb3f
00000260: 211f 0640 7ad5 88bf a60c b5bf 2db1 2b3e
00000270: 70d5 67bd 9264 28bf f7bb a13e bc29 1040
00000280: cb30 1240 5b8c c3be fe17 93bf 683c d53f
00000290: 2c7c 223f 3873 fabd 0e53 143f 0e9b 92be
000002a0: b653 c63f 0abe 2fbf 7d4e 26bf 4971 e8bf
000002b0: e247 3c3f 42a7 f23f 9297 afbe f391 b03f
000002c0: 4515 1d3f f7b7 f33f 5949 603f bd79 ddbf
000002d0: 1a9f 93bf fbd2 e2be 230a e83d 31a1 16bf
000002e0: af36 0ebf 67f8 d9bf f46f 36be 5b8e 29bf
000002f0: 686d a73d 2b01 01bf 4466 e33f 77e2 863e
00000300: 775a 9dbe a76a ce3f af44 713f 574e 3abf
00000310: a713 94bf 52c0 cabe ad40 05bf 4a4f bf3f
00000320: 7ae9 8bbe 06fa 02c0 89b1 ceba f101 dabf
00000330: 14c4 833e e8c7 343f 6fa8 9abf cb7a 2b3f
00000340: b139 de3f 9bb3 4c3f a6dd ed3d 16fc 95bf
00000350: 7bc8 ffbf 433d 1ebf 23b5 4fc0 62a9 84c0
00000360: f3dc be3f 6e5e a4bf ef19 54bf 55b4 253f
00000370: 57fb 6dbf 6eaa bfbf 61e2 5fbe d82a e1be
00000380: 4321 3abf 552a d03f 78e6 b13e a132 8a3c
00000390: 2deb 033f 8530 8abf ab88 a7be f010 7dbf
000003a0: 232e b0bf 157a 473f 7d37 163f 7159 7abe
000003b0: 049d 27bd 0179 47bd 5aab fcbc 58e7 9ebe
000003c0: 6ac4 c2bf 34be d3bf d61f 1ec0 e152 3c3f
000003d0: f408 003f 8049 a03e 58cc b53e 2125 843f
000003e0: 6b93 b83e 8856 d0be 656d 2cbf aee4 adbf
000003f0: f741 15be 8e24 3ac0 4524 0bbf 00ba 4abf
-0.65296894 -0.5809702 0.031073974 -1.6294867 0.20741849 -1.0282097 0.21682842 -1.6373734
-2.5005825 -0.97917 0.39166418 0.20673138 -0.06722325 1.1916267 0.117589116 1.1208559
1.7306368 -0.36898297 1.0441343 0.19017528 -0.7089161 0.30396107 0.3839734 0.074642025
-0.8272965 0.77175504 0.70788616 0.316456 0.65655464 0.5610121 1.928684 4.019925
1.1587979 3.5848556 5.755235 1.5705752 -1.7937801 -0.7224866 -0.07535452 -0.8838793
1.3741951 1.0799799 -1.2358261 1.2448176 -0.058930892 1.1453453 -0.7537025 -2.211587
1.2770473 -0.35789737 -0.21624736 -0.034694653 -1.3699648 -0.19350672 -1.3382194 -1.4473066
-0.9223765 1.717719 -0.31158796 -1.0449606 1.4001818 -0.010571638 -2.2129128 -1.6086636
0.18385158 -0.34284112 0.54700243 0.34771258 -1.1961503 0.42225826 -0.47250175 -2.4650745
-1.7681983 -0.07324916 -1.1029347 -0.44046158 -0.48922664 -1.3931445 1.0997555 -0.8376535
-1.4772642 -0.29088163 -0.6635158 -0.5127486 0.7888172 0.10580212 -0.054773167 0.2270787
-0.53511024 -0.6834104 -0.38229477 -0.10456256 0.37877497 -0.12838098 0.3578864 0.5874595
0.32760903 1.3990889 0.63271904 -0.72615325 -1.8335919 -0.7879429 1.4021863 -0.3494018
-0.07401209 1.8099389 0.62226045 0.3455994 0.5357814 -0.7997584 -1.6076916 -0.2681499
0.6153795 -0.17864414 -0.081851915 1.2671417 -0.42939642 -0.5995731 -0.034987617 0.9815847
0.3706463 1.3543153 1.5751601 -0.13996874 -0.008102329 -0.19520979 0.8115049 -1.2942405
0.22253346 0.6205151 -0.8880023 -1.6427901 0.8950539 -0.34138277 -1.6381073 -1.3161522
-2.0518816 -2.2277942 -0.074427046 -0.841363 -1.6554815 1.046891 -1.9917991 -3.345964
-0.63400096 -0.14813972 -0.44790137 0.80688745 -0.26446345 0.5994365 0.22761919 1.4630495
2.09565 -1.0690148 -1.4144485 0.16766806 -0.056600034 -0.6577846 0.31588718 2.2525473
2.284228 -0.3819302 -1.1491697 1.665906 0.6347072 -0.122290075 0.5793923 -0.28633922
1.5494297 -0.6864935 -0.64963514 -1.8159572 0.73547184 1.8957293 -0.34295326 1.379454
0.6136058 1.9040517 0.8761192 -1.7302777 -1.1532929 -0.4430159 0.113300584 -0.5883971
-0.5555219 -1.7028931 -0.17816144 -0.6623284 0.081751645 -0.5039241 1.7765584 0.26344654
-0.30733082 1.6126298 0.9424543 -0.7277579 -1.1568497 -0.39599854 -0.5205181 1.4946072
-0.27326566 -2.0465102 -0.0015769462 -1.7031842 0.25735533 0.7061753 -1.2082652 0.6698424
1.7361356 0.79961556 0.11614542 -1.1717556 -1.9983057 -0.6181223 -3.2454307 -4.1456766
1.4911178 -1.2841318 -0.8285207 0.6472829 -0.9296164 -1.4973886 -0.218637 -0.43978
-0.72707003 1.6262919 0.34746146 0.016869845 0.51530725 -1.0796057 -0.32721457 -0.9885397
-1.376408 0.7792066 0.5867842 -0.24448182 -0.040921226 -0.048699383 -0.030843426 -0.31035876
-1.5216191 -1.654242 -2.470693 0.73563963 0.5001366 0.31306076 0.35507464 1.0323831
0.3604997 -0.40691018 -0.6735442 -1.3585413 -0.14575945 -2.9084811 -0.5435222 -0.79190063

model.6.bias f4 [20]
00000000: 3d48 753e aadf 7dbe 230c 543e cf01 1dbe
00000010: 2062 cbbd a218 1bbe 8215 393f bfe0 a53e
00000020: 450d 81be ace8 32bd 739e 823e 000b 72bf
00000030: 12cb e33d 717b 723f 8067 2c3f 615a c23c
00000040: 2291 8cbf f65d b1bd 8994 af3d 2af8 9d3d
0.23953338 -0.24792352 0.20707755 -0.15332721 -0.09930825 -0.15146115 0.72298443 0.3239803
-0.25205436 -0.043678924 0.25511512 -0.94548035 0.11122717 0.94719607 0.6734543 0.023724737
-1.0981791 -0.086605 0.08573253 0.07713349

model.7.weight f4 [20]
00000000: c441 bf3f 5ade 1340 e405 3e40 3cf4 713f
00000010: 0194 cf3f aa82 b63f bbc4 0640 e3ad 363e
00000020: dffd bd3f a104 1b40 3fcd bb3f 302d 1940
00000030: 8410 a93f c1e1 1540 de2c cf3f 27d1 1940
00000040: 46d5 f03f 342d c83f 31af e73f 00d2 f53f
1.4941945 2.3104463 2.9691095 0.945133 1.6217042 1.4258626 2.1057575 0.1783977
1.48431 2.4221575 1.4672011 2.393383 1.3208165 2.341904 1.6185567 2.4033906
1.8815086 1.5638795 1.8100339 1.9204712

model.7.bias f4 [20]
00000000: 8fe2 51be 2df9 11bf 3ccf 23bf 89ba c0bf
00000010: 6129 61bf 2185 45bf f636 51bf 2210 7abf
00000020: 5850 4abf bf83 9bbb 4edb 24be 5d67 22be
00000030: 52f2 5ebf 6c00 a0be d5f2 92bf 493c 8cbf
00000040: afce 2dbf b566 8cbf 1ad0 1ebe c2ad 773f
-0.20496581 -0.5702084 -0.6398809 -1.5056926 -0.87953764 -0.77156264 -0.8172449 -0.97680867
-0.79028845 -0.00474593 -0.16099283 -0.15859742 -0.870885 -0.31250322 -1.1480356 -1.0955898
-0.678935 -1.0968844 -0.15509072 0.9674951

model.7.running_mean f4 [20]
00000000: 8f22 3a41 ae72 61c1 5b5f f7c0 56c8 1bc2
00000010: 6133 65c1 bbb2 bf40 9e17 03c1 8228 3dc1
00000020: 4ec2 abc1 67df bf3f 0a5d be41 fc23 2dc1
00000030: 40bc 13c2 7a1e 85c0 38dd 2dc1 7801 8ec1
00000040: 904f 1ec2 e1e3 0d41 98a6 9841 8456 223f
11.633437 -14.090498 -7.73039 -38.94564 -14.325044 5.9905677 -8.193266 -11.82239
-21.469875 1.4990052 23.79543 -10.821285 -36.933838 -4.1599703 -10.8665085 -17.750717
-39.577698 8.8681345 19.081345 0.6341326

model.7.running_var f4 [20]
00000000: 0b5f 5c44 8c1e 0a44 2a16 c444 d30b c643
00000010: 1941 1f44 0879 2444 e1d5 f043 d3af bd43
00000020: e3b3 1f44 4dbf a044 26ab 3944 c5bf a144
00000030: 8fb2 f543 a66d 5f44 e96c 0744 910e ef43
00000040: cb74 a044 c6e8 f143 8d66 8a44 35f1 1e44
881.48505 552.4773 1568.6926 396.09238 637.01715 657.8911 481.67093 379.37363
638.8107 1285.9781 742.6742 1293.9928 491.395 893.71326 541.7017 478.1138
1283.6498 483.81854 1107.2047 635.76886

model.10.weight f4 [40, 20, 3, 3]
00000000: 31ce 7bbf 41f9 fdbe 4c27 60bf db45 dfbe
00000010: ae9d 4c3e d0e2 d13f 060b cf3e 5ed5 093f
00000020: 0c3d ba3f a0a7 29bf 8c7a 5f3f ef6d 6b3f
00000030: e152 2bc0 6de9 87be 0df9 edbd b808 24bf
00000040: 6a06 adbf 4032 31bf bc8c 703d 70e6 c03f
00000050: 2eaa c03d f393 8bbe 6139 89bf d08d c0bf
00000060: 1d73 58bf 51c3 2ebf dda5 d53e fa87 d63e
00000070: 5673 7abf 04b5 f13e ccf4 0e40 a415 293f
00000080: 9196 483c 9afe 70be 5a07 0cc0 bf18 5dc0
00000090: 1862 41bf 6f22 85c0 c45e dabf 5878 4f3f
000000a0: 0a5f efbf 063a cb3e bc2f 843e 29f6 4ebe
000000b0: 4099 903f 8f05 b33f 2f00 b33d f512 7c3f
000000c0: 95da babf 793e 0ebe 3e94 aa3c b251 86bf
000000d0: c30b 783f 656a 803f 4c6b f6be bbdf 273f
000000e0: ff26 703f 4b34 7ebe e1c8 553f 30cf fa3f
000000f0: d17a d8be e3b9 c7bf e8b8 48c0 af3f 0dbf
00000100: 638e 19bf 8824 d23e 7970 32bf 3af3 423e
00000110: 4a7b b0be 5e4a 08be 868b 9f3f 26cc 573e
00000120: 6a1b 9abf 2672 2b3b 5e30 ca3f ea5f a83c
00000130: 9529 8e3f 2dee ae3f f81c 993f 52f0 c8bf
00000140: 8e82 4bbf cf67 7a3f 7cd8 0a40 dee9 b6bf
00000150: 441b 61bf b529 c7bf e44f 99be be97 06be
00000160: 3a58 35c0 c6a3 1dbe b65f 07c0 dd3f a0bf
00000170: 0db7 3f3f 65a9 57bf 360a 2b3f 96a6 4140
00000180: c18e 0cbf 2116 19c0 6f9c 193d e60a 813f
00000190: 6508 2c40 5554 973f 1f59 f0be 9582 353f
000001a0: e9fc f3bf 606e 543e abbb 003e 54d5 81bd
000001b0: 18c6 be3f ba5a 163f 725a aa3f 2c8d 3240
000001c0: 80c9 3f3e f56a 9abf b74a 05be 3299 0ac0
000001d0: 022e a0bf fa93 09c0 2134 44bf f260 a03f
000001e0: b40a a9bf 34ff dd3e 32a6 1740 7d08 0ac0
000001f0: ed5d cbbf 2260 8fbf f28d 70bf 12e7 fabe
00000200: c8fa a63f a214 e2bf 8c24 39be 018e 173f
00000210: 1adc 7d3e 9b1a bdbe dada 8f3e 384a 833c
00000220: 4025 3240 05f5 11be 80bf 58bf 631d 0440
00000230: dbff 1dbf fe3a edbf 5a7f 19c0 5eb6 a0bf
00000240: 9bc6 76bf bf1e f0be 95e6 2ebd 51b9 a5be
00000250: 3ef3 79bf 86c3 6dbf c903 84bf a9be a0bf
00000260: 040d 2e3f b869 87bf ea76 45bf 0fcf a13e
00000270: 071c 27c0 6730 dfbe 617f 3b3e 3353 07c0
00000280: 15b1 0f40 ea2b b43f 7620 c5be 3d3c 1dbf
00000290: 8c35 1dbf 2a3d a0bf 302a c2be f0a8 903c
000002a0: 3ac1 27be a232 9d3f b4c0 933f 4eb1 02c0
000002b0: 69eb 693f 0925 da3f 775a c1bf 64e3 04bf
000002c0: ad67 c93e bd8b a4bf 6aa8 dabf ed5b 89bf
000002d0: 1e65 20bf 0de2 923f a3a8 24bf 621f ec3c
000002e0: 4189 413e 9784 c9bf 374c 70bf d2fa 4cbf
000002f0: 2e6a a7bf 5bf1 d73e 0865 59be a40e 7cbf
00000300: 5bff 4f3f ed83 c03f 5a6d 81bf a0b6 ccbd
00000310: 55a8 103f 4a67 f0bf 6fcf 34bf 22ae bc3f
00000320: 75f8 58bf cdba 1fc0 6816 1240 2323 80bf
00000330: b56f 85bf 61c0 c23e cf9a 8cbf a7af d4bf
00000340: 1506 47bf 39be d0bf 7a21 1dbf 533a cabf
00000350: d8ac 8fbf 396d bbbf a526 77bf 9940 893e
00000360: a187 113d b236 1e3f f36d 153f 5835 08bf
00000370: 12cb 73be fe36 a6be c49f 79bf 7fe9 ce3f
00000380: 524e ebbe b176 ccbf a178 0dbf 8052 afbe
00000390: e7bb 53bf ab6e 47be 4abb 2abe 5c7a 0b3e
000003a0: 4eaf 453f 9bc2 163e f738 0340 7ea2 793f
000003b0: a598 5f3f a3b0 933f ba8d 2dc0 81af 39be
000003c0: 5ac4 0cbf cb38 24bd 07a0 71c0 b2d6 8bbf
000003d0: 8432 f7be fac7 87be f804 d7be bb50 8ebe
000003e0: 5c92 40bf 8a6f 413f 3b42 a03f f3e5 fc3e
000003f0: 3f67 183f b583 4040 cf60 7bbf b91a d73e
-0.983615 -0.49604228 -0.8755996 -0.43607983 0.19982025 1.6397343 0.40438098 0.538412
1.454988 -0.662714 0.87296367 0.9196462 -2.6769335 -0.26545277 -0.11619768 -0.64075804
-1.3517582 -0.692173 0.058727965 1.5070324 0.09407459 -0.27261314 -1.0720636 -1.5043278
-0.8455065 -0.6826678 0.41728106 0.41900617 -0.9783224 0.47208416 2.2336912 0.66048646
0.012242929 -0.23534623 -2.1879487 -3.4546354 -0.75540304 -4.1604533 -1.706017 0.81043005
-1.8700879 0.39692706 0.25817668 -0.2021109 1.1296768 1.3986071 0.087402694 0.98466426
-1.4597956 -0.13891019 0.02082264 -1.0493681 0.96892947 1.0032469 -0.48128736 0.6557576
0.93809503 -0.24824636 0.8350964 1.9594479 -0.422812 -1.5603603 -3.1362858 -0.551753
-0.5998289 0.41043496 -0.6970287 0.19038096 -0.34469062 -0.13309619 1.2464454 0.2107397
-1.2039616 0.0026160567 1.579601 0.020553548 1.110644 1.3666435 1.1961966 -1.569834
-0.79496086 0.9781465 2.1694632 -1.4290121 -0.8793223 -1.5559603 -0.29943764 -0.13143823
-2.83351 -0.15394506 -2.1152167 -1.251949 0.7488869 -0.8424285 0.66812456 3.0257926
-0.54905325 -2.3919756 0.037502702 1.0081451 2.6880124 1.1822611 -0.46942994 0.7090238
-1.9061557 0.2074523 0.1257159 -0.06339517 1.4904203 0.5873219 1.3308852 2.7898664
0.1872921 -1.2063891 -0.13016783 -2.1656003 -1.251404 -2.1496568 -0.7664204 1.2529585
-1.3206391 0.43358767 2.3695188 -2.156768 -1.5888039 -1.1201212 -0.9396659 -0.49004418
1.3045282 -1.7662547 -0.18080348 0.59201056 0.24790993 -0.3693436 0.28096658 0.016026601
2.7835236 -0.14253624 -0.84667206 2.0642936 -0.6171853 -1.8533628 -2.398398 -1.2555654
-0.963968 -0.46898457 -0.04270037 -0.32367948 -0.97636783 -0.9287647 -1.0313655 -1.2558185
0.6798861 -1.0579138 -0.77134573 0.31603286 -2.6110857 -0.43591616 0.1831031 -2.114453
2.2451832 1.4075902 -0.38501328 -0.6142004 -0.6140983 -1.2518666 -0.37922812 0.01765868
-0.16382304 1.2281077 1.1543183 -2.0420718 0.9137483 1.7042552 -1.5105733 -0.5190947
0.3933691 -1.2855145 -1.7082646 -1.0731179 -0.6265429 1.1475235 -0.6431982 0.028823558
0.18900014 -1.5743588 -0.93866295 -0.8007022 -1.3079278 0.42176327 -0.21229947 -0.9845984
0.81249017 1.504026 -1.0111496 -0.099957705 0.56506854 -1.8781521 -0.7062902 1.4740641
-0.84754115 -2.4957764 2.2826176 -1.0010723 -1.0424715 0.38037398 -1.0984744 -1.6616105
-0.77743655 -1.6308051 -0.61379206 -1.5799049 -1.1224623 -1.4642707 -0.9654334 0.26807097
0.035529736 0.6180221 0.58370894 -0.53206396 -0.23807934 -0.3246383 -0.9750941 1.6165007
-0.4595819 -1.5973722 -0.5526219 -0.3424263 -0.8270859 -0.1947581 -0.16673008 0.13620895
0.7722062 0.14722674 2.0503519 0.9751357 0.8734229 1.153828 -2.7117753 -0.18133356
-0.5498711 -0.040093224 -3.7753923 -1.0924895 -0.48280728 -0.26519758 -0.41995978 -0.27795967
-0.75223327 0.7556082 1.2520212 0.49394187 0.5953254 3.0080388 -0.98194593 0.42012575

model.10.bias f4 [40]
00000000: 0526 d73c c55d 8bbd 9760 263d 8345 503d
00000010: b669 f23d c5d1 2fbe 2882 bf3d 0254 d93c
00000020: 9de7 4fbd 8414 8b3d f51f 1dbc 83d6 eabc
00000030: c73e 07be c697 a03d e8e9 bb3d d9dc fdbd
00000040: 84c4 c7bc eb32 e3bd 6212 943d edf6 14be
00000050: f565 8a3d dfe3 573e aa1c ab3d cd55 76be
00000060: cba7 4cbe 963f a03d 2a27 ec3d 7a7e 7e3e
00000070: 8f7d 32be fe56 173e cef4 8a3e 1a30 323e
00000080: 30e2 de3d 57bc 473e 8070 8b3e c52f 203e
00000090: 9767 95bd c5d9 2f3d 1c47 103e 13c3 4c3e
0.026263246 -0.068049945 0.04061946 0.05084754 0.11836569 -0.17169864 0.09350997 0.026529316
-0.050757993 0.067910224 -0.009590139 -0.02866674 -0.13207541 0.078414485 0.091754735 -0.12395639
-0.024385698 -0.11093696 0.07230069 -0.1454732 0.06757728 0.2108302 0.083550766 -0.24056168
-0.19985883 0.07824628 0.115309075 0.24852934 -0.1743071 0.14779279 0.27139896 0.17401162
0.108829856 0.1950544 0.27234268 0.15643223 -0.07295149 0.04293229 0.14089626 0.1999629

model.11.weight f4 [40]
00000000: 53ab 4540 9889 0d40 45d6 0540 7ee3 d13f
00000010: ba67 d13f 3d7f fb3f e956 b43f 621c db3f
00000020: 6d06 d33f 20bf f73f d66a 1440 3c76 1b40
00000030: ca96 a23f 40d0 d23f 659b 0140 6ce1 cc3f
00000040: 5cf3 0f40 8bcb 2440 9064 bc3f 0a5f 3140
00000050: 9a93 9e3f f2f1 0f40 476d f83f e19c bf3f
00000060: 7957 f23f ba5b cd3f df25 df3f 4081 b13f
00000070: 21d0 1340 748b f03f de8f 2540 372c b53f
00000080: f9fc dc3f 9f46 c93f 70fb 3440 0833 d83f
00000090: 6cfe b73f 61e9 d03f 1e5f 8a3f 50a6 2f40
3.0885818 2.211523 2.091203 1.639755 1.635978 1.9648205 1.4089023 1.7118037
1.6486336 1.9355202 2.3190207 2.4290915 1.2702267 1.6469803 2.0251095 1.6006293
2.2492285 2.5749233 1.4718189 2.7714257 1.2388794 2.2491422 1.9408349 1.4969751
1.8932945 1.6043618 1.7433432 1.3867569 2.3095782 1.8792558 2.586906 1.4154118
1.7264701 1.5724677 2.8278465 1.6890574 1.4374518 1.6321222 1.0810277 2.744526

model.11.bias f4 [40]
00000000: 2672 e5bf 22f6 e6be a171 65bf 1759 6cbf
00000010: 6eb8 293e 5054 4cbf 2f42 6fbf 5a28 00bf
00000020: 3290 a6bf 2a03 2dbf 749e 8abf a0bb 533c
00000030: ad36 babf 7e86 4ebf 1605 22bf 7ca0 73bf
00000040: 5f37 dcbe ab3e 57bf 05bc 45bf 6b1d 203f
00000050: 82d0 a1be a342 b2be 22a4 64bf 6a94 02bf
00000060: fa38 e0bf a839 253e cabb 4dbf 59d7 4abe
00000070: b98e 0cbf 4973 b9be ac74 b7bf fade 5fbf
00000080: 87ca 25bf 0424 d43e 2b6a 4dbf 462c 6ebf
00000090: 4615 b33e df46 90bf 8e12 abbe b25a 72bf
-1.792546 -0.4510966 -0.8962651 -0.9232344 0.1657426 -0.7981615 -0.93460363 -0.5006157
-1.3012755 -0.6758295 -1.0829606 0.012923151 -1.4547936 -0.8067397 -0.6328901 -0.95166755
-0.43010995 -0.8408 -0.7724002 0.6254489 -0.3160439 -0.34816465 -0.89312947 -0.5100771
-1.7517388 0.16135275 -0.8036467 -0.19808711 -0.5490528 -0.36220768 -1.433248 -0.8744961
-0.6476216 0.41433728 -0.80240124 -0.93036306 0.34977168 -1.1271628 -0.33412594 -0.9466964

model.11.running_mean f4 [40]
00000000: 05c0 0fc2 ac59 25c2 3b0d 5ac2 f058 a841
00000010: 9a8d 3ec1 c016 84c2 cf95 ad40 08af 4ebf
00000020: 7914 04c2 1141 69c2 900c 2cc2 d180 eac1
00000030: bf6d 7742 7b49 68c2 ddd0 48c2 b586 26c2
00000040: d5d2 a2c1 b79c 92c1 3d13 9641 4a5d 03c2
00000050: 2cbc 3dc2 826b 2dc2 4a55 36c2 499b 27c2
00000060: 028b 81c2 b897 23c2 fe00 dcc1 98c3 f1c1
00000070: 2763 49c2 76ec cf41 5a34 98c2 7da0 b241
00000080: 0c4b dbc1 fe28 edc0 8f00 fec1 cad3 14c2
00000090: ca16 00c1 722c 93c1 2103 27c2 bec2 a9c1
-35.93752 -41.33757 -54.51292 21.043427 -11.909571 -66.04443 5.424537 -0.80735826
-33.019993 -58.31354 -43.012268 -29.312899 61.857174 -58.07176 -50.203968 -41.63155
-20.352945 -18.32652 18.759394 -32.841103 -47.43376 -43.35499 -45.58329 -41.901646
-64.7715 -40.898163 -27.500484 -30.220505 -50.34683 25.99046 -76.10225 22.328363
-27.411644 -7.411254 -31.750273 -37.206825 -8.005564 -18.396702 -41.753056 -21.220089

model.11.running_var f4 [40]
00000000: e654 a844 4ec1 1845 b60b c344 2e68 e744
00000010: 3f7f c044 7e7b 2b45 5337 9744 f886 f344
00000020: 7eac b244 19fd ab44 5f9d 9444 1d61 9c44
00000030: 8e6a b444 5331 3145 1a7c 0545 fc47 9c44
00000040: d2f6 d344 b5bd 8944 5efc a044 9069 e244
00000050: a920 1745 db70 a244 e037 e244 792f a344
00000060: bf41 ee44 567f 5445 6825 ee44 d2f8 0545
00000070: 7d6e 4645 4bca b544 35e1 0a45 ae75 a144
00000080: 4eb3 6f44 4d3f d044 dc8b 1145 51c7 7844
00000090: 3c5c 8844 383b 8644 a6b6 9944 a699 0945
1346.6531 2444.0815 1560.366 1851.2556 1539.9764 2743.7183 1209.7289 1948.2178
1429.3904 1375.9093 1188.9178 1251.0348 1443.3298 2835.0828 2135.7563 1250.2495
1695.7131 1101.9283 1287.8865 1811.2988 2418.0413 1299.5267 1809.7461 1305.4835
1906.0546 3399.9585 1905.169 2143.5513 3174.9055 1454.3217 2222.0754 1291.6775
958.80164 1665.9781 2328.7412 995.1143 1090.8823 1073.8506 1229.7078 2201.603

model.13.weight f4 [40, 40, 3, 3]
00000000: c09f 3640 4ad6 a3bf 8ad8 4bbf 0944 9b3f
00000010: a159 d83e fdd9 b3bf 6bbe 94bf b82b 88bf
00000020: fa41 4cbf 39dc 93bf 6182 e3bf 52b7 353e
00000030: 35eb b4be 1c7d 20be 9637 0f3e cb8f ff3e
00000040: 2ef6 843e 8a1f 973f 8df7 0740 e4ac 38bf
00000050: 1dd4 3bbf 22e9 3c3f 4525 933f 1b87 203f
00000060: 736c acbe 9291 7c3e ab15 1ebe 48f1 0ebf
00000070: 9dd3 e3bf 2bd4 8c3e 740b c4bf 7de1 c9be
00000080: 9510 60bf 4037 183d 3ceb d43d 8c09 95bf
00000090: ee19 a93c 8e30 edbf d59c 0cbf e935 9fbf
000000a0: 2f7b 74bc bedb 39bf f7b3 95c0 fa68 e5bf
000000b0: 0967 f7bf e527 edbf a07a e63f 59e9 0640
000000c0: 2990 16bf 366e 0540 7f9b 713f 2315 d5be
000000d0: f11a 343f ccfb d6be 1cbf bb3e 651b 903f
000000e0: dcab c93f e7aa 813e 8c6f 91bd 6f70 16bf
000000f0: 9d1b c33f 1896 b2bf a0db d0bf 51d7 e5bf
00000100: 186e cc3f 5638 803f 9c0a dd3d f740 943f
00000110: 9b84 02c0 967c 933f 08e4 963f 96c1 ddbf
00000120: 2c62 493f 4a63 043f b870 0640 b420 1a40
00000130: ed0d 2f40 116f e83d bda2 903f cc5e 6240
00000140: a75a 763e 92a2 81bf e377 2f3f 59c7 f13d
00000150: 0f37 53bf e33d 4d3f 09fd 03bf d4f2 0fbf
00000160: 23ed cc3f 5e2a 873f 6cfc 46bf 4dfc 82bf
00000170: 03ae 20c0 7b48 7a3f 8423 b13f 8240 91bf
00000180: a463 fd3f 2917 0340 1555 0bbf 14f1 4a3f
00000190: 89d4 1ac0 8efe b7be f2df f3be 3aa7 a8bf
000001a0: f5dc 9abf 66dd c63f ef61 1740 fa54 05c0
000001b0: dd4b 1bc0 2bf8 1b3f 272e 7d3f d584 a4bf
000001c0: 63f7 013e e1ba 0bbf f4f5 1340 0293 693f
000001d0: be28 a5bf bf77 9dbe 0531 83bf c14f 8abf
000001e0: 7c0c 503f 8d39 26c0 6039 89c0 ad16 713f
000001f0: 9534 02c0 a7e7 7dc0 b0b0 e7be debf c9bf
00000200: 8994 eabe cacf 2a3f 980a 6cbf 032d babf
00000210: 3bb1 9e3f cc8f b0be c6f8 bcbf 9d04 cdbe
00000220: 71c4 353b 3b78 b53f 359d 0a3f 6a5f 13c0
00000230: afe8 e3bf f64c b23e 9981 e1bf ccce 1bc0
00000240: 2340 ac3f 5f3c 1bc0 e1d9 8f3f 5e59 dc3f
00000250: 6ec6 813e ffc0 ab3f d1de bf3e 468e 2b3f
00000260: 8a4f 0abf 404e c73d c4e9 243f 893d a03f
00000270: 6f03 bf3f 9f2d 91be a743 a2bf 5082 8240
00000280: 6ef7 fabf e618 d9bf 401e 39c0 a6a2 88be
00000290: 908b 9abf 0d88 20c0 19f8 26bf a354 d0bf
000002a0: 2138 45bf c780 41be c2b3 2ec0 4d25 803f
000002b0: 7289 91bf b042 3dbf be88 ab3f 5add 86bf
000002c0: 612b bebe fbab 74bf d97c dbbf defe 87be
000002d0: 6d73 b5be 6108 b73f 7b4a 6d3e 3863 5cbf
000002e0: 8293 163d 2874 903f ecda 213f df68 883f
000002f0: 1cb5 1940 ea17 38bf e2c1 b13f e688 d2bd
00000300: 70b1 693e d678 ba3f 30ee bbbe c480 6f40
00000310: 6ab0 f23d 0ff5 593e 9211 923d dd1e 0c40
00000320: ed55 1b3f 035c 8c3f 3a90 2d3f 6bc9 0ebe
00000330: b14e de3e 836c adbc a29f b4be 1df5 bcbf
00000340: 71c1 5ebe 42d4 64bf 2db7 43be cdc6 17bd
00000350: d8d2 83bf 2b65 363f 68bb 153f 87b6 cbbe
00000360: ca7c 4ebf 84c1 4b3f c3a6 edbe 895e 56bf
00000370: f87c 46bf 1bef a6bf b576 b33f c54b 09bf
00000380: cf2f 2ec0 c1bd 59bf dfa4 f6bd 3774 9bbf
00000390: d13f c9be 7b21 293c 7c5d a0bd 7b94 253f
000003a0: 3c1a 503f 72e7 553f 0592 d4bd c386 21c0
000003b0: 46fa e1be fae9 963d 9e4c 99bf 36c7 193f
000003c0: 6f8c aabf 8f43 7fbf 1172 b73e 1b5d 71bf
000003d0: b101 cdbe 5c72 b7bf 6e7d f3be f845 05bf
000003e0: 07f1 c9bf a913 9b3f 88d1 453f 9bd6 1dbe
000003f0: 8a5e df3d 5ca4 b93e b01b 6ebf 958e 86be
2.8535004 -1.2799771 -0.7962729 1.2130138 0.4225588 -1.40509 -1.1620611 -1.0638342
-0.7978817 -1.1551582 -1.7774163 0.17745712 -0.353357 -0.15672725 0.13986048 0.49914393
0.2596907 1.18065 2.1244843 -0.7213881 -0.73370534 0.7379323 1.1495749 0.62706155
-0.3367649 0.24664906 -0.15437953 -0.55836916 -1.7798954 0.2750562 -1.5315995 -0.39429846
-0.875253 0.037162066 0.1039643 -1.1643538 0.020642247 -1.8530443 -0.54926807 -1.2438327
-0.014921947 -0.72600925 -4.6782184 -1.7922661 -1.9328319 -1.85278 1.8006172 2.1079924
-0.5881372 2.0848517 0.94377893 -0.4161769 0.7035361 -0.4198898 0.36669242 1.125836
1.5755572 0.253257 -0.07101354 -0.5876531 1.5242802 -1.3952055 -1.6317024 -1.7956334
1.5971098 1.0017192 0.10793039 1.1582326 -2.0393436 1.1522396 1.178834 -1.7324703
0.78665423 0.51714003 2.1006298 2.408246 2.735225 0.11349309 1.1299664 3.537036
0.24058019 -1.0127738 0.6854231 0.11805601 -0.8250589 0.80172557 -0.51557976 -0.562299
1.6009868 1.0559804 -0.77728915 -1.0233246 -2.5106208 0.97766846 1.3838964 -1.1347811
1.9796033 2.0482886 -0.544267 0.79274106 -2.419222 -0.35936397 -0.47631794 -1.3176033
-1.2098681 1.5536315 2.3653524 -2.0833116 -2.4265053 0.6092555 0.9889855 -1.2853037
0.12692027 -0.5458203 2.3118868 0.9123994 -1.2903059 -0.30755422 -1.0249335 -1.0805589
0.8126905 -2.5972626 -4.288254 0.94175225 -2.0344594 -3.967264 -0.4525199 -1.5761678
-0.45816448 0.6672331 -0.92203665 -1.4544986 1.2397836 -0.34484708 -1.476342 -0.40042582
0.0027735496 1.4177316 0.5414613 -2.3026986 -1.7805384 0.34824342 -1.7617675 -2.4344969
1.3457073 -2.4255598 1.1238366 1.7214773 0.25346702 1.3418273 0.37474683 0.6701397
-0.54027617 0.09731722 0.644192 1.2518779 1.4922923 -0.2835512 -1.2676896 4.0784073
-1.960676 -1.6960723 -2.8924713 -0.2668659 -1.2073841 -2.5083039 -0.65222317 -1.6275829
-0.7703877 -0.18896781 -2.7297215 1.0011383 -1.137007 -0.7392988 1.3401105 -1.0536301
-0.3714247 -0.9557492 -1.7147475 -0.26561636 -0.35439625 1.4299432 0.23172943 -0.86088896
0.03676177 1.1285448 0.63224673 1.0657004 2.401679 -0.7191149 1.3887293 -0.102800176
0.22821593 1.4568126 -0.3670516 3.7422342 0.118500546 0.21284889 0.071322575 2.1893837
0.6067799 1.096558 0.677982 -0.13944022 0.43419412 -0.021169906 -0.3527804 -1.4762303
-0.2175348 -0.8938638 -0.19112845 -0.037054826 -1.029872 0.7124812 0.58489084 -0.39787695
-0.80659163 0.79592156 -0.46416292 -0.83738 -0.7753444 -1.3041719 1.4020602 -0.5363124
-2.721668 -0.85055166 -0.120431654 -1.2144841 -0.393065 0.010322924 -0.07830331 0.6467969
0.8129003 0.8355628 -0.103794135 -2.5238502 -0.44136256 0.07368846 -1.1976507 0.60069597
-1.3324107 -0.9971246 0.35829213 -0.9428269 -0.40040353 -1.4331775 -0.47556633 -0.5205989
-1.5776681 1.2115375 0.77272844 -0.15413897 0.10906704 0.3625821 -0.93011 -0.26280656

model.13.bias f4 [40]
00000000: f88a 24bc 05c4 633e 24ac 223d 4d30 9dbd
00000010: 2407 323e 1ba8 b03d ca17 2b3c 5c3f 8abc
00000020: b50d 503e 2b78 3b3d fd51 563e 9edb fdbc
00000030: 86fd 6fbc 2645 04be d55f 39bd 7ced 6a3d
00000040: 77cd 803d e965 a7bd 0230 89bd 1594 483d
00000050: 2d5e a0bc 0418 1a3e 7fd0 51bc 7024 1d3d
00000060: 4ec8 683c 066e 4ebe c2ac f4bc 9de2 09bc
00000070: a861 9ebc 4284 a2bd a0fd 89bc cb0e 193e
00000080: 98b6 15be 97e3 80bc c0e9 803c 5d58 df3c
00000090: e45b 1dbc 7c72 09bd 702b a93d 6711 efbb
-0.010042898 0.22242744 0.039714947 -0.07675228 0.17385536 0.086258136 0.0104426835 -0.016875915
0.20317729 0.045768898 0.20929714 -0.03098851 -0.014647847 -0.12917003 -0.04525741 0.05735539
0.06289189 -0.08173735 -0.0669861 0.048969347 -0.019576157 0.15048224 -0.012806057 0.038364828
0.014207913 -0.20159158 -0.029867534 -0.008415845 -0.019333676 -0.079353824 -0.01684457 0.1494705
-0.14620435 -0.015733523 0.01573646 0.027263815 -0.009604428 -0.033556446 0.08260238 -0.0072957757

model.14.weight f4 [40]
00000000: eca0 0140 54ed 0b40 3fb0 dd3f 4a44 1040
00000010: 4c4d ce3f f879 e13f 2d9b d83f c341 d63f
00000020: 6e5d e73f 206f af3f 6d84 1c40 9b71 f23f
00000030: 427d 2340 de48 1d40 ec5b 0840 4baa ce3f
00000040: b111 e83f 6998 bd3f 6fdb 173f 8f93 863f
00000050: 4f6f 8c3f f6ad 1540 40e7 e53f de53 1140
00000060: 8083 ef3f b81f 3440 d2cb 0c40 66f3 1940
00000070: a383 f33f bf5e bd3f e346 3640 98a6 f03f
00000080: e860 f93f e830 c33f b6d1 0840 f642 0740
00000090: 56b0 0240 76c8 fb3f 17e0 a53f 183e e33f
2.025447 2.1863604 1.7319411 2.254168 1.6117339 1.7615347 1.6922356 1.6738819
1.8075387 1.3705788 2.4455826 1.894092 2.5545201 2.4575725 2.1306105 1.6145719
1.8130399 1.4812137 0.59319204 1.0513781 1.0971469 2.3387427 1.7961197 2.2707438
1.8712006 2.814436 2.1999402 2.4054809 1.9024547 1.4794539 2.8480766 1.880084
1.9482698 1.52493 2.1377997 2.113462 2.0420127 1.9670551 1.2959012 1.7753325

model.14.bias f4 [40]
00000000: 2cb9 9fbf 6db9 4abf e0c3 f6be 814f af3e
00000010: c037 6dbf 8555 63bf 10ad b9bf ac75 27bd
00000020: 3194 7abe 60ca f2bd 17ed 733f b158 a3bf
00000030: 44cc b1be 935b 9bbf ee58 5ebe 4b72 82bf
00000040: 4ecc 8cbf 3e62 34bf 0a7d fbbd 4a61 a2be
00000050: 8d62 bbbf dd02 25bf b820 80bf 0121 27bf
00000060: bbbd 3d3e c807 62bf 2134 97bf 2d11 b4bf
00000070: bfb8 76bf 1754 56bf 5928 21bf dac1 6ebf
00000080: 6375 abbf 4ecb 87bf 11f9 71bf cffc 29bf
00000090: 2921 9cbf f054 76bf 6690 23be 4843 803e
-1.2478385 -0.7918919 -0.48196316 0.34240344 -0.9266319 -0.8880237 -1.450594 -0.040883705
-0.24470593 -0.11855006 0.95283645 -1.2761441 -0.34726155 -1.2137321 -0.21713611 -1.019113
-1.0999849 -0.70462406 -0.12279709 -0.3171485 -1.463945 -0.64457494 -1.0009985 -0.65284735
0.18529408 -0.88293123 -1.1812783 -1.4067742 -0.9637565 -0.8372206 -0.6295219 -0.93264544
-1.3395199 -1.0608919 -0.9452067 -0.6640138 -1.219762 -0.96223354 -0.15973052 0.25051332

model.14.running_mean f4 [40]
00000000: 5a12 c3c1 48bb 52c2 3007 5cc2 ee53 23c2
00000010: 8519 7ec2 bcce 03c2 8db1 18c2 68c1 50c2
00000020: f11c 66c1 0403 07c2 1955 14c2 257b bac1
00000030: 0cec 26c2 1184 e5c1 700c 4bc2 3fdd 73c2
00000040: 16d3 70c2 f43f 32c2 19d1 0e41 cf00 37c2
00000050: 8c07 4742 2071 27c1 9656 c9c1 00fa 9bc2
00000060: 98e1 97c1 174c 04c2 7c3d 49c2 5d00 e8c1
00000070: ac45 a4c1 97fb c241 880e 7bc2 3e44 79c1
00000080: 765f 19c2 4c08 a8c1 5b80 04c2 da1a 1fc2
00000090: e592 90c2 bb19 58c2 fdb9 b840 2b30 39c2
-24.38396 -52.68289 -55.00702 -40.831963 -63.52492 -32.95189 -38.17339 -52.188873
-14.382066 -33.752945 -37.083103 -23.31013 -41.730515 -28.689486 -50.762146 -60.96606
-60.20614 -44.562454 8.926049 -45.75079 49.75737 -10.465118 -25.167278 -77.98828
-18.985153 -33.074306 -50.310043 -29.000177 -20.53402 24.372847 -62.76419 -15.579161
-38.343224 -21.004051 -33.125347 -39.776222 -72.2869 -54.025127 5.7727036 -46.29704

model.14.running_var f4 [40]
00000000: 033c fe44 0630 e544 7535 0845 126f cd44
00000010: 94e9 2245 26cc f544 9b08 7744 896d c844
00000020: 5ee6 ec44 27ac b344 402a c344 84af d344
00000030: 8348 0a45 d7bf c944 20dc 0345 d120 1345
00000040: 7d64 b344 0b38 9f44 3675 ce44 64fb 9944
00000050: 8a72 8d44 c35b b644 7d00 cf44 7b02 3145
00000060: 532d d944 cdc9 d644 7eae b844 0cf3 aa44
00000070: 12c0 a744 0e19 fe44 ae6c 0145 c27e bf44
00000080: 5a01 ab44 9d54 b044 3680 bf44 e263 f844
00000090: f6fd be44 651f d644 474d 4645 19e6 da44
2033.8754 1833.5007 2179.341 1643.471 2606.5986 1966.3796 988.13446 1603.423
1895.199 1437.3798 1561.3203 1693.4849 2212.532 1613.995 2109.7578 2354.051
1435.1403 1273.7513 1651.6628 1231.856 1131.5793 1458.8676 1656.0153 2832.155
1737.4164 1718.3063 1477.4529 1367.5952 1342.0022 2032.783 2070.7925 1531.9612
1368.0422 1410.6442 1532.0066 1987.1213 1527.9363 1712.9811 3172.8298 1751.1906
