02_cnn/3_resnet.pth (torch, 734481 bytes, 77 tensors)

conv1.weight f4 [16, 1, 5, 5]
000000 60 12 2c bf 04 ed aa be 2a 90 d7 3f 51 e7 3e bf
       -0.6721554 -0.33383954 1.684087 -0.7457171
000010 7f 01 b6 3f 2e 2e 96 bf d1 99 5f be d7 fd 57 40
       1.4219207 -1.1732843 -0.2183602 3.3748682
000020 58 29 c1 3e 14 3a 4e 3f ea 83 45 3f e6 3d 9d be
       0.37726855 0.8055737 0.7715441 -0.30711287
000030 6f 8b 60 40 75 22 6a 3e 2d 11 24 be 6c e9 93 3f
       3.5085104 0.22864707 -0.16022177 1.155561
000040 47 f8 a6 bf 9f 3d 37 40 07 92 ad 3e 70 1e 48 be
       -1.3044518 2.863136 0.33900473 -0.19542861
000050 e5 10 b4 3e b5 32 b8 bf b7 89 23 40 e8 65 ee 3d
       0.3516914 -1.4390475 2.5552804 0.11640531
000060 61 5c 53 3e 4d f9 62 3f f5 47 1a bf 9d 26 f4 be
       0.20640709 0.8866165 -0.6026605 -0.4768571
000070 ce 80 20 3f ec 85 44 bd 73 a2 33 bd 7f 47 9d bf
       0.6269654 -0.04797928 -0.043856096 -1.2287444
000080 ed dc 15 bf 39 d6 48 3f 57 3c 90 3e 80 3a 92 bf
       -0.5854023 0.7845188 0.28171036 -1.1424103
000090 58 36 9e be fe 4f c5 3e f2 23 ec bf 63 18 13 3f
       -0.30900836 0.38537592 -1.844847 0.57459086
0000a0 f8 d4 01 c0 17 22 aa 3f a7 be fe bc 15 88 24 c0
       -2.0286236 1.3291653 -0.03109677 -2.5708058
0000b0 12 fc 50 bf 5c 03 d4 bd 23 ef b6 3f 62 9b 92 bf
       -0.8163463 -0.10352203 1.4291729 -1.1453669
0000c0 3a cc 00 c0 c3 cc 71 bf 05 c9 61 bf 30 b6 5b 3f
       -2.012465 -0.94453067 -0.88197356 0.8582487
0000d0 3c d1 c7 3f d0 0e 7d 3f 07 06 3c bd 95 f9 b9 3f
       1.5610728 0.9885073 -0.045904186 1.4529291
0000e0 34 81 28 40 47 fc 02 40 62 93 30 3f 40 7d 14 bf
       2.632886 2.0466478 0.6897489 -0.58003616
0000f0 0f a4 8b 3e c3 2d 9d 3f 4c 78 08 3f 25 8e b6 3b
       0.27273604 1.227959 0.5330856 0.005571144
000100 37 27 3d bd 6e a0 aa bf f5 c0 0d c0 f7 89 00 bf
       -0.046179976 -1.3330209 -2.2149022 -0.5021052
000110 3d 22 7a bf a7 81 25 bf 23 b8 62 bf 35 d1 49 c0
       -0.97708493 -0.6465096 -0.8856222 -3.153394
000120 ef 06 91 bf d9 ee 11 be a1 ee 44 3f ee 49 2b 3f
       -1.1330241 -0.1425127 0.7692662 0.6690968
000130 af fa 6e 3f 0f cc 10 bf 87 64 fc be 61 33 37 bf
       0.9335126 -0.5656137 -0.49295446 -0.71562773
000140 92 e5 82 bf 69 93 04 bf 4e 5c e3 3e 08 a4 97 3f
       -1.0226309 -0.5178743 0.4440636 1.1846933
000150 79 50 81 be 83 88 a8 bf cc 9b 83 c0 8d 18 ea c0
       -0.25256708 -1.316666 -4.112768 -7.315497
000160 d2 99 63 c0 08 ea af 3e ea 06 c1 bc 98 dc d9 be
       -3.5562634 0.3435824 -0.023562867 -0.42551112
000170 51 d2 38 c0 87 99 10 c0 54 4a 4d 3f 5f f4 d2 3f
       -2.8878367 -2.2593706 0.8019154 1.6480826
000180 77 20 bc bd e4 97 22 bf 66 71 c5 be 90 c4 ab 3e
       -0.0918588 -0.63513017 -0.3856308 0.33548403
000190 17 80 6d be 17 fd 6e bf 11 1c ea bc 63 81 85 3c
       -0.23193394 -0.93354934 -0.028577836 0.016297048
0001a0 e6 1e bf 3e 46 b6 32 bf 2e a9 17 c0 78 03 43 bf
       0.3732826 -0.6980938 -2.369701 -0.7617717
0001b0 d2 49 59 bc df 14 af 3e ce 97 f9 bf ca 74 ab c0
       -0.013262229 0.3419561 -1.9499452 -5.3580065
0001c0 eb dd e3 bf f9 2a 86 3f 82 8b 91 3e 2a f0 0e bf
       -1.7802099 1.0481864 0.2842675 -0.5583521
0001d0 bf 25 a3 c0 a0 58 45 bf a5 cc 96 3f 55 e1 ae be
       -5.0983577 -0.77088356 1.1781203 -0.3415629
0001e0 70 6f 86 3f 42 70 b9 3d f5 d9 4f 3f fb b7 e1 3d
       1.0502758 0.090546146 0.8119195 0.110214196
0001f0 b8 8b cd be 90 6e 6c 3d 9b 34 d3 3d 87 f7 07 3e
       -0.4014566 0.057722628 0.10312768 0.13278018
000200 10 01 e2 bb d0 6c a5 bd 61 6d 16 3e ee b1 02 be
       -0.0068970993 -0.08077395 0.14690162 -0.12763187
000210 d5 ff 12 3e 9f f8 06 be e4 73 b3 3d b1 ab 7a 3f
       0.14355405 -0.13180779 0.08762339 0.9791823
000220 ff 54 03 c0 b6 74 d0 3f 87 84 2e bf 93 45 71 3d
       -2.0520627 1.6285617 -0.6817097 0.05890424
000230 33 21 e2 3f 6e f9 71 c0 90 8c 05 40 c3 de a1 3e
       1.7666382 -3.780849 2.0867043 0.31615266
000240 86 ed cb be 3a 97 9c 3f 04 85 d8 bf c4 c6 0b bf
       -0.39829654 1.2233651 -1.6915593 -0.5460017
000250 d9 37 2a 3f fe 5c 1d 3e 13 62 5d bf aa 71 21 3f
       0.66491467 0.15367505 -0.86477774 0.6306406
000260 66 b8 3b 3f 05 df bc 3f f9 6c 24 40 f4 f6 90 bf
       0.73328245 1.475556 2.5691512 -1.1325364
000270 b0 7c 91 3f cb d7 e2 3f 83 85 a6 3e 1e e4 90 be
       1.1366177 1.7722105 0.32523736 -0.2829904
000280 0a 89 47 3f e7 57 49 3f 04 ea 63 bf 5f 0c bd 3e
       0.7794348 0.78649753 -0.89028955 0.369235
000290 7d af 23 3f 76 25 69 3f d9 9e bb be 8c 6c 8f bf
       0.6393965 0.91072786 -0.3664463 -1.1205001
0002a0 ac b2 77 bf 87 ac dd be 3b d0 4d bd db d9 f9 be
       -0.96757007 -0.4329569 -0.050247412 -0.48799023
0002b0 de 10 9f bf ef 10 4b c0 42 fd 8f bf 5d 32 51 be
       -1.2427022 -3.1729085 -1.1249163 -0.20429368
0002c0 1b 53 1f 3f d1 ec 30 3e ae b5 a0 be 45 b5 93 bd
       0.62236184 0.17277838 -0.3138861 -0.07212309
0002d0 03 78 83 be 13 e8 5a 3f d3 dd 04 3f 01 a6 7f bf
       -0.256775 0.8551037 0.51900977 -0.99862677
0002e0 5d 1d b9 bd 6a 5e bc be 98 87 e4 3f df 6c b4 3e
       -0.09038804 -0.36790782 1.785388 0.35239312
0002f0 5b 83 df bf c4 23 2e 3f 4c bb 9d 3d da 72 11 40
       -1.7461962 0.68023324 0.0770174 2.272635
000300 c9 da e6 bf b1 12 0f c0 d5 f5 90 3f 08 5b 2c 3f
       -1.8035518 -2.2355158 1.1325022 0.673264
000310 5d de c9 3f 46 fe 14 c0 1b ef d3 bf e7 51 6b 3e
       1.5770985 -2.3280196 -1.6557344 0.22980462
000320 38 75 40 3e f5 32 4c bf ad f9 9e bf 59 bb 1b c0
       0.18794715 -0.79765254 -1.2419945 -2.4333098
000330 45 22 a0 be a8 60 94 be ce b3 1b bf 8d 78 a4 c0
       -0.31276146 -0.28979993 -0.60821235 -5.1397157
000340 24 de ba c0 ef cc d5 bf 78 29 db be 77 08 d4 bf
       -5.839617 -1.6703166 -0.42805076 -1.6565083
000350 1d f7 43 c0 84 37 94 c0 38 52 3d bf eb 0c 81 3f
       -3.0619576 -4.631777 -0.7395358 1.0082067
000360 72 31 0a bf 26 7e 7e 3e ec 9c 20 bf da 48 48 bf
       -0.539817 0.2485281 -0.62739444 -0.7823616
000370 8c ab 4f bf f0 d2 d7 3e 03 c6 f9 3e a4 e0 78 3e
       -0.81121135 0.4215312 0.48783883 0.24304444
000380 f1 4e 2d 3e bc e1 8e 3d 92 75 fa 3e 70 97 30 3c
       0.16924645 0.06976649 0.48917824 0.010778293
000390 08 7d 45 3f 2d 23 fe be 14 88 14 bf da 13 8f bf
       0.7714391 -0.49636212 -0.5802014 -1.1177933
0003a0 e3 bb 74 bf 6f f6 5a 40 05 67 64 bf c8 4c 86 bd
       -0.9559919 3.421291 -0.89219695 -0.065576136
0003b0 f4 61 37 c0 5c 2a 54 bf 14 7a 49 40 ce db 07 bf
       -2.8653536 -0.82877135 3.148076 -0.5306977
0003c0 b5 5a 24 3e 83 f3 c9 bf 2e 0e 17 3f 8d ff 88 3f
       0.16050227 -1.5777439 0.5900601 1.0702988
0003d0 8c ee dc bb 7b 98 84 3e 2c 8d 29 bd 98 85 29 3f
       -0.006742304 0.25897583 -0.041394398 0.6621947
0003e0 e0 41 0c bd da 20 8a 3e 44 54 55 bf 72 f5 96 be
       -0.03424251 0.2697819 -0.83331704 -0.29484135
0003f0 2d 32 4c 3f b7 0d cf 3f 82 1c 7b 3e 39 a7 9b bf
       0.7976406 1.617606 0.24522594 -1.2160407

bn1.weight f4 [16]
000000 6c 41 1b 40 ef de 5d 3f 2a 50 27 40 8f 95 95 40
       2.425868 0.86668295 2.6142678 4.6745067
000010 32 6a 18 40 af 0d 4e 40 0a da 4a 3f 53 96 e3 3f
       2.3814816 3.2195852 0.7923895 1.778025
000020 d8 1c 57 40 30 9f f5 3f cb 55 41 40 20 92 d0 3f
       3.3611355 1.9189205 3.0208614 1.6294594
000030 7c c8 12 40 3b 65 ee 3f 67 d1 24 40 04 47 ce 3f
       2.2934866 1.8624643 2.575281 1.6115422

bn1.bias f4 [16]
000000 f7 6d 02 c0 81 46 8c bf a0 e8 ad bc fc 54 bd bf
       -2.0379617 -1.0959016 -0.021229088 -1.479156
000010 34 0b 8a bf 3e df 42 3e 29 19 cc 3d 59 65 99 3f
       -1.0784669 0.19030473 0.099657364 1.1984054
000020 43 71 c2 bf be 5d 21 3f a1 bf 59 be 73 f9 bb 3d
       -1.5190815 0.63033664 -0.21264507 0.09178438
000030 44 f7 24 3f dc f3 7d 3f b2 24 b3 bf 39 56 d6 3d
       0.644398 0.99200225 -1.3995574 0.104656644

bn1.running_mean f4 [16]
000000 7e fc 9f c0 29 db 4f 40 2e 47 08 bf 2a 8e fb 40
       -4.999572 3.2477515 -0.5323361 7.861104
000010 4b 63 b5 40 5c 66 fd bc f9 be d4 bd 8d d1 ef 3e
       5.6683707 -0.030932598 -0.10387988 0.46839562
000020 95 c1 26 41 39 03 50 be 4b 15 9b 40 e0 d7 9e bc
       10.422261 -0.2031373 4.8463492 -0.019390047
000030 e1 e0 27 bf ce e2 31 3f 14 4b 88 40 d8 c6 a6 bd
       -0.6557751 0.694867 4.259165 -0.08143395

bn1.running_var f4 [16]
000000 97 71 96 42 26 cb 03 42 c6 4c 9c 41 a2 81 32 43
       75.221855 32.948387 19.537487 178.50638
000010 ae 49 eb 42 41 06 94 40 3d 51 6b 41 3c 11 59 41
       117.643906 4.6257634 14.707334 13.566708
000020 2e 53 a2 43 b4 1a 4b 41 44 77 c1 42 1b 26 16 41
       324.64984 12.694019 96.73294 9.384303
000030 9e 57 87 41 38 c5 97 41 21 ec 77 42 ce 91 d7 40
       16.917782 18.971298 61.980595 6.7365484

group1.group.0.conv1.weight f4 [16, 16, 3, 3]
000000 4f 56 ab bf f6 69 a4 bf a4 00 28 bf d5 b3 03 bf
       -1.3385714 -1.2844837 -0.6562598 -0.51446277
000010 c9 09 33 c0 71 f1 f5 bf c1 6b a4 bf ad 22 0d c0
       -2.7974722 -1.9214307 -1.2845384 -2.2052414
000020 47 ae 27 c0 d0 bb bb 3e ae 95 91 3f fd d1 a2 bf
       -2.620012 0.36666727 1.1373804 -1.2720333
000030 43 97 b1 3e a5 7c 0d 3f 38 24 28 bf b6 57 cb 3f
       0.34685716 0.5526832 -0.65680265 1.5886142
000040 d7 7a a2 be a1 ae e8 be 96 e4 14 bf 57 43 a4 3e
       -0.31734344 -0.4544573 -0.58161294 0.32082626
000050 7d a1 1f 3e 0a 2f 43 3f 99 40 09 bf 29 e3 ce 3e
       0.15588947 0.7624365 -0.53614193 0.40407684
000060 23 55 80 3f 4e 8e 59 be bd b3 45 be d3 81 19 3f
       1.0025982 -0.21245691 -0.19306846 0.5996372
000070 7b 32 a6 3f 50 f6 f1 3e dc e8 e8 3f 25 6c 59 40
       1.2984155 0.47258234 1.8196063 3.3972256
000080 a9 61 50 3e c8 9e 54 bf 12 4c 7f 3f 56 18 99 bf
       0.20349754 -0.8305478 0.9972545 -1.1960552
000090 e3 18 67 bf 1f 27 4a 3e bd a3 9c be b8 47 db bf
       -0.9027235 0.19741486 -0.30593672 -1.7131262
0000a0 c6 11 7e 3f 04 b0 6c 3f 71 b7 55 c0 56 5a a3 be
       0.9924587 0.9245608 -3.3393214 -0.31904858
0000b0 ae 6f 99 3e c8 9f bd 3f 8e 98 bc 3e 86 9d ad bf
       0.29968017 1.4814386 0.3683514 -1.3563697
0000c0 58 c6 8a bf 2e f3 b3 bf 9a e2 ba bf e4 6d 48 bf
       -1.084178 -1.4058588 -1.4600403 -0.7829268
0000d0 e8 6e e2 bf 94 47 8e be 81 53 1e 3e 4c 3d 3e bf
       -1.7690096 -0.27788985 0.15461542 -0.7431228
0000e0 d3 fb d1 bf f2 bb 1c 3f 1b 52 88 bf 84 cd 3f bf
       -1.6404976 0.6122428 -1.0650057 -0.74922967
0000f0 e4 53 4b bf 73 f4 74 bf 76 75 22 3f 75 a4 fa 3e
       -0.7942488 -0.956855 0.6346048 0.48953596
000100 de 0d 44 bf 4b 24 df 3e bd 1e 6d bf c2 94 7f bf
       -0.7658366 0.43582377 -0.9262503 -0.9983636
000110 07 c1 70 bf a8 4b c3 bf 1a 7b fe be c2 bb f7 bf
       -0.94044536 -1.5257463 -0.49703294 -1.9354174
000120 08 f5 9a 3f 45 7d f7 3f c7 61 55 3f 4c df 00 40
       1.2106028 1.9335104 0.8335232 2.013629
000130 87 4c 2a 40 d7 b3 8c bf db a9 08 3e da 41 9a 3f
       2.6609209 -1.0992383 0.13346045 1.2051346
000140 09 0f 98 bf 72 e4 c2 bf 0f 00 d1 be 72 ec fa be
       -1.1879588 -1.5225966 -0.40820357 -0.49008518
000150 b4 11 5b c0 21 55 59 3f c0 d9 bb 3f de 41 a2 c0
       -3.4229555 0.8489552 1.4675827 -5.0705404
000160 97 4e 2f bf 44 a7 c7 3a d8 99 85 bf 3b 13 12 40
       -0.68479294 0.0015232344 -1.0437574 2.2824237
000170 45 1d 9b 3d e5 26 5b bf 6a e0 d2 3f 9c 43 b3 be
       0.07573942 -0.85606223 1.6474736 -0.3501252
000180 3f 8a 85 bf e8 4e e1 be 49 cf b3 bf 48 69 31 bf
       -1.0432814 -0.44005513 -1.4047633 -0.6930127
000190 4a 75 cd be 90 ac 15 3b ac ef b9 3f b2 0a c5 3f
       -0.40128547 0.002283845 1.4526267 1.5393889
0001a0 ff 8e 77 3f 5d 29 85 be f8 7b 0c bb 51 d1 e6 3f
       0.9670257 -0.2600812 -0.0021436196 1.8032628
0001b0 9f f9 9d bf ea 21 01 c0 9a aa e4 3e f7 d4 e0 bf
       -1.2341803 -2.017695 0.4466141 -1.7564992
0001c0 b4 6d fa bf f6 11 cd 3f 8c fe c8 bf 9b 2d ed bf
       -1.9564729 1.6021106 -1.5702682 -1.8529543
0001d0 e9 7e 06 bf 0a 61 ba 3d 6f f1 d0 be ad 7e 05 c0
       -0.525374 0.0910054 -0.408092 -2.0858567
0001e0 68 09 7e 3f cb 7c 7d 3f 59 58 4b c0 33 e2 38 bf
       0.992331 0.99018544 -3.1772673 -0.7222015
0001f0 c2 d8 96 bf 1e fe b2 bf 6a 21 8a bf be 6d 16 3e
       -1.1784899 -1.39838 -1.0791447 0.14690301
000200 ca 74 a9 3e ba 7e 97 bf 2e 21 14 40 38 7b e8 3e
       0.33096915 -1.1835549 2.3145251 0.45406508
000210 af 65 e7 bf b6 01 a8 3f 80 c4 8a be d9 7d 15 be
       -1.8077906 1.3125522 -0.27103043 -0.14598788
000220 32 f9 4c be 3f ec 10 3f bf fa 4f 3e 55 3a 5c 3f
       -0.20016935 0.5661048 0.20310496 0.8602651
000230 32 b8 89 bf 5d cf 04 3f a3 98 56 3f 92 77 4b 3f
       -1.0759337 0.5187891 0.83826655 0.79479325
000240 13 09 45 bf 0e 45 0c 40 5e ac 0a 3f 18 54 3b c0
       -0.7696697 2.1917148 0.5416926 -2.9270077
000250 12 2d 7d 3f 9c 22 c5 be ef 95 52 c0 7c 0e 85 bf
       0.98896897 -0.38502967 -3.2904012 -1.0395045
000260 f2 8b 80 bf 73 fb fd 3d 97 0f 2a be bd 06 0a 3f
       -1.0042708 0.12401476 -0.1660751 0.5391653
000270 4f c2 00 3c 75 c7 31 be de 32 ba bc 31 22 39 3e
       0.007858827 -0.17361243 -0.022729333 0.18079449
000280 69 cb 6d 3f d5 32 b2 3f 00 1b 51 40 d9 11 a5 3d
       0.92888504 1.3921763 3.267273 0.08060045
000290 5d d1 47 bf bb 86 99 3f 3c 02 c5 3e 73 ab 5d 3f
       -0.7805384 1.1994241 0.38478267 0.86589736
0002a0 1e 33 98 bf ea fa 13 3d 05 f2 46 3f 46 0d 5e bf
       -1.18906 0.036127962 0.7771304 -0.86739004
0002b0 b5 4f 57 bf 82 1e 83 bf 1d 6e 16 be d4 aa 95 bf
       -0.84106 -1.0243685 -0.14690442 -1.1692758
0002c0 a5 ee da bf 28 e3 08 bf 7f b9 b3 3d 71 cb f4 3e
       -1.7104079 -0.5347161 0.08775615 0.47811463
0002d0 a1 f7 ad 3d 4c f2 1a bf 03 9a 20 bf 16 89 7a bd
       0.08494497 -0.60525966 -0.62735003 -0.06116589
0002e0 d1 35 da be ec c3 08 bf 55 9c c1 bf 61 04 e1 be
       -0.42619184 -0.53423953 -1.5125834 -0.43948653
0002f0 2b d3 84 3f 21 a6 99 3f 46 c2 c5 3e 81 93 c6 3d
       1.0376943 1.2003824 0.3862478 0.09696103
000300 8d 3c 40 bf 43 fb 3f c0 56 7b f5 3e ba 35 e6 be
       -0.75092393 -2.9997108 0.4794566 -0.44962865
000310 12 f0 10 c0 ff a2 08 3f b2 53 26 3f ab 19 07 bf
       -2.2646527 0.5337371 0.6497146 -0.5277354
000320 72 c3 0d bf 6a df 79 3e 29 6d f3 3e c2 be 5b 3f
       -0.5537635 0.24401632 0.4754422 0.8583795
000330 56 4f 2d bd 87 f3 08 3f a4 63 10 3f 7b 7e 5f c0
       -0.04231199 0.53496593 0.5640204 -3.4920948
000340 80 38 fb be d5 f0 ae be fe 9e c5 c0 c0 64 1e bf
       -0.49066544 -0.34168115 -6.175658 -0.6187248
000350 69 15 3f bd 1e ba bf c0 0d a5 fe bd 35 5f 69 bc
       -0.046651278 -5.9914694 -0.12433825 -0.0142438905
000360 55 af 8d be 68 0c ee 3e a7 7d 8e bf 15 cf 9d bf
       -0.2767283 0.4649384 -1.1132096 -1.2328821
000370 e4 5f ac bf d2 b3 31 bf ba 85 a8 bf bc 28 b2 be
       -1.3466763 -0.6941501 -1.316581 -0.34796703
000380 92 30 8a 3f 17 5e 7a 3e 39 21 1b 3f b4 0b 40 bf
       1.0796072 0.24449955 0.6059757 -0.7501786
000390 c9 1e 9c bc 75 84 88 3f 67 20 86 bf b3 19 c9 bf
       -0.019057648 1.0665423 -1.0478638 -1.5710968
0003a0 79 17 94 3e 58 d1 e1 bf a7 de 65 3f 6f 01 99 be
       0.28924158 -1.7642012 0.89792866 -0.29883906
0003b0 70 57 aa bf 1c 94 5b 3e ad c2 62 be 2a 22 b7 bf
       -1.3307934 0.21443218 -0.22144575 -1.4307301
0003c0 cd 07 93 bf a3 5f c2 be f8 c7 8f be 49 98 17 3f
       -1.1486756 -0.3796359 -0.28082252 0.59216744
0003d0 98 00 97 bd dd d4 83 bf 88 8e 73 3f ba a3 2e bf
       -0.0737316 -1.0299336 0.9513936 -0.68218577
0003e0 01 b9 2b bf 43 7e 5f 3f 94 e4 70 3f d1 9d 13 3f
       -0.6707917 0.87302035 0.9409878 0.57662684
0003f0 e4 b8 8a 3f 59 43 09 3f 57 09 8f bf 64 37 cf 3d
       1.0837674 0.5361839 -1.1174725 0.10117987

group1.group.0.bn1.weight f4 [16]
000000 39 f9 0d 40 b1 6c ef 3f 86 c9 d1 3f 12 e0 02 3f
       2.2183363 1.8705045 1.6389625 0.51123154
000010 27 b9 13 40 9f 0f 26 40 3f 3a fc 3f cf 35 d2 3f
       2.3081758 2.5947034 1.9705275 1.6422671
000020 b7 99 9c 3f 85 ed 1a 40 50 2e 05 40 a6 90 ec 3f
       1.223441 2.420747 2.0809517 1.8481643
000030 42 8b f4 3f bb 69 00 40 8b 8a ca 3f a8 66 51 40
       1.9104998 2.0064533 1.582353 3.2718906

group1.group.0.bn1.bias f4 [16]
000000 58 3c ea be 76 d4 16 3d 91 ab 5b bf 34 3f a7 bf
       -0.45749164 0.036823712 -0.85808665 -1.3066163
000010 42 53 ec be f7 36 23 3f 0a 14 60 bc 8c e4 09 be
       -0.4615727 0.63755745 -0.013676653 -0.1346609
000020 d7 fe 81 bf ac 49 0b bf fa 09 9b bd bd 3a 09 be
       -1.0155896 -0.5440929 -0.07570262 -0.13401313
000030 c8 07 65 bf 75 f4 73 bf ab 10 1e bd fa 43 43 bf
       -0.89465 -0.95294887 -0.038590115 -0.762756

group1.group.0.bn1.running_mean f4 [16]
000000 9a 21 84 c2 f1 fe 9a c2 91 bf 2f c1 66 16 92 c2
       -66.06563 -77.49793 -10.984269 -73.04375
000010 63 9f 36 c2 44 1e 39 c2 ba 5b e6 40 40 cb 45 c2
       -45.65565 -46.279556 7.198697 -49.448486
000020 6a d7 bb 42 1f 43 b6 42 f7 df 0f 42 a8 61 4c c2
       93.92073 91.131096 35.968716 -51.095367
000030 3f e2 c2 40 f0 a6 10 c2 18 11 64 42 9c 22 b3 c2
       6.090118 -36.163025 57.016693 -89.5676

group1.group.0.bn1.running_var f4 [16]
000000 31 59 a1 45 a6 69 14 45 53 bd 5f 45 44 df 98 44
       5163.149 2374.603 3579.8328 1222.977
000010 2f 73 24 45 2b 95 14 45 6d 2a 14 45 91 8c fd 44
       2631.199 2377.323 2370.6516 2028.3927
000020 c2 6c 05 45 15 1c aa 45 f6 4a c7 44 ee 53 d4 44
       2134.7974 5443.5103 1594.3425 1698.6228
000030 d9 9e 5a 45 27 3a b3 45 dc 75 23 45 63 dc 7e 45
       3497.928 5735.269 2615.3662 4077.7742

group1.group.0.conv2.weight f4 [16, 16, 3, 3]
000000 c8 0c 0e 40 1d 3f b2 bf 87 04 27 c0 3c ef 0d 40
       2.21953 -1.3925511 -2.6096513 2.2177267
000010 07 cd 4e bf 89 1c d9 bf 8d e3 93 3f 24 c1 84 bf
       -0.80781597 -1.6961833 1.1553818 -1.0371442
000020 25 83 e5 3e 5f 04 f5 be 29 ad 81 3f 12 08 64 bf
       0.44826618 -0.47854897 1.0130969 -0.89074814
000030 61 57 ca 3e 83 75 1b 40 95 84 0e c0 3b 06 74 3f
       0.3951979 2.4290473 -2.2268422 0.95322007
000040 e6 de 37 40 ab c0 16 c0 88 13 89 be d8 4f a3 be
       2.8729796 -2.3555095 -0.26772714 -0.31896853
000050 63 e3 80 3f 54 fb 0a bf f6 64 d8 be 69 6b 2b bc
       1.0069393 -0.54289746 -0.42264527 -0.01046262
000060 a7 00 3b 3f 5e 94 f1 3f 91 1a 14 40 d0 3f 5d 3f
       0.7304787 1.8873403 2.3141215 0.86425495
000070 44 ea 02 bf cb 9b b6 bf 79 b0 cf 3e 91 f7 8c bf
       -0.5113871 -1.4266294 0.40564325 -1.1013051
000080 f5 4f b2 be 50 eb c7 bf 2e 81 9d bf 0b 66 11 bf
       -0.34826627 -1.5618687 -1.2305048 -0.5679633
000090 f0 8a f5 3f 14 2c 13 3f 00 3d b6 bf ed 2b 8b 3f
       1.9183025 0.5748913 -1.4237366 1.087278
0000a0 c3 2d 08 c0 6d 0e 5b bf fa 2f 8f bf f7 ce 2a c0
       -2.127793 -0.85568887 -1.1186516 -2.6688821
0000b0 d8 5e d2 3e 2d 46 4b bf ab f6 8b bf 4e 14 de be
       0.41087985 -0.79403955 -1.0934652 -0.43374866
0000c0 fa 88 c0 be 15 8f 60 be f2 3c e8 bc bc 05 45 bc
       -0.37604505 -0.21929581 -0.028349373 -0.012025293
0000d0 5f 00 45 bf 21 b2 db 3e 6e fc 20 3d 6e 05 5c bf
       -0.7695369 0.4290934 0.039303236 -0.85945785
0000e0 29 e4 64 bf 64 28 81 3f a8 c4 06 3f 0e b5 94 3f
       -0.89410645 1.0090451 0.52643824 1.1617754
0000f0 42 3d 19 c0 c5 af 09 c0 a4 ff 9f bf 15 81 db 3e
       -2.3943639 -2.1513531 -1.249989 0.4287192
000100 c3 d4 fd 3c 0e 53 14 bf a6 c8 6f 3f f7 f5 07 3f
       0.030985242 -0.5793923 0.9366554 0.5310969
000110 85 3b 7f bd c5 20 07 40 96 5d 53 3e 8b 39 64 3f
       -0.06231262 2.111375 0.20641169 0.89150304
000120 20 28 0d bf e8 32 c2 be 04 36 9d be c2 9b 9d be
       -0.5513935 -0.37929463 -0.30705273 -0.30782896
000130 a4 31 d2 bf 31 0c 32 bf 91 24 9e bf fa b5 a5 bf
       -1.6421399 -0.6954985 -1.2354909 -1.294616
000140 eb ee c6 be 89 09 d6 3e 87 f4 08 bf e4 9f b2 be
       -0.38854155 0.4180415 -0.5349812 -0.34887612
000150 eb 31 0b bf a5 f5 b6 bf 18 a8 95 bf 70 3e 4f bf
       -0.54373044 -1.4293715 -1.1691923 -0.8095465
000160 51 d0 5a be 26 c2 95 3f 88 98 a1 3e 5b af 14 bf
       -0.21368529 1.1699874 0.31561685 -0.5808007
000170 b2 0d bc be 5a 8a c9 bf ef 4e 00 3d c3 64 aa 3a
       -0.367292 -1.5745347 0.031325277 0.0013
000180 b6 8d f6 be 87 3a 81 3e 8d dc d0 3f 9b 7e a9 bf
       -0.48154992 0.25239965 1.6317307 -1.3241762
000190 0b b9 f7 3e d5 ba 62 be f3 60 35 bd 77 62 28 3f
       0.48383364 -0.22141583 -0.04428191 0.65775245
0001a0 34 4c 1a c0 27 0c a7 be 4a 8f f6 be 05 15 07 c0
       -2.410901 -0.3262646 -0.48156196 -2.110658
0001b0 90 e9 c5 be 3d 31 26 c0 65 57 2d bf 64 4c 38 bf
       -0.38654757 -2.5967553 -0.6771148 -0.7199156
0001c0 93 6e 8c bf 79 61 c7 3f c0 c7 9b 3e b7 3d ad 3e
       -1.0971245 1.5576621 0.30425835 0.33836147
0001d0 1f aa e6 3f f9 4e e7 3f 47 9e 44 3f ee 0d d6 bf
       1.8020667 1.8070976 0.7680401 -1.6723001
0001e0 4f 5c ec 3d b6 ba e3 be d4 14 8f be c9 04 e4 be
       0.11541044 -0.44478387 -0.27945578 -0.445349
0001f0 75 d8 96 3d 21 d3 40 3f e7 ef e4 3e 45 4e 93 bd
       0.07365505 0.7532216 0.4471428 -0.07192663
000200 0e 17 03 bf 6d b3 16 3d 5c 1d 82 bf a3 5e b2 bf
       -0.51207054 0.036792208 -1.016521 -1.3935131
000210 9d 12 03 c0 bf 3b 3b c0 d5 af 03 c0 ea 45 4f bd
       -2.048011 -2.9255216 -2.057607 -0.050603785
000220 c3 58 dd 3e 90 88 05 bf 61 f6 0c 3f 1c 12 79 3f
       0.43231782 -0.521615 0.55063444 0.9729326
000230 fd 94 8e bf 30 74 a1 3f fe 65 66 40 3e 8e a4 bf
       -1.1139218 1.2613583 3.599975 -1.2855909
000240 a7 b8 2a be 76 78 36 3e 61 5a 7d be 91 0c fa bf
       -0.16672002 0.1781939 -0.24741508 -1.9535085
000250 2c fc 2e 3d 50 ff ba be 07 ec 02 3f 0d 79 44 3f
       0.04272096 -0.36522913 0.511414 0.7674721
000260 47 0c 45 3f 47 80 a4 3e c3 1f a3 be e8 80 67 bf
       0.7697186 0.32129118 -0.3186017 -0.9043107
000270 c8 65 86 bd f7 db ec bf 36 a5 dd bf c7 80 e0 bd
       -0.06562382 -1.8504628 -1.7316043 -0.10962062
000280 51 09 c1 bf dd 43 32 bf 49 af c5 3f 27 a7 99 3f
       -1.5080968 -0.696348 1.5444118 1.2004136
000290 ca a2 89 3f 91 23 9c be c9 8d 9d 3f 7f 79 45 3f
       1.0752804 -0.30495885 1.2308894 0.77138513
0002a0 ee 97 98 bf b2 20 c7 3e fc d0 63 3e 6c d7 b7 be
       -1.1921365 0.38892132 0.2224769 -0.3590654
0002b0 0a 65 5a bf 9b 45 d6 3d 29 12 17 3f 42 35 19 bf
       -0.85310423 0.10462495 0.59012085 -0.5984689
0002c0 fb 46 36 bf ea 97 c8 bd a0 8e e8 3e 52 05 6c bf
       -0.7120206 -0.097946 0.45421314 -0.9219562
0002d0 6c 00 13 3f 34 58 0d bf d4 86 f6 be f7 2e 1b bf
       0.5742252 -0.5521271 -0.4814974 -0.6061854
0002e0 62 4b 08 bf 8e 6b 6e bf bd d1 16 bf 21 63 70 bf
       -0.53240025 -0.93132865 -0.58913785 -0.9390126
0002f0 6a fd 9d be 13 08 17 40 65 4a 2d be f1 4a c3 be
       -0.30857402 2.3598678 -0.1692291 -0.38143113
000300 30 c5 cc 3f c7 27 9e bc 08 f9 2d be 78 41 0f 40
       1.5997677 -0.019306077 -0.16989529 2.238371
000310 a8 8d 55 3f 66 5f 76 be 20 04 b2 3e 32 e0 96 3e
       0.83419275 -0.24059829 0.34768772 0.29467922
000320 84 68 21 3e a8 60 b6 3e 34 01 20 bc f2 b7 9e be
       0.15762526 0.35620618 -0.009765912 -0.30999714
000330 45 02 86 be c4 b4 53 3f b7 f4 20 3e d7 f6 50 be
       -0.26173607 0.826977 0.15718351 -0.20406662
000340 83 35 bc be e6 2d 7c 3f e4 d2 63 bf d8 ea d3 be
       -0.36759576 0.98507535 -0.8899367 -0.4139011
000350 48 3b af 3f e2 a4 c3 bf 30 2e 93 bf 79 e9 cc 3e
       1.3689966 -1.5284693 -1.149847 0.40021876
000360 89 80 7f bf 9c 64 1d bf bd a1 6c 3f dc 4a dd be
       -0.99805504 -0.6148164 0.92434293 -0.43221176
000370 72 9e 63 be 31 9d a7 3f 76 d4 8f 3e b0 3f 80 3f
       -0.22228411 1.3094846 0.28091782 1.0019436
000380 27 fa e9 3f 9b be b2 3e 18 44 b6 bd 5f f1 b5 3c
       1.8279465 0.34911045 -0.088997066 0.022209821
000390 21 44 03 3f 4c bb 59 3f 7e 6a 34 3f b0 8c 67 3f
       0.5127583 0.8505142 0.70474994 0.9044905
0003a0 d9 7b 4f 3f 3c 95 2b 3f 8d f9 0a be 0d ed ce bd
       0.8104835 0.6702459 -0.13571759 -0.101038076
0003b0 2a b7 0a bf 50 a8 10 bf 98 da a8 3e 60 b3 7b 3f
       -0.54185736 -0.56506824 0.32979274 0.9832058
0003c0 79 a8 7f 3e 13 cb d0 3f e3 82 f4 3f 74 55 13 3f
       0.24966611 1.6311973 1.9102443 0.57552266
0003d0 0b 36 53 3f aa cc 9a 3f c8 c4 91 bf 0d 75 c1 bf
       0.8250434 1.2093709 -1.1388178 -1.5113846
0003e0 0f 79 58 3f f2 47 18 3e 8c ff b5 bf 5c 4d 97 3d
       0.8455972 0.14871195 -1.4218612 0.07387802
0003f0 c4 30 47 3d e1 12 89 be 25 8d b0 be 2a 15 b4 3b
       0.04863049 -0.26772216 -0.34482685 0.005495687

group1.group.0.bn2.weight f4 [16]
000000 0a 36 86 3f da 8f 24 3f 9e 66 30 3f 43 8e b6 3f
       1.0485241 0.64282 0.6890658 1.4262165
000010 90 81 a5 3f 08 4d 8f 3f 91 f6 e3 3f 91 60 d6 3f
       1.2930164 1.1195383 1.7809621 1.674822
000020 9e 11 f1 3f 86 53 af 3f c4 07 a3 3f e1 9e dc 3f
       1.8833501 1.3697364 1.2736745 1.7235986
000030 86 8a 92 3f 62 ba eb 3f 56 0f ca 3f af 9e 79 3f
       1.1448524 1.8416255 1.578593 0.97507757

group1.group.0.bn2.bias f4 [16]
000000 88 7b 4c bd bd 22 4e bf e5 d6 14 3f c9 98 51 bf
       -0.049922496 -0.80521756 0.58140403 -0.81873757
000010 f0 c7 e9 bd 85 03 03 bf 07 c9 07 bd 3c 92 57 bd
       -0.11415088 -0.51177245 -0.0331507 -0.052629694
000020 9a f8 ce bf 67 87 35 bf a4 43 86 bf 0e f7 1c bf
       -1.6169617 -0.7090973 -1.0489392 -0.61314476
000030 78 47 c0 be 37 da 7c be c9 19 c6 bc e4 97 35 bf
       -0.37554526 -0.24692617 -0.024182217 -0.7093489

group1.group.0.bn2.running_mean f4 [16]
000000 eb 88 93 c1 2f 35 22 c1 7a eb 84 41 4e dd 40 3f
       -18.441854 -10.137984 16.614979 0.75337684
000010 a1 ef 24 41 0a 89 3b c2 e4 63 10 c2 fa 06 e0 c0
       10.308503 -46.883827 -36.09755 -7.0008516
000020 07 ae 87 c1 62 f4 7f c1 a0 48 91 c1 c0 60 d5 40
       -16.959974 -15.997164 -18.160461 6.6680603
000030 83 4f f6 40 7d e4 d9 c1 ed 83 72 c1 ac ff 99 c1
       7.697206 -27.236567 -15.157208 -19.24984

group1.group.0.bn2.running_var f4 [16]
000000 1d 3e b7 43 d1 7b 8b 43 ad 7b df 43 3e 8e 76 44
       366.48526 278.96732 446.96622 986.22253
000010 2f db 3a 44 c4 e0 21 44 4b 50 aa 43 13 e3 e4 43
       747.42474 647.51196 340.6273 457.77402
000020 ee 03 cf 43 b7 68 17 44 8e 3a 19 44 c7 06 14 44
       414.0307 605.63617 612.9149 592.1059
000030 de 81 85 43 4c 01 78 43 c7 60 e5 43 78 f5 8c 43
       267.0146 248.00507 458.75607 281.91772

group1.group.1.conv1.weight f4 [16, 16, 3, 3]
000000 77 a3 a6 3f 5c 83 99 3e dc 3c b0 bf 7a eb 56 3f
       1.3018636 0.29983032 -1.3768573 0.8395306
000010 1f b3 21 bf a4 77 6b 3d b7 5c 98 3d 2e 8b be 3e
       -0.6316394 0.057487145 0.07439559 0.3721556
000020 bc d0 57 3f e8 6f 0b 3e 12 9c 8b 3f c0 b3 6b 3e
       0.8430288 0.13616908 1.0907004 0.23017788
000030 de 0b 0f bf 0f a8 af 3e 94 c9 aa bf a4 58 72 3e
       -0.5587748 0.34307906 -1.3342767 0.23666626
000040 47 fd 01 bf 06 e4 44 c0 0a 75 0b c0 38 2f e2 bf
       -0.50777096 -3.0764174 -2.1790185 -1.767066
000050 e6 01 c2 bf 95 c2 80 be e8 3a 40 3f 6b 24 61 bf
       -1.5156829 -0.25148454 0.75089884 -0.87946194
000060 7e fe ad 3f 37 8d 12 3f 76 00 62 3f 28 b3 9c bf
       1.359329 0.57246727 0.88281953 -1.2242174
000070 02 cb 07 c0 bc c9 42 bf 5d 59 4f bf c0 5e f3 bf
       -2.1217656 -0.7608907 -0.8099573 -1.901329
000080 3f 3d ea bf d4 fc 14 3e 06 c8 38 bf 3b a3 75 bf
       -1.8299941 0.14549571 -0.7218021 -0.95952195
000090 a2 df 0e bf 8d 74 21 c0 44 30 4b bf b2 20 7e 3d
       -0.55809987 -2.5227387 -0.7937052 0.0620429
0000a0 ff ec aa bf e3 0c aa bf 10 b6 95 3f c1 48 87 bf
       -1.3353575 -1.3285183 1.1696186 -1.0569078
0000b0 0b 56 f5 bf 01 57 28 bf 26 52 96 bf 11 02 98 be
       -1.9166883 -0.6575776 -1.174382 -0.29689077
0000c0 f3 58 2e 3f cf a0 f5 3f 0f 1e a3 bf b9 4e 6a bf
       0.68104476 1.91897 -1.2743548 -0.9152637
0000d0 82 a0 9a 3f 16 96 12 bf 72 24 e2 bf 76 6c bd be
       1.2080233 -0.5726026 -1.7667372 -0.36996812
0000e0 a1 b5 3e 3f 75 e3 27 3f 10 da d1 3f 37 df 04 3f
       0.74495894 0.65581447 1.6394672 0.519031
0000f0 b1 ff e5 bd 78 79 34 40 09 60 ba 3f 0e 1d f3 3d
       -0.1123041 2.8199139 1.4560558 0.11870776
000100 da 96 1d bf 8e 6c d2 be 14 a0 32 40 0c 42 f8 be
       -0.61558306 -0.41098446 2.7910204 -0.4848789
000110 6e c7 c8 bf b5 0c c6 3f a1 0b 94 3d 49 29 9c bf
       -1.5685861 1.5472628 0.072287805 -1.2200099
000120 25 bf 2a bf 5d 9c 02 3f 60 5a d1 3e 1e fd c9 bf
       -0.66697913 0.5101984 0.40889263 -1.578037
000130 f7 dd 47 3e 95 bb b3 3e f2 96 b9 bf 55 c2 97 bf
       0.19518267 0.3510405 -1.449919 -1.185618
000140 13 64 09 bf 86 66 3d 3f 67 66 d3 bf f6 f3 fe bc
       -0.53668326 0.73984563 -1.6515626 -0.031122189
000150 a4 3e 7d 3e 84 7c 83 bd a0 93 92 3f 5b 70 4a 3f
       0.24730927 -0.06420234 1.1451302 0.7907769
000160 fd c5 35 bf 4c c8 7e be 27 b2 67 be f3 69 10 3e
       -0.7100523 -0.24881095 -0.22626553 0.14102916
000170 a7 71 8c be ce 11 c0 3f a4 24 01 3f df 48 45 bf
       -0.2743046 1.5005434 0.50446534 -0.7706432
000180 24 d2 e5 3e 86 c7 9c 3f 21 65 a2 3f 48 e9 03 c0
       0.44886887 1.224839 1.2687112 -2.0611134
000190 7b ee a9 be fb 0c f3 3e d2 9f 18 c0 68 de ba be
       -0.3318976 0.4747084 -2.3847547 -0.36497808
0001a0 53 07 04 bf 4e ed fd bf 1e 69 8e 3f 1d cb 6e 3f
       -0.51573676 -1.9838045 1.1125829 0.93278676
0001b0 1f bf 8a be b3 e8 1f c0 c7 68 21 c0 12 ed 98 be
       -0.2709894 -2.4985778 -2.52202 -0.2986837
0001c0 ae f8 4f bf ef 67 68 bf 80 67 aa 3f 5b d9 e7 bd
       -0.8123883 -0.9078359 1.3312836 -0.11320754
0001d0 35 2a 8e 3e 89 ea 82 bf be 28 2c 3f 0e e3 67 3f
       0.27766576 -1.0227824 0.6724967 0.9058083
0001e0 59 be b7 3e a4 55 22 3e 0d 1f 21 c0 e4 94 9e 3f
       0.3588741 0.15852982 -2.5175202 1.2389188
0001f0 29 1a 1a 3f 78 00 8b c0 68 1e 13 bf d6 d0 f6 bf
       0.6019617 -4.343807 -0.5746827 -1.9282482
000200 dd 1b 16 3f 5b e1 5b 3e 9e cf 29 3e eb 38 84 3f
       0.58636266 0.21472685 0.16583106 1.032987
000210 47 2e cc 3f da d7 f8 3e d5 f1 f9 be 12 94 62 bf
       1.5951623 0.48602182 -0.48817316 -0.8850719
000220 07 01 01 3f 25 90 75 3f ba dd 23 bf 6e e7 b7 3e
       0.5039219 0.9592307 -0.640102 0.35918754
000230 01 33 88 be cc 6c e1 3f f7 05 24 be a8 0f d7 bf
       -0.26601413 1.7611327 -0.160179 -1.6801653
000240 41 ed 63 bf 73 b8 9a 3f 61 4f 0b 40 a3 a7 d4 bf
       -0.89033896 1.208754 2.17672 -1.6613659
000250 e0 5d 9a 3e 43 46 0c 40 48 c8 68 bf dd fe 65 3f
       0.30149746 2.1917884 -0.90930605 0.89842016
000260 6b 33 12 40 07 2b a2 bf de e3 bc be 13 08 49 bf
       2.2843883 -1.2669381 -0.368926 -0.78527945
000270 28 19 39 bd 5b f2 63 3f 92 ca 61 be 62 00 81 3f
       -0.045190006 0.8904168 -0.2204993 1.0078242
000280 8f e4 22 3d 6a a1 92 bf 0f e4 39 3f fb 93 c4 3f
       0.03976875 -1.145551 0.72613615 1.535766
000290 29 12 87 bf dd 69 42 3f 89 6d 19 3f 07 5e 45 be
       -1.0552417 0.75942785 0.5993276 -0.1927415
0002a0 ce 93 1f bf a6 04 06 bf 88 e1 aa 3f 41 0b 72 3d
       -0.6233491 -0.5235084 1.3350077 0.059092764
0002b0 3f ed 48 be c3 ba 51 bf e0 c1 a0 3f e5 55 ce be
       -0.19621752 -0.819256 1.2559166 -0.40299907
0002c0 85 8b ed bf 5d 48 87 3e 28 20 7f bf 58 17 9d bf
       -1.8558203 0.26422396 -0.9965844 -1.2272749
0002d0 f3 9b 49 bf ad 0b 4c 3f 00 75 2c 3f 63 9b 88 3f
       -0.78753585 0.79705316 0.6736603 1.067242
0002e0 93 4c 2b 3f d1 59 5c bf 23 1b 9a 3f 9f bb 88 bf
       0.6691372 -0.8607455 1.2039531 -1.0682257
0002f0 b7 fb 95 bf 54 a5 2e 3d e5 fa 54 bf 5c f0 48 3f
       -1.1717442 0.042638138 -0.83195335 0.7849176
000300 f5 64 97 be 2b 9f b4 be 4c 2e d2 3e bf 9d da bf
       -0.29569212 -0.35277686 0.41050947 -1.707939
000310 f2 06 ac 3e 28 8d cc 3f 7d b1 ec be dd 83 a9 bf
       0.3359905 1.5980577 -0.46229163 -1.3243366
000320 90 47 f7 bf f2 fb 37 bf 1b 6b d5 3e e6 fa b5 be
       -1.9318714 -0.71868813 0.41683277 -0.35542983
000330 a5 98 60 be 55 53 fa 3f 02 a6 99 3f 7f 3f ac be
       -0.2193323 1.9556681 1.2003787 -0.33642194
000340 76 ba 77 bd 74 69 78 3e 40 80 8b 3f ae e9 00 bf
       -0.060480557 0.24258977 1.0898514 -0.50356567
000350 a2 76 a8 be ed 70 8e 3e 51 f4 05 bd 6c 75 e4 be
       -0.3290301 0.2782053 -0.0327037 -0.44620836
000360 74 52 0a bf 39 06 86 3f 8c 6b 5e 3f a9 63 98 bf
       -0.54032063 1.0470649 0.86882854 -1.1905414
000370 58 ae 9b 3e fa fa 2c bf c2 a6 87 bf 4b 3b 97 bd
       0.3040645 -0.6757046 -1.0597765 -0.07384356
000380 ce d3 da bf 09 86 67 bf 18 24 cb bd 5e 90 2d 40
       -1.7095888 -0.90438896 -0.09918994 2.7119365
000390 75 c0 7c bf 2f 35 c8 bd 9d 41 00 40 63 15 33 3f
       -0.98731166 -0.09775769 2.0040047 0.6995451
0003a0 2d 47 24 3e b7 41 a3 3f 4e 19 18 40 3b 0e ac 3e
       0.16042776 1.275443 2.3765445 0.33604607
0003b0 c4 6e 33 bf 74 c4 31 40 dc 3f 30 3f 22 27 57 bf
       -0.7009089 2.7776155 0.6884744 -0.84044087
0003c0 8a 1c c8 be b3 55 0f be 45 86 ce 3f e4 b8 0c bf
       -0.39084274 -0.13997535 1.6134726 -0.5496962
0003d0 c4 a0 ad 3d 76 5c a3 3e c9 df 51 bf 87 ed 36 3f
       0.08477929 0.3190648 -0.81982094 0.7145619
0003e0 d0 40 41 3f 7b cb 95 3d 7b 2f 47 3e 87 1f d0 be
       0.7548952 0.073142014 0.19451706 -0.40649053
0003f0 c0 93 48 c0 6d ca f7 3e 65 10 f7 3c 34 47 23 c0
       -3.134018 0.48396626 0.030159185 -2.551221

group1.group.1.bn1.weight f4 [16]
000000 aa ab 0a 40 68 af 99 3f 20 77 08 40 f8 82 33 40
       2.1667275 1.2006655 2.1322708 2.8048687
000010 0c 58 c7 3f 49 0c b2 3f 16 99 2b 40 80 1a 15 40
       1.5573745 1.3909999 2.6812186 2.3297424
000020 38 2d 26 40 9c 38 9b 3f dc f9 06 40 52 0e b9 3f
       2.59651 1.2126651 2.1090002 1.4457495
000030 7d d1 ed 3f f3 dc a2 3f 26 a7 38 40 47 08 ca 3f
       1.8579556 1.2723678 2.885202 1.5783776

group1.group.1.bn1.bias f4 [16]
000000 bc 18 33 bf 3b 8a 16 3d 24 86 ec be 1b 07 a6 bd
       -0.69959617 0.03675292 -0.4619609 -0.08106824
000010 29 7e 4d bf 7a 2f 38 bf 74 4d 86 be 17 1c 44 bf
       -0.8027063 -0.71947443 -0.26230967 -0.7660536
000020 7c 6e 80 be dc 8a 02 bf 07 3b 62 bf 4a df 8e bf
       -0.25084293 -0.5099313 -0.8837132 -1.1161892
000030 01 45 c4 bd df 30 7e be 34 a3 a1 3e 69 35 b1 3e
       -0.09583474 -0.2482333 0.31569827 0.3461106

group1.group.1.bn1.running_mean f4 [16]
000000 24 04 4c c2 83 e7 b7 c1 43 ea e8 41 e3 38 d4 3f
       -51.004044 -22.988043 29.114386 1.657986
000010 90 e9 1c c2 8b d0 22 c2 67 0d 7c c2 58 51 91 42
       -39.22809 -40.703655 -63.01309 72.658875
000020 e1 c4 8b c2 e6 f4 12 c1 0f aa 74 c1 5a 2c 53 c2
       -69.88453 -9.18479 -15.291518 -52.793312
000030 1c cd 3d c2 9f 3d 0b c2 75 33 68 c2 56 32 a1 c2
       -47.450302 -34.810177 -58.05025 -80.59831

group1.group.1.bn1.running_var f4 [16]
000000 fd 8a cf 44 3d 69 fc 44 80 4f 2d 45 22 2f eb 44
       1660.3434 2019.2887 2772.9688 1881.4729
000010 1f 7c 05 45 a8 6d d5 44 1d 42 f5 44 09 99 81 45
       2135.7576 1707.4268 1962.066 4147.1294
000020 15 46 10 45 84 9a f4 44 05 03 04 45 29 d5 5e 45
       2308.3801 1956.8286 2112.1887 3565.3225
000030 ee be 95 45 fe 5f 0e 45 09 c7 f2 44 1b fb cd 44
       4791.866 2277.9995 1942.2198 1647.847

group1.group.1.conv2.weight f4 [16, 16, 3, 3]
000000 16 5d 38 3f 80 80 44 bf 90 53 ae 3b 9a da 3b be
       0.7201704 -0.76758575 0.00532002 -0.18345109
000010 c3 a4 35 bf c2 19 19 bf c1 2c 86 bf 1b a2 da be
       -0.7095453 -0.5980493 -1.0482408 -0.42701802
000020 52 df 02 3f 88 22 be 3e 4e 74 e1 3f 75 d0 0b 3e
       0.5112201 0.3713572 1.7613618 0.13653739
000030 f0 18 27 be 9b b2 b4 3e 45 30 a1 bf 4c ac 72 bf
       -0.16318107 0.35292515 -1.2592856 -0.94794154
000040 de 7b 15 3f a2 ae 23 bd 7a 29 61 3f 93 b7 84 bf
       0.5839213 -0.039961465 0.87953913 -1.0368522
000050 27 89 a2 bf 05 77 a7 be 0d 34 28 bf ae 98 0c be
       -1.2698106 -0.32707992 -0.65704423 -0.13730118
000060 0a f2 4e bf 61 b2 cf 3b 88 6e a7 bd 3c 8d 01 3f
       -0.8083807 0.006338403 -0.08175379 0.5060613
000070 49 63 2d c0 13 e2 1e bf 1e bf be bf 43 86 87 bf
       -2.709185 -0.6206371 -1.4902074 -1.0587848
000080 aa 4e c7 3e 88 c5 51 bf 49 82 40 bf f9 24 75 3e
       0.38927203 -0.81942034 -0.751988 0.23939885
000090 ab 2c a2 3e 47 d3 ae 3f fe c5 b2 bc 3a 9f 88 3e
       0.31674704 1.3658227 -0.021822926 0.2668398
0000a0 09 c2 82 3f 86 25 00 bf 25 53 cb bf 4d b4 b0 bd
       1.0215465 -0.50057256 -1.5884749 -0.0862814
0000b0 05 b6 d0 bf a0 d0 ad bf 66 58 3e 3f 12 bd b1 bf
       -1.6305548 -1.3579292 0.74353635 -1.3885825
0000c0 e6 2b 4b c0 c1 f1 d7 3f b9 e0 b3 bd 79 d6 d4 bf
       -3.1745543 1.6870652 -0.08783097 -1.6627952
0000d0 03 c5 b2 3f 07 d7 08 3f 61 e9 67 c0 c1 99 8e 3f
       1.3966373 0.53453106 -3.6236193 1.1140672
0000e0 d2 3a d9 bf f9 75 e9 bf 74 fa 69 40 11 cd f6 be
       -1.6971076 -1.8239127 3.6559114 -0.48203328
0000f0 a3 da 17 c0 2b a1 6d 40 d0 b5 6e 3f ab d2 a0 bf
       -2.3727195 3.712962 0.93246174 -1.2564291
000100 20 46 d9 3e ee a2 c8 bf 2a 8b 7d bf 32 02 89 bf
       0.42436314 -1.5674722 -0.9904047 -1.0703795
000110 f1 f4 d7 bf 69 2f 89 bf 86 f8 8b 3e 9a 6c 71 be
       -1.6871625 -1.0717593 0.27338046 -0.23576584
000120 ed d3 a4 be 80 4b 2e bf 51 61 28 bf e3 d6 6a 3f
       -0.32192937 -0.68083954 -0.65773493 0.9173414
000130 1f 09 bf 3e a3 94 9d bf 63 91 c7 3f c4 30 2d 3f
       0.37311646 -1.2310985 1.5591244 0.67652535
000140 89 2e 9d 3f 05 ef c8 3e 88 ff 26 c0 bb f5 25 bf
       1.2279826 0.39244857 -2.6093464 -0.6482808
000150 ea 67 3c bf bf a1 21 c0 c4 a8 e5 be 54 48 84 3f
       -0.7359606 -2.5254972 -0.4485532 1.0334573
000160 9f db 0e bd 6d 3c 88 be e6 df 91 3e bb 37 b7 bf
       -0.034877416 -0.266086 0.28491133 -1.4313883
000170 ba 3a 64 3f b1 68 98 3e 8f a6 fe 3e 5e 8c c0 3f
       0.8915211 0.29767373 0.4973645 1.5042837
000180 48 7b b4 3e cd 8c fb 3e 38 67 77 3f 78 c4 ae 3f
       0.35250306 0.4913086 0.96641874 1.3653708
000190 f0 19 a2 be 42 95 44 3f 2f 81 c6 3f 78 6b 4f bf
       -0.31660414 0.7679025 1.5508174 -0.8102336
0001a0 6e 18 e1 3d 1f f8 c4 3e 43 65 6f 3e 92 39 0f 40
       0.10990988 0.3847055 0.23378472 2.2378888
0001b0 8a 7e 3d 3f bf 6f f0 bf f3 5b 94 3d 12 62 c3 3e
       0.7402121 -1.8784102 0.072441004 0.3816076
0001c0 92 1f be bf bf 03 28 3f 04 e1 6a bf fd 04 50 bf
       -1.4853384 0.65630716 -0.91749597 -0.8125761
0001d0 d6 18 82 3f 37 57 40 be 00 0d 1d 3f f5 e2 ff bd
       1.0163829 -0.1878327 0.6134796 -0.124944605
0001e0 6a 48 e0 3c 7e 15 cb bd 80 fb 4c bf 0b 9c a0 bf
       0.02737828 -0.09916209 -0.8007126 -1.254762
0001f0 ba b6 b7 be c2 30 2c bf 57 8b f0 3f 41 2d c8 3f
       -0.35881597 -0.672619 1.8792523 1.563881
000200 1a cd 63 bf 70 8c 07 3f 80 a8 1a be f6 e2 07 c0
       -0.88984835 0.52948666 -0.1510334 -2.1232276
000210 10 39 8c bc fe 58 d4 3f da 3c ad bf c9 2a 96 be
       -0.017117053 1.6589658 -1.3534195 -0.29329517
000220 d4 05 d5 3f 6d a8 dd 3e d7 02 2e 3f fe f5 1f 3f
       1.6642404 0.4329256 0.67973083 0.6248473
000230 50 12 13 bf 99 f6 8a 3e 77 03 11 bd 7f 55 61 bf
       -0.5744982 0.27141264 -0.035403695 -0.8802108
000240 c5 bc 4f 3f b9 6f 3b 3d 8b 4f 9d 3f d0 76 1c 3f
       0.81147414 0.045760844 1.22899 0.61118793
000250 2a 39 6e bf 86 37 9e be e1 3a 39 3f 0b 45 eb bf
       -0.93055975 -0.30901736 0.7235547 -1.8380445
000260 ed 1e 1d c0 ca 26 92 bd f3 0e aa 3e 65 e7 2f 3e
       -2.4550126 -0.07136305 0.3321453 0.17178114
000270 51 b6 c9 be 8c 4e 55 3f 27 ff 2d 3f 27 00 82 bf
       -0.3939691 0.8332298 0.67967457 -1.0156296
000280 c7 2d cb 3d b7 3d 00 3f e8 65 9b 3e ed f8 0f bf
       0.09920841 0.5009417 0.30351186 -0.56239206
000290 50 b1 73 3f 09 92 db 3e 67 a8 cc be 95 ea 3e 3f
       0.9519243 0.42884853 -0.3997223 0.74576694
0002a0 04 a3 03 3e ed 7b 44 be 42 e0 72 3f 5a 08 b8 3f
       0.12855154 -0.19187899 0.9487344 1.4377549
0002b0 97 dc 0c bd 06 40 69 bd e0 f2 07 40 bc d8 11 3f
       -0.03439006 -0.056945823 2.124199 0.56971335
0002c0 2b 91 0e 3f 67 e9 ff 3f e1 b7 f5 3e ea c6 48 3f
       0.5569026 1.9993104 0.4799185 0.7842852
0002d0 d5 8e 3c bf 00 f4 ba 3c ce a9 a7 bd 73 a3 9d be
       -0.73655444 0.022821426 -0.081866845 -0.30788764
0002e0 41 86 e6 3e 86 9b 2c 3f 3f d1 93 be de af e1 3e
       0.45024303 0.6742481 -0.2887058 0.4407949
0002f0 04 76 d0 3f ae ab b3 bf 14 2e 71 be d5 0c d1 bd
       1.6286016 -1.4036767 -0.23552734 -0.10207526
000300 0b 99 9d bf 1d 6c 4a bf 25 b9 13 bf 0d 1e 0b bf
       -1.231233 -0.7907122 -0.57704383 -0.5434273
000310 2e 31 b8 bf db 37 92 bf d7 5c 56 bf b5 9f 60 be
       -1.4390008 -1.1423296 -0.8373541 -0.21935923
000320 aa ce d5 3e 4e aa 4a bf eb 48 63 3e 98 a0 15 bf
       0.41759235 -0.79166114 0.22195785 -0.5844817
000330 0b c6 90 bf 80 92 18 be ba fd c4 be 78 b9 b8 be
       -1.1310438 -0.14899635 -0.38474828 -0.36079
000340 31 70 51 3f d0 40 64 3f c0 ff 74 3e 0f c0 2a 3f
       0.81811816 0.89161396 0.23925686 0.6669931
000350 17 76 af 3f 9f da 56 bf 5b 25 d7 be db 1c 0c 3f
       1.3707913 -0.8392734 -0.42020687 0.5473153
000360 1c 8e 10 bf 0c 01 12 3e 32 8f ec 3d e5 26 06 3f
       -0.5646684 0.14258212 0.1155075 0.524031
000370 da d1 52 3f 0a 5f 8c 3d 83 2d 3e 3f 47 f9 4a 3f
       0.8235146 0.06854065 0.74288195 0.7928662
000380 86 05 b4 3c b9 41 ba be 8a 14 73 be 81 f3 92 be
       0.02197529 -0.36378267 -0.23738304 -0.28701404
000390 a2 07 92 3e 2e 89 de 3e 70 37 fb be 41 d6 1d bd
       0.28521448 0.43464035 -0.49065733 -0.038534407
0003a0 b3 2a 0a 3f 17 65 03 3f 86 ee a5 3f 61 df 0f bf
       0.53971404 0.51326126 1.2963417 -0.56200224
0003b0 de a9 b9 be b5 61 bc 3f fa 0e 51 bf a2 9c aa 3e
       -0.3626241 1.4717318 -0.8166348 0.33322626
0003c0 a4 15 f8 3f a6 4c 62 be 48 c5 48 3f 1a 1d 18 3f
       1.9381604 -0.22099552 0.7842603 0.59419405
0003d0 8e e2 2f 3e ad bc 66 be 26 c7 3b 3f 9c ac 0c be
       0.17176268 -0.22532912 0.7335075 -0.1373772
0003e0 27 a8 2e be 71 7d e8 3e 56 90 9b ba a5 4e 9d be
       -0.17056333 0.45408204 -0.0011868577 -0.30724064
0003f0 0e 28 9a 3f fb 9d 26 3d cc ed 21 3f 1a c7 1c 3f
       1.2043474 0.040678006 0.63253474 0.61241305

group1.group.1.bn2.weight f4 [16]
000000 ba 98 5e 3f 09 9d ae bd ea 46 e6 3e 8e e5 6a 3d
       0.8695179 -0.08526046 0.44975978 0.057347827
000010 98 b1 4a 3f c2 4b 4b 3f aa 64 5a 3f 44 79 2b 3e
       0.79177237 0.7941247 0.8530985 0.16745478
000020 bd f1 22 3f 49 e3 20 3f ac 52 9e 3f cc 5d 96 3f
       0.63650113 0.6284681 1.236898 1.1747375
000030 17 a3 c5 3f 8d 72 ae 3f 0c dc ef 3f 36 a4 1c 3f
       1.5440396 1.3628708 1.8739028 0.61188066

group1.group.1.bn2.bias f4 [16]
000000 a2 d9 22 bd 26 7f 2f bf 7e 4c 0b be 65 86 ca 3c
       -0.039758332 -0.6855339 -0.13603398 0.024722287
000010 7b c0 bb be fe a6 9a 3e 89 13 e0 3c 70 3e 85 bd
       -0.36670288 0.3020553 0.027353065 -0.0650605
000020 73 85 8b bf 42 24 80 be 2b 80 07 bf ac 05 33 be
       -1.09001 -0.25027663 -0.52929944 -0.17482632
000030 fe 8b eb bf 02 e3 31 bf 38 e5 b2 bf 7b 87 0d bf
       -1.8402097 -0.6948701 -1.3976202 -0.5528485

group1.group.1.bn2.running_mean f4 [16]
000000 96 15 3e c1 f7 3c 39 41 8e d2 33 c1 e1 ab 70 c0
       -11.88027 11.577384 -11.238905 -3.7604907
000010 7a 67 a8 c1 fe 8d bd c1 3a 4a 47 c0 a2 e9 2d c1
       -21.050526 -23.694332 -3.1139054 -10.869539
000020 bb 5a a7 c0 01 2b ea 3c f3 8f a8 c1 3d 6b 9b c0
       -5.2298255 0.028584959 -21.070288 -4.8568406
000030 e7 80 8b c0 d5 40 8a c1 01 ca a6 c1 04 33 e0 bf
       -4.359485 -17.281656 -20.848635 -1.7515569

group1.group.1.bn2.running_var f4 [16]
000000 37 47 55 44 df 3d 16 44 82 81 1a 44 20 a2 98 44
       853.11273 600.96674 618.02356 1221.0664
000010 ae cc 41 44 a3 01 89 44 ff 20 1b 44 a2 24 16 44
       775.1981 1096.0511 620.51556 600.5724
000020 89 45 6d 44 44 8e 3c 44 5d bb 08 44 75 90 7b 44
       949.0865 754.2229 546.92755 1006.25714
000030 8e 3e ef 43 1b c2 f3 43 6c 17 4a 44 06 ae 43 44
       478.4887 487.51645 808.36597 782.7191

group2.group.0.conv1.weight f4 [32, 16, 3, 3]
000000 57 b8 ed 3f e7 e0 e4 bd fe 9f 11 bf 16 bc 93 3f
       1.8571881 -0.11175709 -0.56884754 1.1541774
000010 22 58 c8 bf 96 3b 0e 3f d0 25 d5 3f d7 de 18 c0
       -1.5651896 0.5555967 1.6652164 -2.388601
000020 34 24 a7 3f 2e 54 62 be b0 97 d0 3e da 2e 6d 3f
       1.3057923 -0.22102425 0.40740728 0.92649615
000030 4f bd 6b be 9b ba 81 3f f6 ad 34 3f 62 02 33 bf
       -0.23021434 1.0135072 0.70577943 -0.6992551
000040 8c f7 09 3e f1 af 02 bf e9 72 f6 3f 11 43 43 3f
       0.13473338 -0.51049715 1.9253818 0.7627421
000050 65 46 80 bf 47 b5 81 3d 51 31 1f bd 7c 2d 75 bf
       -1.0021483 0.06333404 -0.03886539 -0.9577253
000060 9b b4 1f 3c 6f 49 fd 3e 82 15 2c 3f e1 46 ae bf
       0.00974765 0.49470088 0.6722032 -1.361538
000070 c7 49 1d 3f fb 0b a1 3f 98 60 af bf cc b2 89 3e
       0.614407 1.2581781 -1.3701353 0.26894224
000080 9c 76 91 3f ff 67 5a bf 9d 90 15 3f 68 59 83 3f
       1.1364322 -0.85314935 0.5842379 1.026166
000090 96 f8 34 c0 83 ae 74 3d 42 e8 98 3f 1b 8b 31 c0
       -2.8276725 0.05973674 1.194588 -2.7741153
0000a0 55 e1 dd be eb 81 ca 3d 27 cf f4 bf e7 7d 34 3f
       -0.43335977 0.09888061 -1.9125718 0.7050461
0000b0 bd 0d 91 3d 2f e6 b6 3f ef ee 9a bf 84 fd a2 3f
       0.070826985 1.4288996 -1.2104167 1.2733617
0000c0 8b a8 26 40 dd 0e dd bf ef 91 2f c0 9c d1 b2 3f
       2.604037 -1.7270161 -2.743282 1.3970218
0000d0 cb ad 75 bf fb 32 65 c0 d6 52 4e 3d 3d 4b ea be
       -0.9596831 -3.5812366 0.050371967 -0.45760527
0000e0 db 7d 68 bf 49 c0 88 3f 6f 92 b4 be 20 da fe bf
       -0.9081704 1.0683681 -0.3526797 -1.9910316
0000f0 06 83 d2 3f eb 4e 7f bf eb 2c 3b c0 a1 c5 4c 3f
       1.6446235 -0.99729794 -2.9246166 0.7998906
000100 31 92 84 bf 80 a3 54 be bb 17 62 3f d9 a0 22 c0
       -1.0357114 -0.20765495 0.8831746 -2.5410674
000110 a9 6c 12 c0 0c ec af 3e 43 2c f7 bf f0 82 02 c0
       -2.287882 0.34359777 -1.9310383 -2.0392418
000120 97 3a a7 3f aa 8b 84 3f 8e 89 5b bf 37 56 8e 3f
       1.3064755 1.0355122 -0.85756767 1.1120061
000130 0e 58 a1 3f 57 67 59 bf ac 24 b7 3f 95 0c db 3f
       1.2604997 -0.8492331 1.4308066 1.7113215
000140 74 7c 31 bf 02 cb c3 3e a6 2c de 3e 01 ef 46 40
       -0.69330525 0.3824082 0.4339344 3.1083376
000150 fe e3 fb 3e 70 24 a0 bf 20 fb 3b 3f 71 40 8e bf
       0.49197382 -1.251112 0.7343006 -1.1113416
000160 89 4e d7 bf 92 53 20 bf dc 64 d0 bd 96 d3 1a 3f
       -1.6820842 -0.6262752 -0.101754874 0.60479105
000170 1f a1 6c bf 11 f6 f4 3e 2b b3 1b 3f 4c 39 a6 bf
       -0.9243335 0.47843984 0.60820264 -1.2986236
000180 fe ee 08 3d 65 f9 32 3f ce 21 04 3c 66 c9 0e 3f
       0.033431046 0.69911796 0.0080647 0.5577606
000190 ee 2a a5 be 02 9e 01 bf 00 03 ce 3e 6f 48 18 40
       -0.32259315 -0.50631726 0.40236664 2.379421
0001a0 3c 11 57 3f b1 ee 32 bf 26 0c 01 40 b4 c5 99 3f
       0.8401067 -0.69895464 2.0163665 1.2013459
0001b0 bf ee 2d bf a6 cb 62 3f ac 40 54 3e 63 30 34 3f
       -0.6794242 0.8859199 0.20727795 0.7038633
0001c0 ee 80 3b bf 36 4f 13 bf 07 d2 d7 bf 0a c9 89 3f
       -0.73243606 -0.5754274 -1.686097 1.0764477
0001d0 bc 35 1d 3f 78 76 ac bf d4 08 a1 be 5a 47 71 3f
       0.6141012 -1.3473654 -0.31452048 0.942495
0001e0 1a bb ae bf b9 cc 1d bf 0d e9 39 bf 14 ba 7b bf
       -1.3650849 -0.61640507 -0.7262123 -0.9833081
0001f0 df cd b9 3f 29 a3 7c bf 40 ba 48 3f ce f5 64 bf
       1.4515952 -0.9868646 0.78409195 -0.8943757
000200 57 06 8b 3f 73 cb 1c 40 7f e1 60 bf 29 15 c6 be
       1.086131 2.4499176 -0.8784408 -0.3868802
000210 7c 5d 5b 3f d3 5d df bf 4f e2 e9 3e fc 64 8a 3f
       0.8568952 -1.7450508 0.45680472 1.0812068
000220 99 53 62 bf 21 86 81 3e 01 44 63 bd 73 ed 93 bf
       -0.8840881 0.25297645 -0.055484775 -1.1556839
000230 b8 f3 f0 bd 41 ba c0 be 1f 03 7b bf e7 e1 60 bf
       -0.11765236 -0.376421 -0.9805164 -0.878447
000240 66 f0 6a bd 51 e1 d4 be fa 7e d9 3e c0 b9 a7 bd
       -0.057358168 -0.41578153 0.42479688 -0.08189726
000250 44 a8 12 3e f4 c4 f4 3e 7a b6 3f bd a1 0c 86 be
       0.14322 0.47806513 -0.046804883 -0.2618151
000260 f0 85 b7 bd 5a 98 51 3d 08 b2 03 3e f6 02 84 3e
       -0.089610934 0.051170684 0.12860882 0.2578351
000270 32 6a 85 3e 03 7a 0d 3f c8 6b 87 3d 9c 1c ef 3e
       0.26057583 0.552643 0.066123545 0.46701515
000280 2b 53 0a 3f 6f 9d 81 3e b1 ab 45 bf 83 e6 86 be
       0.54033154 0.25315425 -0.77215105 -0.2634774
000290 e2 b7 4b bf 56 08 22 bf a0 d3 a5 be f4 4a 19 3e
       -0.7957746 -0.6329397 -0.3238802 0.14969999
0002a0 1c 20 d8 be 5e ce a4 be d5 ae d7 3e cb 5e cb 3c
       -0.42211998 -0.32188696 0.42125574 0.024825474
0002b0 82 a2 52 3f 60 ac 1e bf be 80 d8 3e 9b 0d ba 3e
       0.8227922 -0.61981773 0.42285722 0.36338505
0002c0 ce 11 c6 be fa 83 b1 3e 0f d9 0f 3e bc 03 8f 3e
       -0.3868546 0.34671003 0.14047645 0.27932537
0002d0 1d d3 76 3e 89 aa 91 3e a7 dd e1 be 41 7c cb 3e
       0.24103971 0.2845042 -0.4411442 0.39743236
0002e0 ea c8 5b bc 31 22 ec be 3a a0 10 3e d8 07 30 be
       -0.013414601 -0.46119836 0.14123622 -0.17190492
0002f0 c0 34 28 bf 24 18 a9 be 6e 51 c6 bd a4 7a a9 3e
       -0.6570549 -0.3302623 -0.096835 0.3310138
000300 54 f2 33 bf 87 76 2e bd c0 11 ce 3e 8c 80 1e bf
       -0.7029164 -0.042593505 0.40247917 -0.61914897
000310 b2 1f 92 3d 0a 9d da be f2 5c 88 bd 6e 64 a4 be
       0.07134952 -0.42697936 -0.06658353 -0.32107872
000320 f3 db 9d 3d fe 14 1c bf 99 f2 15 bf 99 bf 02 3f
       0.077079676 -0.6096953 -0.585733 0.51073605
000330 17 10 0e be 35 ef bf 3d 75 fb 09 3f 1b 8d b6 3e
       -0.13873325 0.09371797 0.5389932 0.3565453
000340 31 d8 5f 3e 77 04 2e be 74 df 8f 3e bb 3f 60 3e
       0.21859814 -0.1699389 0.2810017 0.21899311
000350 5b a3 4f 3d 71 5a 97 3e 6b 86 c6 be 43 b9 f6 bc
       0.050692897 0.2956119 -0.38774428 -0.030117637
000360 59 70 63 bf aa f1 ba bd f6 ca 68 3d 05 90 79 bf
       -0.88843304 -0.09128125 0.056834184 -0.9748538
000370 c2 62 bf bd b0 88 b1 3d 8d 71 01 bf 98 07 4f 3e
       -0.093450084 0.08668649 -0.5056389 0.2021774
000380 89 f3 d7 3e c2 b0 86 bf e8 94 92 be 6f 4d 6f 3e
       0.4217799 -1.0522692 -0.2862923 0.23369382
000390 4d d0 20 bf ad 12 09 bf ed ab 7f be 3d 75 74 bd
       -0.6281784 -0.5354412 -0.24967928 -0.05968212
0003a0 8c 8d af bc 34 cd c4 be b6 24 09 be 4b 4f b9 3d
       -0.0214298 -0.38437808 -0.1339291 0.09048327
0003b0 07 35 3a 3c d8 21 c3 be f4 89 7c bd 77 e6 f5 3e
       0.011365182 -0.38111758 -0.061655 0.48027393
0003c0 7c 96 f4 be 04 a8 6d bf 9b 57 8e 3f a6 51 4f bf
       -0.4777106 -0.92834496 1.1120485 -0.8098396
0003d0 fd 8f 4a bf 69 e7 9c bf 54 65 2b bf 9e fe 31 bf
       -0.7912596 -1.2258121 -0.6695149 -0.6952914
0003e0 60 9b 66 bf 77 87 c2 be 41 e4 3b bf 5b 51 bb bf
       -0.90080833 -0.37993976 -0.7339516 -1.4634203
0003f0 e1 19 00 bf 9c 27 81 3e 26 c6 55 bc ea ce c7 be
       -0.5003949 0.25225532 -0.013047731 -0.3902505

group2.group.0.bn1.weight f4 [32]
000000 0e 29 04 40 a8 ec 73 3e ea a4 e6 3f b7 a0 f0 3f
       2.0650058 0.23820746 1.8019078 1.8799046
000010 ae 32 21 40 a5 f8 89 3f e6 97 ba 3f 17 09 34 40
       2.5187182 1.0779005 1.4577606 2.8130548
000020 75 ad 2f 40 8b e9 d2 3f 13 3b 08 40 54 41 c3 3f
       2.744962 1.6477522 2.1286056 1.5254312
000030 54 6b eb 3f 58 27 1b 40 a7 f3 0b 40 bc 23 ed 3f
       1.8392129 2.4242764 2.1867464 1.852653
000040 fb 1f 22 40 60 eb e2 3f 6c ec 75 3f ce 7a 1b 40
       2.533202 1.7728081 0.96063876 2.4293704
000050 37 52 ae 3f 19 43 d9 3f 9f b9 00 40 a0 83 02 40
       1.361884 1.6973602 2.0113294 2.0392838
000060 5c e0 e0 3f e0 75 e9 3f bf 62 08 40 86 4c e4 3f
       1.7568469 1.8239098 2.131027 1.7835853
000070 be 61 f9 3f 12 7d 03 40 44 da 39 40 2d a3 8d 3f
       1.9482954 2.0545087 2.9039469 1.1065422
